trained_models/autoencoder_32_central_chans.pt (torch, 206328 bytes, 4 tensors)

encoder.weight f4 [32, 784]
-0.005613472 -0.017452253 -0.018791059 -0.0073188418 -0.022596462 -0.016416937 -0.028801456 0.008480362
-0.014348917 0.013065607 0.032938715 0.0010354519 -0.2961342 -0.53111434 -0.3515924 -0.13038489
-0.01331148 0.009447873 0.032682613 0.021978123 0.030994685 -0.02463997 0.025984041 0.0087006735
0.024531178 0.030993398 0.004862462 -0.006557239 -0.024555497 0.033953853 -0.029231712 0.013948339
0.19955865 0.2652201 -0.001388495 0.07015664 0.27179214 0.34333837 0.12689337 -0.1001533
0.17947236 0.025464898 0.16096704 0.23288277 -0.22877169 -0.086340584 0.234223 -0.04516146
-0.022297507 0.23383623 0.24461134 0.21939144 -0.023014767 -0.024355162 0.02582608 -0.014441635
0.034362216 -0.015621276 -0.19056013 -0.18600376 0.08077933 -0.0027587854 0.3867138 0.5007987
0.3272558 0.50631654 0.39621204 0.35913822 0.5866859 0.5416104 0.6109415 0.7825171
0.79487246 0.6701186 0.67576796 0.582184 0.34360832 0.22122689 0.08367444 -0.015899725
-0.17255251 -0.2111685 0.012724268 -0.0057497537 -0.018417567 -0.024802687 -0.23807694 -0.21144806
0.098350815 0.13624154 0.10540395 0.35833997 0.21251723 0.1556338 0.35781273 0.19093436
0.18856195 0.18863316 0.28447387 0.32172868 0.3915072 0.5166163 0.34104687 0.59243655
0.28364405 0.1881957 0.21414287 -0.042169437 0.05616973 -0.062155977 0.047603484 -0.022939952
-0.03391047 0.1078455 -0.27252033 -0.25474706 0.21956801 -0.104517646 -0.10333487 0.016053624
0.22834794 0.14716421 0.2512246 0.28309906 0.22480136 0.19232029 0.1332117 0.18175279
0.13147405 0.23133647 0.28823036 0.34138003 0.32339677 0.17024969 0.12669383 -0.04217995
0.10122858 0.2914108 -0.0035709783 -0.050495084 -0.030540558 -0.020932492 -0.37216988 -0.1598349
0.38287455 0.10813707 -0.019654129 -0.12248041 0.021338686 0.19596358 0.24422413 0.17841196
0.1910546 0.1834532 0.1870861 0.16114351 0.22264189 0.2113706 0.31622794 0.27537516
0.23509623 0.12844428 0.06632247 0.016174043 -0.0400945 0.123026475 0.14236459 0.011252824
-0.012829709 -0.018442698 -0.17697765 0.12656221 -0.10420555 -0.18334894 -0.2983152 -0.07586729
0.050625727 0.13920313 0.15596834 0.11110002 0.05357863 -0.04912695 -0.07373426 0.055081688
0.11487445 0.19239879 0.19197515 0.14863306 0.16080633 0.15236326 0.09948497 0.085636005
0.1200122 0.23560092 0.020138314 0.3279842 -0.17114295 -0.030363008 0.012819758 0.017797146
-0.25772348 -0.1443947 -0.17857593 -0.08041877 0.005751497 0.10493886 0.059515443 -0.033018615
-0.023426373 -0.08788954 -0.13209932 -0.08626872 0.06689572 0.10754542 0.18541183 0.24608621
0.20390376 0.23192081 0.13299854 0.090251684 0.07725044 0.07548574 0.10151284 0.2559867
-0.25373355 -0.039772343 -0.13053624 -0.008652869 -0.13710368 -0.30687124 -0.22882424 -0.0442317
-0.01730423 0.13021539 0.12293912 0.07037051 0.047742993 -0.0009193256 -0.117365606 -0.1371372
-0.10761599 -0.0661647 0.04504143 0.13734804 0.22225358 0.27484852 0.16868086 0.2298429
0.2325469 0.23410508 0.15792748 0.24446252 -0.22929017 0.014028602 -0.12358811 -0.010615542
00000000: 37f1 b7bb 07f8 8ebc b5ef 99bc e5d2 efbb
00000010: 371c b9bc d07c 86bc 08f1 ebbc 37f1 0a3c
00000020: b817 6bbc 2111 563c bfea 063d 00b8 873a
00000030: e79e 97be 1cf7 07bf eb03 b4be 9e83 05be
00000040: 6518 5abc 40cb 1a3c 34de 053d 770b b43c
00000050: 91e8 fd3c c3d9 c9bc 7cdc d43c 458d 0e3c
00000060: 9cf5 c83c dee5 fd3c 4a55 9f3b 1cde d6bb
00000070: 9c28 c9bc 3213 0b3d 5877 efbc 9387 643c
00000080: 1a59 4c3e eeca 873e 29fe b5ba 49ae 8f3d
00000090: 5728 8b3e 0cca af3e 56f0 013e 2c1d cdbd
000000a0: 9ac7 373e c39b d03c 8bd4 243e d278 6e3e
000000b0: 2043 6abe 55d3 b0bd 27d8 6f3e 39fb 38bd
000000c0: 43a9 b6bc c472 6f3e 657b 7a3e 26a8 603e
000000d0: 7789 bcbc 7a84 c7bc 3791 d33c 9c9c 6cbc
000000e0: 65bf 0c3d 61f0 7fbc 3222 43be c577 3ebe
000000f0: a26f a53d bdcc 34bb 5aff c53e 5834 003f
00000100: 128e a73e f69d 013f 4edc ca3e f7e0 b73e
00000110: 0c31 163f fba6 0a3f aa66 1c3f 0a53 483f
00000120: c37c 4b3f e48c 2b3f 21ff 2c3f 030a 153f
00000130: 6eed af3e 4d89 623e 815d ab3d 2440 82bc
00000140: 9bb1 30be 8e3c 58be 7379 503c 6e68 bcbb
00000150: 70e0 96bc 012f cbbc 71ca 73be d785 58be
00000160: 276c c93d e782 0b3e 07de d73d 5678 b73e
00000170: 1e9e 593e 785e 1f3e 3b33 b73e 4c84 433e
00000180: 6216 413e 0d29 413e 8fa6 913e 9fb9 a43e
00000190: a273 c83e f740 043f b29d ae3e eca9 173f
000001a0: cb39 913e 60b6 403e 4548 5b3e dcb9 2cbd
000001b0: 3b12 663d 4497 7ebd dffb 423d 91ec bbbc
000001c0: b4e5 0abd 1ade dc3d c987 8bbe 356e 82be
000001d0: 70d6 603e 590d d6bd 3ba1 d3bd e482 833c
000001e0: 0bd4 693e 37b2 163e 83a0 803e 5cf2 903e
000001f0: 5432 663e 9cef 443e a668 083e 671d 3a3e
00000200: 22a1 063e 78e3 6c3e ee92 933e 5dc9 ae3e
00000210: 4394 a53e ef55 2e3e 07bc 013e e2c4 2cbd
00000220: ee50 cf3d cc33 953e 1307 6abb efd3 4ebd
00000230: 3130 fabc 9e7a abbc 0d8d bebe c3ab 23be
00000240: 2208 c43e f876 dd3d b201 a1bc 02d7 fabd
00000250: 78ce ae3c adaa 483e e415 7a3e a0b1 363e
00000260: d1a3 433e 28db 3b3e 8093 3f3e ce02 253e
00000270: 3cfc 633e 8971 583e a1e8 a13e f9fd 8c3e
00000280: 11bd 703e e686 033e 13d4 873d 6d7f 843c
00000290: 213a 24bd 4ef5 fb3d 06c8 113e c45d 383c
000002a0: b333 52bc 2415 97bc a139 35be 8699 013e
000002b0: b869 d5bd d3bf 3bbe c5bc 98be 4f60 9bbd
000002c0: ec5c 4f3d 448b 0e3e 2ab6 1f3e 6888 e33d
000002d0: 4475 5b3d 5739 49bd fd01 97bd 569d 613d
000002e0: 4c43 eb3d 3004 453e 2295 443e 4433 183e
000002f0: 6aaa 243e 1d05 1c3e c7be cb3d ee61 af3d
00000300: f5c8 f53d 5e41 713e 1bf9 a43c 8ced a73e
00000310: 1940 2fbe d8bb f8bc f609 523c 52cb 913c
00000320: 55f4 83be 34dc 13be 9cdc 36be 99b2 a4bd
00000330: 0e77 bc3b 2fea d63d 77c6 733d 873e 07bd
00000340: aae8 bfbc 6eff b3bd 0b45 07be a8ad b0bd
00000350: a000 893d c640 dc3d 99dc 3d3e 06fe 7b3e
00000360: 26cc 503e a67c 6d3e c530 083e e0d5 b83d
00000370: 7b35 9e3d 4598 9a3d f7e5 cf3d b010 833e
00000380: 5de9 81be 53e8 22bd 4bab 05be c3c4 0dbc
00000390: e864 0cbe 3a1e 9dbe e750 6abe 4d2c 35bd
000003a0: 9ac1 8dbc 2f57 053e 81c7 fb3d 6a1e 903d
000003b0: 288e 433d e6fe 70ba 615d f0bd b26d 0cbe
000003c0: c665 dcbd 5c81 87bd 5d7d 383d f7a4 0c3e
000003d0: 7196 633e f2b8 8c3e adba 2c3e f05b 6b3e
000003e0: c620 6e3e 3eb9 6f3e beb7 213e 6254 7a3e
000003f0: 0bcb 6abe 39d8 653c c31b fdbd cfec 2dbc

encoder.bias f4 [32]
0.4499012 2.3767993 -0.033964135 -0.02214985 -0.0038721184 2.2180014 -0.63301593 2.6351047
1.3157649 -0.016688647 -0.13544106 -0.016165957 -1.1061078 0.9800787 -0.033966396 1.3149483
1.8510852 -0.011442334 -0.019401666 -0.00065821485 -0.027358295 2.8524768 -0.87811077 1.9064668
1.8459626 -0.9111333 -0.02588496 -1.9049329 0.8757803 1.6840199 -0.97942334 2.1494062
00000000: 7359 e63e 7b1d 1840 fa1d 0bbd 9a73 b5bc
00000010: 5ec3 7dbb bcf3 0d40 550d 22bf 8ea5 2840
00000020: fc6a a83f a1b6 88bc 10b1 0abe 786e 84bc
00000030: f194 8dbf 70e6 7a3f 5920 0bbd 3a50 a83f
00000040: 5cf0 ec3f a178 3bbc 3ef0 9ebc 0d8c 2cba
00000050: 811e e0bc fb8e 3640 decb 60bf 1b07 f43f
00000060: 8148 ec3f 0840 69bf b20c d4bc d7d4 f3bf
00000070: 2333 603f f78d d73f 7dbb 7abf df8f 0940

decoder.weight f4 [784, 32]
-0.12141595 0.031549193 -0.16915682 -0.15227628 -0.006341766 -0.042413883 -0.011200631 -0.20482507
0.01330232 0.03973731 -0.21440902 0.15905921 0.0519981 -0.20447375 -0.12943982 -0.07400435
-0.20644416 0.08185603 0.09295044 -0.10732433 -0.025357176 -0.5070345 0.0718565 -0.02668068
-0.016713668 -0.17305608 0.16439937 -0.20881052 -0.073820435 -0.05754336 -0.11775134 -0.08479188
-0.17790557 -0.2017955 0.114782974 0.0885752 -0.1529271 0.043959986 0.10002203 0.013924042
-0.16233571 -0.08216694 -0.09104525 0.038023595 -0.13829231 0.03543734 0.10805004 -0.14744262
-0.22095448 0.102397315 -0.0069372742 0.16870448 -0.09323964 -0.512035 -0.124125265 0.094564244
-0.15995139 -0.2039649 0.14438812 -0.03284057 -0.12439226 0.012693668 -0.04485733 -0.07154175
-0.24434026 -0.073232815 0.072355956 0.035410777 0.10722639 0.050130386 -0.16489314 0.04135914
0.026601821 -0.16824698 0.00032184934 0.030835927 -0.1303182 -0.03089642 -0.16436817 -0.10717223
0.013062597 -0.088707924 -0.04630659 -0.0075970544 -0.11054582 -0.7912973 -0.02024803 -0.18215755
0.034329534 -0.20650432 0.10363217 0.021857528 -0.041561414 -0.1968799 -0.10818049 -0.05131192
0.0084222695 0.07559087 0.093080826 -0.009549375 -0.17326868 0.08149991 -0.03195174 0.020595774
0.03982392 0.14711885 -0.03089031 -0.049696364 -0.20319916 -0.1891237 0.04870357 -0.16806656
-0.06719461 -0.14095356 -0.0024553176 -0.118887156 -0.1232987 -0.66548204 -0.07579267 -0.22101364
-0.16089967 -1.6786418e-05 0.005167911 -0.15912071 0.070267536 -0.14318505 -0.2320736 -0.21642122
-0.050245434 -0.12941149 -0.16423053 -0.10395871 -0.043814983 0.02264988 -0.2611449 -0.034443576
0.086034924 0.0881574 -0.013423293 0.070228264 0.039535634 0.013809654 -0.064270705 -0.06717402
-0.0968299 -0.07819774 0.16454913 0.1649728 -0.08792791 -0.86372715 -0.008738884 -0.008949368
0.05333511 -0.14958996 0.13213068 -0.12978934 -0.22338949 -0.1168305 -0.056104794 -0.25057706
-0.12989211 -0.077369064 0.06332555 -0.018706394 0.11604829 0.022631312 -0.034810834 -0.1205561
-0.13412654 -0.057900798 -0.17508622 0.052794777 -0.16857417 0.010360481 0.012790337 -0.20617114
-0.06352443 -0.11185676 -0.08451035 0.0025512879 -0.088648126 -0.48236072 -0.08569618 -0.15591843
-0.20655635 -0.17355452 -0.10415322 0.037106216 0.06441513 0.07247051 -0.043354977 -0.17035933
0.040451385 -0.2296293 0.0024705774 -0.04884683 -0.12572221 0.0065872455 -0.03400463 0.045401864
-0.095655404 -0.06312267 -0.10763846 -0.104803436 -0.05281508 -0.18019925 0.05258171 -0.0508245
-0.18708986 -0.17284481 -0.021492157 -0.09753284 0.11800067 -0.5975487 -0.08728417 0.012707085
-0.18079302 -0.042927593 -0.047941417 -0.057605915 -0.11689471 0.031120844 -0.16553599 -0.1971706
-0.08604395 -0.01305597 -0.029994447 -0.16596776 0.14115715 -0.013427027 -0.21489735 -0.041651413
-0.10632626 -0.016842859 -0.14382215 -0.077431194 -0.18003963 -0.07348359 0.15659842 -0.0466396
-0.28542128 -0.07666293 -0.029938458 0.032925908 0.110204294 -0.633988 -0.15698448 -0.19729705
0.0047182427 0.031768948 0.094217785 0.04879269 -0.03527357 -0.080513075 -0.03397925 -0.16685025
00000000: eda8 f8bd ba39 013d 7237 2dbe 50ee 1bbe
00000010: 97ce cfbb 2eba 2dbd da82 37bc aabd 51be
00000020: f9f1 593c 97c3 223d 0a8e 5bbe 6be0 223e
00000030: f6fb 543d 9161 51be df8b 04be 988f 97bd
00000040: 1966 53be 22a4 a73d cd5c be3d dccc dbbd
00000050: dab9 cfbc 03cd 01bf 8029 933d 7191 dabc
00000060: 1aeb 88bc 9d35 31be 4f58 283e 6dd2 55be
00000070: 2b2f 97bd 96b2 6bbd 9d27 f1bd 5da7 adbd
00000080: e12c 36be 7ba3 4ebe 5613 eb3d ea66 b53d
00000090: ec98 1cbe 630f 343d 5ad8 cc3d aa21 643c
000000a0: 553b 26be 2447 a8bd ef75 babd a1be 1b3d
000000b0: 809c 0dbe bf26 113d 5749 dd3d 33fb 16be
000000c0: e441 62be afb5 d13d 1352 e3bb dec0 2c3e
000000d0: 6df4 bebd ba14 03bf 6335 febd e6aa c13d
000000e0: 4cca 23be 2ddc 50be 7bda 133e d583 06bd
000000f0: 5fc1 febd 1af9 4f3c 52bc 37bd 7b84 92bd
00000100: 5534 7abe 16fb 95bd 5c2f 943d e40a 113d
00000110: 8299 db3d 8555 4d3d bfd9 28be 3468 293d
00000120: 10ec d93c f048 2cbe e3bd a839 a09b fc3c
00000130: 2272 05be 7d1a fdbc 2150 28be 1d7d dbbd
00000140: 8104 563c 80ac b5bd fbab 3dbd b6f0 f8bb
00000150: d965 e2bd 7692 4abf 32df a5bc 8287 3abe
00000160: 209d 0c3d de75 53be 1a3d d43d 8f0e b33c
00000170: 4d3c 2abd e29a 49be bc8d ddbd 732c 52bd
00000180: 8ffd 093c 63cf 9a3d 29a1 be3d fb74 1cbc
00000190: 586d 31be 6de9 a63d d4df 02bd 78b8 a83c
000001a0: 681e 233d 53a6 163e ad0d fdbc 6a8e 4bbd
000001b0: 7113 50be a5a9 41be 657d 473d a419 2cbe
000001c0: 549d 89bd 2156 10be 65e9 20bb 1c7b f3bd
000001d0: 0784 fcbd 085d 2abf 3039 9bbd 6651 62be
000001e0: e2c2 24be 8fd0 8cb7 9457 a93b 8af0 22be
000001f0: 6de8 8f3d 1a9f 12be b4a4 6dbe 869d 5dbe
00000200: 28ce 4dbd 7284 04be 0c2c 28be 4ee8 d4bd
00000210: 5777 33bd 3e8c b93c c9b4 85be b514 0dbd
00000220: 1433 b03d de8b b43d 5fed 5bbc d6d3 8f3d
00000230: 1ef0 213d e341 623c 5ca0 83bd 8892 89bd
00000240: c14e c6bd 2326 a0bd 917f 283e a1ee 283e
00000250: 8c13 b4bd 391d 5dbf 892d 0fbc 5fa0 12bc
00000260: eb75 5a3d 1c2e 19be 444d 073e 7fe7 04be
00000270: 37c0 64be d444 efbd 24ce 65bd a34b 80be
00000280: 7002 05be ac73 9ebd d3b0 813d 273e 99bc
00000290: baaa ed3d 4d65 b93c ce95 0ebd 1ee6 f6bd
000002a0: 7858 09be 6329 6dbd cd49 33be 563f 583d
000002b0: b59e 2cbe 02bf 293c 908e 513c 871e 53be
000002c0: 1919 82bd 2815 e5bd c313 adbd 8233 273b
000002d0: 268d b5bd fcf7 f6be 7b81 afbd 15a9 1fbe
000002e0: 8283 53be 47b8 31be 494e d5bd b0fc 173d
000002f0: 14ec 833d 6b6b 943d fd94 31bd ad72 2ebe
00000300: 5ab0 253d f123 6bbe 69e9 213b 9d13 48bd
00000310: 53bd 00be d2d9 d73b 7048 0bbd 4ef7 393d
00000320: fbe6 c3bd 7546 81bd 8e71 dcbd 2fa3 d6bd
00000330: a054 58bd 2786 38be eb5f 573d 5a2d 50bd
00000340: 7c94 3fbe 3bfe 30be 5210 b0bc 4cbf c7bd
00000350: 56aa f13d f4f8 18bf 0bc2 b2bd 6131 503c
00000360: ce21 39be d8d4 2fbd 385e 44bd 2ef4 6bbd
00000370: 7e66 efbd 24f1 fe3c 4482 29be 17e7 49be
00000380: cf37 b0bd b5e8 55bc eab6 f5bc 74f3 29be
00000390: 808b 103e 08fd 5bbc 0d0e 5cbe ac9a 2abd
000003a0: 95c1 d9bd 09fa 89bc 1d46 13be 3f94 9ebd
000003b0: 4f5c 38be 907e 96bd 565b 203e 2a09 3fbd
000003c0: bd22 92be 7401 9dbd 7f41 f5bc 51dd 063d
000003d0: cab2 e13d 0a4d 22bf 8ac0 20be 3d08 4abe
000003e0: 7d9b 9a3b 2820 023d 41f5 c03d d8da 473d
000003f0: 057b 10bd 0ae4 a4bd d32d 0bbd cbda 2abe

decoder.bias f4 [784]
-0.20313855 -0.19144286 -0.22488771 -0.0055930144 -0.20626956 -0.12541613 0.10326023 0.027228272
0.09277201 0.070078254 0.06403524 0.0538005 0.09380234 0.07416841 -0.0938631 -0.07912888
-0.07906179 -0.06583327 0.08895577 -0.20530488 -0.18011239 -0.043530155 0.11871709 -0.10709284
0.07760662 -0.0612638 0.06011115 0.08506984 -0.1927966 -0.17254406 0.043632023 0.023145799
-0.10597262 -0.17332238 0.063689254 -0.16474977 0.008252392 -0.16396621 0.074093625 -0.14877056
-0.05390398 0.109789915 -0.15460287 -0.038442325 -0.024519527 0.118407026 0.07751183 0.053266164
-0.08106932 -0.20192291 0.0124158105 -0.09551879 0.11632399 -0.12316578 -0.0995098 -0.029135915
-0.0861679 0.015882894 0.037474692 0.08282964 -0.09255245 0.016104205 -0.012057051 -0.115470126
-0.09500945 0.10645544 -0.010415459 -0.034978632 -0.3544755 0.07791188 -0.23363258 -0.15112501
-0.1194058 0.0054818736 0.04639521 -0.006928512 -0.11631744 0.117563955 -0.045871705 -0.08132699
-0.10369111 -0.18626957 -0.1855679 -0.003353119 0.113528855 -0.11291033 -0.21694139 -0.19480646
0.07120335 -0.012676972 -0.022528311 -0.095694475 -0.14646974 0.06661452 -0.26460972 -0.15569334
-0.5502615 -1.0361537 -0.75430906 -0.010920653 -0.5521682 -0.57083386 -0.15223567 -0.3903878
-0.122747496 -0.19579595 -0.18367335 -0.18379276 0.10557217 -0.13301846 0.027947647 0.075594336
-0.055384904 -0.2060985 -0.051430166 -0.05482528 -0.13580151 -0.083928086 0.047285754 -0.2911212
-0.028278312 -0.49026817 -0.85138434 -1.024722 -0.756534 -0.97450054 -0.8423062 -1.144206
-0.92352647 -0.7215968 -0.48852214 -0.48395324 -0.42701307 -0.09547667 -0.34963074 -0.1637474
-0.14457446 0.0449744 -0.026822658 -0.17058653 0.07580913 -0.15507525 -0.21616665 -0.00066302717
-0.08883112 0.092113376 -0.3490559 -0.2968208 -0.52387506 -0.47930157 -0.5524994 -0.5383077
-0.43547502 -0.46780172 -0.89311296 -0.86238277 -0.9490787 -0.35386235 -0.3456137 -0.097746044
-0.0030061253 0.040461615 -0.052907854 -0.17493638 -0.26046667 -0.05117852 0.066217944 -0.13509484
0.09960916 0.13444746 0.1427515 0.12847993 -0.2817964 -0.23085308 0.066112444 0.035246722
-0.12772289 -0.1649344 0.17865275 0.036076006 -0.13374893 -0.29626393 -0.57893187 -1.1012976
-1.0997957 -0.8147913 -0.5051285 -0.05293331 0.30533546 0.2411095 0.20873088 -0.094660506
-0.3832249 -0.15281624 -0.03381497 -0.030513441 0.08795872 -0.03563815 -0.18815885 0.0034555958
-0.25367218 -0.184352 -0.06854115 -0.020381952 -0.20169897 -0.10182646 -0.15089864 -0.19093844
-0.35616043 -0.70979583 -1.3237463 -1.5616908 -1.6444697 -1.374816 -1.0980871 -0.60773134
-0.26629105 0.0051249913 0.105839446 -0.29125333 -0.57069176 -0.110920794 0.1363482 -0.12119522
0.08837528 0.003714186 -0.19209361 0.060523268 -0.33073887 -0.13286495 0.064087786 -0.10302561
-0.2026614 -0.59900093 -0.498771 -0.32877153 -0.8709954 -1.1947114 -1.815016 -1.9765683
-1.685956 -1.5028096 -1.4464014 -1.173023 -0.79276544 -0.342806 -0.4113474 -0.2863539
-0.44712937 -0.19025375 -0.15241398 0.12584065 -0.15040182 -0.21186596 0.054850653 -0.099280685
00000000: 8d03 50be 9909 44be f748 66be 9b45 b7bb
00000010: 5438 53be 166d 00be 197a d33d d30d df3c
00000020: 40ff bd3d 3085 8f3d e824 833d ea5d 5c3d
00000030: 711b c03d 9be5 973d 4c3b c0bd 520e a2bd
00000040: 26eb a1bd 98d3 86bd 712e b63d 713b 52be
00000050: 626f 38be ad4c 32bd f221 f33d 7e53 dbbd
00000060: 38f0 9e3d c0ef 7abd 1c37 763d 1939 ae3d
00000070: 796c 45be 64af 30be 7eb7 323d 429c bd3c
00000080: 2c08 d9bd 6c7b 31be 836f 823d 2ab4 28be
00000090: 0a35 073c c2e6 27be 66be 973d 4f57 18be
000000a0: 6bca 5cbd 89d9 e03d 3750 1ebe b375 1dbd
000000b0: 2ddd c8bc 627f f23d 86be 9e3d 9f2d 5a3d
000000c0: ac07 a6bd e1c4 4ebe af6b 4b3c 5b9f c3bd
000000d0: 463b ee3d 573e fcbd cbcb cbbd 71ae eebc
000000e0: cc78 b0bd d81c 823c 107f 193d 96a2 a93d
000000f0: 248c bdbd f7ec 833c f08a 45bc 9a7b ecbd
00000100: 5194 c2bd 4f05 da3d 9aa5 2abc c145 0fbd
00000110: d07d b5be 4490 9f3d 613d 6fbe 84c0 1abe
00000120: 078b f4bd 4aa1 b33b e708 3e3d 9208 e3bb
00000130: d737 eebd 5fc5 f03d f8e3 3bbd c48e a6bd
00000140: 015c d4bd 73bd 3ebe 8305 3ebe 00c0 5bbb
00000150: d181 e83d 883d e7bd e225 5ebe 587b 47be
00000160: 10d3 913d 13b3 4fbc 4b8d b8bc 77fb c3bd
00000170: 2afc 15be 326d 883d ed7a 87be 136e 1fbe
00000180: f0dd 0cbf afa0 84bf 661a 41bf 8aec 32bc
00000190: e55a 0dbf 2b22 12bf abe3 1bbe e9e0 c7be
000001a0: 0a63 fbbd bc7e 48be de14 3cbe 2b34 3cbe
000001b0: 3936 d83d fe35 08be 77f2 e43c 34d1 9a3d
000001c0: 48db 62bd 7c0b 53be 70a8 52bd 7990 60bd
000001d0: 8d0f 0bbe 7de2 abbd b5ae 413d d70d 95be
000001e0: eba7 e7bc 6e04 fbbe 53f4 59bf 172a 83bf
000001f0: 36ac 41bf de78 79bf 61a1 57bf 5875 92bf
00000200: 3b6c 6cbf 91ba 38bf 931f fabe b8c8 f7be
00000210: 75a1 dabe 4689 c3bd cd02 b3be 66ad 27be
00000220: 540b 14be 1437 383d 31bb dbbc 3cae 2ebe
00000230: d141 9b3d 0ccc 1ebe ca5a 5dbe 00cf 2dba
00000240: 17ed b5bd f0a5 bc3d 74b7 b2be e5f8 97be
00000250: ad1c 06bf 0467 f5be 9a70 0dbf 89ce 09bf
00000260: 95f6 debe b583 efbe 0da3 64bf 1ec5 5cbf
00000270: d2f6 72bf 722d b5be 47f4 b0be 142f c8bd
00000280: 6a02 45bb 14bb 253d e8b5 58bd 8622 33be
00000290: e35b 85be 91a0 51bd 469d 873d 4d56 0abe
000002a0: e3ff cb3d 98ac 093e 732d 123e 3e90 033e
000002b0: 9e47 90be c064 6cbe f665 873d de5e 103d
000002c0: cac9 02be 90e4 28be bff0 363e 6fc4 133d
000002d0: 7bf5 08be e8af 97be e134 14bf 52f7 8cbf
000002e0: 1bc6 8cbf 2a96 50bf 1a50 01bf 99d0 58bd
000002f0: ee54 9c3e 69e5 763e 8cbd 553e 5edd c1bd
00000300: 0e36 c4be dc7b 1cbe 9181 0abd 53f7 f9bc
00000310: b423 b43d 4ff9 11bd b7ac 40be 4777 623b
00000320: 52e1 81be c5c6 3cbe 4d5f 8cbd 0df8 a6bc
00000330: 2d8a 4ebe 648a d0bd 2c85 1abe 5e85 43be
00000340: a95a b6be 2eb5 35bf 8570 a9bf 7ce5 c7bf
00000350: fc7d d2bf f8f9 afbf 1e8e 8cbf 4894 1bbf
00000360: 4d57 88be 8bef a73b 5ac2 d83d 281f 95be
00000370: db18 12bf 712a e3bd dd9e 0b3e 3335 f8bd
00000380: 19fe b43d b369 733b 30b4 44be 3fe7 773d
00000390: 9b56 a9be c00d 08be 7540 833d 17ff d2bd
000003a0: 7886 4fbe 2058 19bf ea5e ffbe be54 a8be
000003b0: 8ef9 5ebf 4eec 98bf 7252 e8bf 3100 fdbf
000003c0: 68cd d7bf 115c c0bf ae23 b9bf 9e25 96bf
000003d0: adf2 4abf 4584 afbe 209c d2be fa9c 92be
000003e0: 24ee e4be e1d1 42be 6912 1cbe 5fdc 003e
000003f0: ef02 1abe 64f3 58be 14ab 603d ac53 cbbd
