trained_models/autoencoder.pt (torch, 107376 bytes, 6 tensors)

input_layer.weight f4 [16, 784]
00000000: 3717 0d3d e53d 43bc 3721 453c e74f d43c
00000010: 0ab1 57bc c200 063d 3c51 ef3c ea8b 36bc
00000020: a893 e0bc 3e70 99bc c031 003c e564 36bc
00000030: fce8 09bd 1019 88bc 0cf2 bcbc e3c4 9ebc
00000040: 4082 a83c 65ff dcbc ba6f e3bc 6588 3c3c
00000050: bc11 02bd 0ada f7bc 8589 adbc 3c57 8cbc
00000060: 88fd f43c 7e9d fa3c aebb dbbb d177 ca3c
00000070: dc19 cd3c 2046 843c 137b 4a3b 639c 91bc
00000080: f7e0 bfbb 1a81 ff3c 589f dc3c 7f27 c03c
00000090: 8998 5e3b df55 0f3d dbde 2f3c 38fc 5abc
000000a0: d37a a83c 6923 e2bc 944d 003d 1023 10bc
000000b0: 46e8 adbc 3ed0 7bbc 59c6 493c 2869 64bb
000000c0: dc9f cfbc b5bd aabc 9ce0 813c c913 d6bb
000000d0: 379a 973b 931d 2a3c 6a6f 8c3c 93ea 893b
000000e0: 389c 7f3b 732b 3a3c ae8f e5bc 6d9d 003d
000000f0: 7f23 9ebb 90ae 873c df0a 2abb cc59 163c
00000100: 1298 07bd fff2 8038 90f5 7cbc 5144 a2bc
00000110: 657e 473c 010a ccbc ce85 b9bc 7b4b f63c
00000120: f68c cfbc 7822 823c 0eb1 7abb 6c68 f63c
00000130: 7777 943c e1b1 3b3c d38f a6bc 92c2 d83c
00000140: 6f9e 52bc feb9 fcbc 4e64 983c 653e d2bc
00000150: 2327 d53c dc08 4c3b e4ae 0d3d 1f0d 37bb
00000160: e40c 10bd 6768 07bd 8d4c 0abb 2114 213c
00000170: 909d 0bbd 7130 d9bc 117e c8bc 20ea 9bbc
00000180: 9618 5cbc d49e c23c 061c c93c baf0 033d
00000190: 934f 923c 160f cc3b a6f0 72bc e551 afbc
000001a0: 465d e9bb 1f10 b53c 1bec 47bc 2d1c adbc
000001b0: b508 8dbc cca4 da3c 7417 00bd 2328 c3bc
000001c0: 8ede 5d3c b81e efbb ecf4 0f3d c879 983b
000001d0: 8396 303c 1af1 853c 09e8 e0ba db81 8ebc
000001e0: d46e d53c b08c 0dba f0d2 883c b191 efbc
000001f0: 4b29 073d dd7a bebb 1d92 0ebd 5b47 d5ba
00000200: 145f dd3b 7160 45bc 15e4 1f3c 6420 113b
00000210: 45b0 b9bc ddce aa3c 52a0 d0bc 2417 853b
00000220: 28b4 fe3c 24c9 983c abe0 12bc 9325 d83b
00000230: 93d0 50bb 703a 8abc 77b0 963c 5641 04bc
00000240: 0eba 53bc 32cf f23c dc5d 55bc 1554 bcbc
00000250: 0c59 d8bc 6e26 f53c d6b3 c53c eea3 c93b
00000260: 6ec8 d0bc 6462 ebbc 3af1 b4bc 0adb 11bc
00000270: 2cf5 73bc e3d9 4d3c 104d f9bc c212 dcbc
00000280: 36aa b23c 06cf 3a3c 3cf6 433c 8d30 293c
00000290: 6d2c 0dbd f175 fbbc 3ae3 bb3c 4a9c f23c
000002a0: fc6e 52bc d311 29bc ada2 173c ce52 4b3b
000002b0: 0417 02bd f894 303c 2933 863c 5e71 babc
000002c0: c0dc 95bb 6443 7a3c 3a15 cfbc a5b1 c73b
000002d0: 6e1f 2d3b 36f8 c43a c0ad 47bc 820c f33b
000002e0: 0947 02bc cd95 fb3c 559e 673c 91e2 083d
000002f0: 4f1d 4cbc 5afb d0bc 23b4 b0bc 2fde 55bc
00000300: 46f4 b5bc bdce 2c3b d7de f03c aaa0 b43c
00000310: 3399 a33c b705 b7bc 0058 023d e9fd a53c
00000320: 3cc6 0b3d 0ee6 f6bc b392 f4bb 005b b3bc
00000330: 6c70 3b3a c605 4bbc 306b 8f3c 046e 08bc
00000340: 757b ebbc df14 1dbc 3bf2 c23c 2c86 e4bc
00000350: 9432 c5bc 3c3f db3c 39b0 ae3c fd2f 273c
00000360: baf9 a13b 04e0 0bbc 1de2 efbc 0801 42bc
00000370: 1971 df3c 9b74 043d 571f e6bb 1318 db3c
00000380: 9012 95bc 4045 0a3c 0c66 b43b 3fb9 b7bc
00000390: 6b18 203c 9e96 b53c 7d7b 5dbc 30ba b03c
000003a0: 99d1 8d3c b62d e83b 9a50 ad39 05ef a8ba
000003b0: 8c19 853c 193c e4bb 05ba 2ebb 9d2a 123c
000003c0: f4d4 b23c 2d8d a1bb 7595 f23c 1510 ca3c
000003d0: 7209 a3bc 89a0 80bc b97d 393c 2cdd 083d
000003e0: b19a 0f3d e667 b2bb b685 3cbc 0812 77bc
000003f0: 1a33 c6bc 9eff 17bb b2a5 9abc 856a 50bc
0.034445968 -0.011916612 0.012031845 0.025917007 -0.013164768 0.032715566 0.02921354 -0.011141757
-0.027414158 -0.018730279 0.007824361 -0.011132454 -0.033669457 -0.016613513 -0.023064636 -0.019380992
0.02056992 -0.02697725 -0.027763236 0.011507128 -0.031755194 -0.030255336 -0.021183738 -0.01713144
0.02990605 0.030592676 -0.006705723 0.024715336 0.025036745 0.01614672 0.0030896112 -0.017774766
-0.0058556753 0.03118949 0.02693145 0.023456333 0.003396543 0.034994002 0.010734285 -0.013365798
0.02056638 -0.027604776 0.031323984 -0.008797422 -0.02122892 -0.015369473 0.012315356 -0.0034852717
-0.025344782 -0.020842412 0.015854172 -0.0065331203 0.004626538 0.010383028 0.01714297 0.0042088716
0.0039003026 0.011362898 -0.028022613 0.031400133 -0.004826009 0.01656273 -0.002594642 0.009176683
-0.03310401 6.148777e-05 -0.015439406 -0.019807966 0.012176131 -0.024907114 -0.02264681 0.030065289
-0.02533577 0.015885577 -0.0038252505 0.03007909 0.018123372 0.011455984 -0.020332253 0.026459966
-0.012855156 -0.030850407 0.018602517 -0.025664518 0.026019638 0.003113321 0.034590617 -0.0027931405
-0.035168543 -0.03305855 -0.0021102757 0.009831459 -0.03408581 -0.026512356 -0.024474176 -0.019032538
-0.013433596 0.023757376 0.024549495 0.032211997 0.01786021 0.0062273843 -0.014827883 -0.021401355
-0.0071217148 0.022102414 -0.012202288 -0.0211316 -0.017216066 0.02668991 -0.031272367 -0.02382285
0.013541831 -0.007297363 0.035145685 0.0046531893 0.010778072 0.016350318 -0.0017158996 -0.017395904
0.026053824 -0.0005399687 0.016702145 -0.029244276 0.032998364 -0.0058129863 -0.034807313 -0.0016271876
0.006755719 -0.012046919 0.009758969 0.002214455 -0.02266706 0.020850593 -0.025467072 0.0040615965
0.031091765 0.018650599 -0.008964698 0.006596276 -0.0031862601 -0.016873568 0.018394692 -0.008072218
-0.012922777 0.029639814 -0.013022866 -0.022989312 -0.026409648 0.029925551 0.024133604 0.006153575
-0.025486197 -0.02873344 -0.022087682 -0.008902321 -0.0148899965 0.012564155 -0.030432254 -0.026864413
0.021809679 0.011401897 0.011960562 0.010326517 -0.034466196 -0.030695887 0.022935499 0.02961554
-0.012843844 -0.010319191 0.0092550935 0.0031024697 -0.03176023 0.010777704 0.016381817 -0.022759136
-0.0045734346 0.015274856 -0.025278676 0.006094175 0.0026416439 0.0015027586 -0.012187421 0.0074172625
-0.007951506 0.030711079 0.01413687 0.033419196 -0.01245816 -0.025510479 -0.02157027 -0.013053461
-0.022211205 0.0026368343 0.029403133 0.022049267 0.019970512 -0.022341592 0.031822205 0.020262675
0.034124598 -0.030138995 -0.007463777 -0.021893978 0.0007150236 -0.012391513 0.017507166 -0.008327011
-0.028745392 -0.009587496 0.023797145 -0.02789601 -0.02407197 0.026763551 0.021324264 0.010204312
0.0049431 -0.008537296 -0.029282624 -0.011841066 0.027275609 0.032337766 -0.007022779 0.026744878
-0.018197328 0.008439362 0.005505329 -0.0224272 0.009771447 0.022166546 -0.013518211 0.021573156
0.017311858 0.0070855273 0.00033057184 -0.0012888616 0.016247533 -0.006965172 -0.002666117 0.008921293
0.02183006 -0.0049301595 0.029612282 0.024665872 -0.019901965 -0.01570155 0.0113214785 0.03341405
0.035059635 -0.0054445146 -0.011506489 -0.015079983 -0.024194289 -0.0023193131 -0.018877838 -0.012720709

input_layer.bias f4 [16]
00000000: 7901 f73e b397 da3e 164f 063f 4dd2 f53e
00000010: ebac cc3e 1b5e 0c3f bf2c ac3e 6e95 0c3f
00000020: d79b eb3e ff72 e03e 1579 f13e 0888 cc3e
00000030: d344 073f 7027 c43e 25a6 de3e c4f2 233f
0.4824331 0.42693862 0.52464426 0.4801201 0.39975676 0.54831094 0.3362789 0.5491551
0.46017334 0.43837735 0.4716269 0.39947534 0.5283939 0.38311338 0.43486133 0.64042306

central_layer.weight f4 [16, 16]
00000000: 02a5 cf3e 3ce4 f63e 9a76 433e 0784 953e
00000010: f919 ea3e 4b5a c73e 9a74 8e3e 6a37 ba3e
00000020: ad5a 0e3f 11f8 fd3e 724f 793e 4f2a 443e
00000030: 2ffc de3e b51d 663e af8d 953e 743a be3e
00000040: 4105 5c3e 6b2f 6d3e 035e c63e 49a2 9b3e
00000050: d5c6 e63e da40 fe3e 1397 bf3d 8d95 133f
00000060: c943 693e 434a cd3e 3f12 cf3e 236e 073e
00000070: 2abc b53e c2eb f03e 95e0 f43e ad01 0b3f
00000080: 98cc 0f3f d252 d13e 8fd6 8e3e 6658 be3e
00000090: 2cf4 943e fb83 ed3e 58d0 183f 5686 723e
000000a0: ad5d 223f 8479 bf3e 17af 803e dc63 383e
000000b0: fad0 043f 5f20 463e 446e 3e3e b801 383e
000000c0: b61b 953e 04c7 403e 625b 533e ec10 d33e
000000d0: 0490 103f 7af3 a83e fc53 963e 9117 033f
000000e0: e2b6 0e3f 1e21 b83e 206d ec3e 2dfc e23e
000000f0: e423 933e c422 3d3e fd08 523e ad82 8c3e
00000100: 1511 f63e 71cf 1b3f 6602 b53e df77 183f
00000110: 4341 9c3e c624 193e 10bb e83e ed16 463e
00000120: dcc1 3c3e eab2 b13e 71c6 0e3f 98ce 6c3e
00000130: 2e92 e43e d3ce 3f3e f23a c83e 94fc 053f
00000140: b7d3 963e a70d 773e 7e6e db3e bdf0 f33e
00000150: 557d c23e 4462 053f bc9a 8d3e 47d5 af3e
00000160: ed2f b83e 9383 e53e b489 063e d06f 2e3e
00000170: e73b 023e d41a ef3e b54c d53e a30a f53e
00000180: b730 173f 98af 223e dc0c 133f fd65 b33e
00000190: d9e4 d33e 12ee e93e 1daa b13e dc11 473e
000001a0: 0e9a 8d3e 36e3 383e 5724 a13e 246b ee3e
000001b0: 27ba 0a3f 2159 093f fcf7 de3e a587 ff3e
000001c0: 5cff 0a3e 4265 c53e bbf3 1e3f d25a 033e
000001d0: 8069 c83e e1bb 043f 13be 883e 571e 0f3f
000001e0: 238d 613e 94d7 0e3f fe78 1c3f 5ad5 2c3e
000001f0: 26f7 6c3e a22b 1b3f ecc0 2b3e 19b0 f53e
00000200: f477 0a3f 19de a83e 088c 123f 9ad4 db3e
00000210: 8e50 223e 6c6c 853e 5fe0 073f 4360 f73e
00000220: 44ab fd3e c50b 0f3e 3074 e33e 73c9 e83e
00000230: 9097 953e 96c8 c13e 0a9b a63e 7d38 3f3e
00000240: 2e54 823e 4104 9f3e 2fdc f73e 8178 1d3f
00000250: 071e 883e 95d3 163f fbfa 1c3e 107b a63e
00000260: 6fb0 a53e cb74 953e 5981 c03e 7005 ee3e
00000270: 2a5f fe3e 3cde 2f3e 70f8 c03e 7c37 1d3f
00000280: 0c89 2f3e 97a7 e43e af37 533e 86f8 c23e
00000290: a34b 4f3e 04e7 143e a9fa 233e c596 f33e
000002a0: 4e80 db3e 7e9b 5e3e 13ad bd3e 25a5 de3e
000002b0: 2cb3 1c3f 258b 643e a2f6 7d3e c6a1 423e
000002c0: 5700 743e 916f 8a3e 512b ef3e d396 3f3e
000002d0: 535f 1f3e 8753 113f 6656 f03e 0d3a 663e
000002e0: f806 bb3e 39bf 0c3f 0edd f53e a447 c23e
000002f0: 33db e33e 5d0a 333e 5244 0e3e a618 203f
00000300: 61d5 f33e 0b3b f23e f7fe d73e 4ab2 c43e
00000310: 43e7 ec3e 4a14 2c3e 4dd8 233e 13bf e73e
00000320: eca5 503e 6ebf fc3e bea5 683e 6747 113e
00000330: 1fcf be3e 7049 cf3e 6cc3 f63e 9771 d93e
00000340: a3ef 053f 9909 0d3f bbc6 2c3e 6e4d 463e
00000350: b990 9c3e 1e58 d73e 7d3d 023e 8397 ef3e
00000360: 0ba2 c03e c537 603e 5ee0 f03e 3ff8 ca3e
00000370: f395 cf3e 6f70 da3e 4b19 fe3e e920 1d3f
00000380: e08d cb3e 278a 633e 75c7 e93e 0ccc ec3e
00000390: cece 823e 0ecc 0b3f 84af 123f 781a 033f
000003a0: 5492 173e 27b6 cb3e e171 373e 0d22 c53e
000003b0: 4d7e 3c3e d060 9d3e d43c 0c3f 7774 133f
000003c0: 124f 583e 0557 2f3e 855e fe3e 8c2c 673e
000003d0: 312c 5b3e d897 003f 9504 3d3e f1d6 fa3e
000003e0: 976a b63e 88aa 293e 5883 e03e e0cb 093f
000003f0: 256e 1f3f 7b06 073f fb90 9d3e daf5 e53e
0.40555578 0.48221004 0.19088212 0.2920229 0.4572294 0.38936076 0.27823335 0.36370403
0.5560711 0.49603322 0.24346712 0.19156764 0.43551776 0.2247227 0.29209659 0.3715397
0.21486379 0.2316262 0.387436 0.3039725 0.45073572 0.49658853 0.09354987 0.5765007
0.22779764 0.4009572 0.40443608 0.13225608 0.3549512 0.4705487 0.47827592 0.5429943
0.5617156 0.408835 0.2789807 0.37176818 0.29092538 0.46389756 0.5969291 0.23684058
0.6342419 0.37397397 0.25133583 0.18006843 0.5188137 0.19348286 0.1859675 0.17969406
0.29122704 0.18825918 0.20640329 0.41223848 0.5646975 0.32998258 0.2936095 0.51207834
0.5574781 0.35962766 0.46177006 0.4433302 0.2873832 0.18470293 0.20511241 0.27443448
0.48059908 0.60863405 0.35353392 0.5955791 0.3051854 0.14955434 0.45455217 0.19344683
0.18433326 0.34706813 0.5577155 0.23125684 0.44642776 0.18731241 0.39107472 0.5233853
0.294584 0.24126302 0.42857736 0.47644606 0.37986246 0.52103066 0.27657115 0.34342405
0.35974064 0.44826946 0.13138467 0.1703484 0.12718163 0.46700156 0.41660085 0.47859678
0.5905871 0.15887296 0.57441497 0.35038748 0.41385534 0.45689446 0.347001 0.19440407
0.27656597 0.18055424 0.31473038 0.46566117 0.54190296 0.53651625 0.43548572 0.49908176
0.13573974 0.38553816 0.62090653 0.12827614 0.3914299 0.5184918 0.26707515 0.5590567
0.22026496 0.55797696 0.6112212 0.16878262 0.23141155 0.60613453 0.16772813 0.47985914
0.54089284 0.32981947 0.5724492 0.4293564 0.15851042 0.26059282 0.5307674 0.4831563
0.49544728 0.13969333 0.44424582 0.45466194 0.29217196 0.37848347 0.3254016 0.18673892
0.2545485 0.31057933 0.48410174 0.61512 0.2658541 0.589166 0.15330116 0.32515764
0.3236117 0.29190668 0.37598684 0.46488523 0.4968198 0.1717462 0.37689543 0.6141279
0.17142123 0.4465911 0.2062671 0.38080233 0.20243697 0.1454125 0.16013588 0.47575966
0.42871326 0.21739003 0.37046108 0.4348537 0.61210895 0.22318704 0.24801114 0.19007024
0.23828255 0.27038243 0.46712735 0.18709879 0.15563707 0.5676808 0.46940917 0.22483082
0.36528754 0.5497928 0.48020214 0.37945282 0.44503173 0.17484422 0.1389325 0.6253761
0.47623733 0.4731067 0.4218671 0.38417274 0.4627019 0.16804615 0.16000481 0.45262966
0.20375794 0.493648 0.22719476 0.14187394 0.37267396 0.40485716 0.4819597 0.42469475
0.5231878 0.5509277 0.16872685 0.19365475 0.30579165 0.42059416 0.12718768 0.46795282
0.3762363 0.21896274 0.4704618 0.39642522 0.4054409 0.42663905 0.49628672 0.6137834
0.3975668 0.2222067 0.45659986 0.46249425 0.25548404 0.5460824 0.57299066 0.51212263
0.14801913 0.3978741 0.17914535 0.3850254 0.18407555 0.30737925 0.54780316 0.57599586
0.21123913 0.17123039 0.49681488 0.22575587 0.21403576 0.50231695 0.18458779 0.48992112
0.35628197 0.16568959 0.43850207 0.53826714 0.6227744 0.52744263 0.30774674 0.44914132

central_layer.bias f4 [16]
00000000: 244b 693f a6cd 593f cd9f 5f3f 88b8 4f3f
00000010: 6eaf 2c3f e27b 2e3f 4188 3c3f 3a2a 3d3f
00000020: a07d 563f c09a 163f 4107 033f 7c71 093f
00000030: b5c3 3b3f fa9b 163f 800c 083f 191a 273f
0.9113028 0.8507942 0.8735321 0.8114095 0.67455184 0.6815778 0.73645407 0.7389256
0.8378544 0.5882988 0.51182944 0.5368879 0.733455 0.5883175 0.53144073 0.65274197

output_layer.weight f4 [784, 16]
00000000: 8518 3cbe 809a 4bbd a2ce bfbc bee4 97be
00000010: 03f2 5abe b6a2 32be b433 8bbc 00b4 99bc
00000020: ca7f 9bbe 9cec 40bc 7780 25be 190e a3bd
00000030: 5e27 ad3c 0d2d 98be 6697 cfbe 6899 2dbe
00000040: c6e1 f7bd 3f15 0d3c a434 2bbe db03 66bd
00000050: e986 38bc 7fed 433d 3806 eabd 7f37 fbbd
00000060: da91 62be 4be9 81be f073 1abd fa2a 0ebe
00000070: ebdb d8be fc1d 94be d73a e2be e022 d4be
00000080: 97b0 7dbe c948 f5bc be84 51be 506a acbe
00000090: 0514 45be 50df babd 3464 44be d2af 61be
000000a0: c8e4 d43d 8528 b9be 7e3e c73d c57e 8bbe
000000b0: 3e68 a3bd 60ea 99be 21a0 40be 285b 92be
000000c0: 56f3 10bd a6eb c2be cc07 8a3d 6629 20be
000000d0: dfa7 adbe 5026 aabe dc10 d1bc 9916 97be
000000e0: 0d7a 963d 2c15 00bd fb3d 74bd 682d 56be
000000f0: 99fd a9be 4640 bbbd c981 b0be 5479 93be
00000100: 8d10 bfbe e0eb a1be 5e85 51be ff33 f5ba
00000110: fade 0cbe 85d1 f4bd 8a45 dcbe ba7b 4fbd
00000120: 2fc8 623c 92e6 3cbe 5a09 adbe 5a2f 853d
00000130: 2911 97bd e2e0 1cbe 2710 553d 127e c8be
00000140: 386f e73c 9947 11bd ca5f a8be 11fb b6be
00000150: 142b 88bd eb28 3cbe 5be1 a3be f491 88be
00000160: af25 18bb 0111 803c 73f2 a3be 6aaa 7bbe
00000170: 046b 8ebe 6a36 5dbe 3077 45be 8ec1 eebd
00000180: 041a 67be 5b15 9abe ea4e cb3d 9b4c 5cbd
00000190: 606a a5be 03b3 853d 81fa 8a3d f9e3 74be
000001a0: f698 9ebe dfe3 52be 441a 91be f2ca 9cbe
000001b0: a529 9ebe a0ab b43c 12e2 aabe 6d53 acbe
000001c0: bdc6 d2bd d9f9 0fbe 7d9b b63d d25b 62be
000001d0: 341f c2be cc31 adbe 9226 09bd b84e c6be
000001e0: ba9d f6bd e4eb 04bc be8d 90bd 3c43 4bbd
000001f0: c583 b5be 68c7 86be 9e9a 4ebe 2c95 c73b
00000200: 2b4e 85be bfd4 9dbe 4aaf 5bbe 5e24 b0be
00000210: 027b f03c 651b a1bd a0e8 ed3d 0d38 f43d
00000220: ecb0 c0bd d948 a7be adae 86be eda4 adbe
00000230: f4f0 b2be 9a65 9bbe 9fe7 28be fc9e cabb
00000240: 2141 f83c 9d40 a4be 4de0 9ebe 7420 a03c
00000250: c98b d2bc b62a 81be a722 b2be 2746 58be
00000260: cfd9 02be cc35 82be 9a70 aebc a667 173d
00000270: 452f 9dbd 0cb3 6dbd edb7 68be 7866 a4be
00000280: 4fd3 8fbd b329 88be 82e1 c1be 4ed9 2b3d
00000290: 5e92 cfbb 21c1 f2bd e480 0bbe 71e6 b9be
000002a0: 4298 86be 16e9 86be dd86 423d ec99 813d
000002b0: 5f51 cc3d 14fa 69be 20b6 a0be e7b5 c5be
000002c0: 6c0a 7bbd 5076 51be 0d26 5ebe aa74 8bbe
000002d0: 4404 b4be 6c75 a9be 464b b5bc bb70 573d
000002e0: 8718 bb3b 1bc2 a3be 303e 57be e2ad 05be
000002f0: 72d8 c2be cbdd 1dbe dd90 f1bd 67ae 07be
00000300: 37c9 97be e7ed f3bd 7350 98be 46b0 3cbe
00000310: 6025 e6bd 2ef6 8dbe ecbc 39be 2ce5 9abb
00000320: 606c 4dbe 12fc c03b 06b4 0fbd b0c1 50be
00000330: 2fd2 b2be 113c 85be 5130 853c 9744 19be
00000340: f1fd 8ebc 13c5 03be 2675 8fbd 8f5e 8abd
00000350: 295e ebbe 8cf2 a8bd e8f0 89be 6d47 aebe
00000360: 4e7a 09be 7d3c 93be a27b 74bd 6334 243d
00000370: 211f f23b 0029 c8be 540a 99bd cd79 e0bd
00000380: 9094 d5be 80c8 8bbd a5f9 a4bc dcd2 4dbe
00000390: 9e6d 2ebe 27aa 413d 37af 5fbe 4df1 38be
000003a0: 801f 99be 5370 86bd 256d 693c cc17 59bd
000003b0: e87a 2cbe 90d4 47be 5a53 38be ad6f 21be
000003c0: 0527 c7be e59a 80be eb5b 81bd 49a2 40be
000003d0: 01fb 223d b123 c1be 0341 67be dbf8 bebb
000003e0: a094 86be 4b09 5cbe d1a0 b7be bdb8 e43c
000003f0: c7b8 59be 1bb9 2ebe 12c9 1e3c e642 8cbe
-0.18368728 -0.04970789 -0.02341396 -0.29666704 -0.21381383 -0.17444882 -0.016992427 -0.018762589
-0.30370933 -0.011775162 -0.16162287 -0.07961673 0.021136936 -0.2972187 -0.40545195 -0.16953051
-0.1210361 0.0086110225 -0.167193 -0.05615602 -0.011262634 0.047833916 -0.114269674 -0.122664444
-0.2212595 -0.253733 -0.037708223 -0.13883582 -0.42355284 -0.28929126 -0.44185516 -0.41432858
-0.24774395 -0.029941933 -0.20460793 -0.3367486 -0.19245918 -0.09124625 -0.1917885 -0.22039726
0.10395199 -0.36163726 0.09728716 -0.27245155 -0.07978867 -0.30061626 -0.18811084 -0.28585172
-0.035388313 -0.3807041 0.067397684 -0.15640792 -0.33917138 -0.33232355 -0.025520734 -0.29509428
0.07347498 -0.03127019 -0.05962942 -0.20915759 -0.33201292 -0.091431186 -0.34474018 -0.28803504
-0.37317315 -0.3162527 -0.20461032 -0.0018707513 -0.13756934 -0.11954025 -0.43021804 -0.050655104
0.013841673 -0.1844733 -0.33796197 0.06503172 -0.0737632 -0.15320161 0.052017357 -0.39158684
0.028251275 -0.03546867 -0.3288558 -0.35738423 -0.066488415 -0.18374984 -0.3200787 -0.26673853
-0.002321582 0.015633108 -0.32020912 -0.24576727 -0.2781602 -0.21602789 -0.19283748 -0.116580114
-0.22568518 -0.30094418 0.09927161 -0.053783994 -0.3230772 0.065282844 0.06786061 -0.2391509
-0.30976075 -0.20594738 -0.28340352 -0.30623585 -0.30891147 0.022054493 -0.33375603 -0.336574
-0.102918126 -0.14060153 0.08916376 -0.22105339 -0.3791443 -0.33827055 -0.03348405 -0.38731933
-0.12041803 -0.008112881 -0.07058285 -0.049624667 -0.35452095 -0.2632401 -0.2017617 0.0060907807
-0.260362 -0.30826375 -0.21453586 -0.34402746 0.02935553 -0.07866553 0.11616635 0.11924753
-0.09408745 -0.32672766 -0.26305142 -0.3391489 -0.34949458 -0.30350953 -0.16494606 -0.006183503
0.030304493 -0.32080546 -0.31030503 0.019546725 -0.02570142 -0.25227898 -0.34792063 -0.21120511
-0.127784 -0.2543167 -0.021293927 0.03696408 -0.076750316 -0.05803208 -0.22726412 -0.32109427
-0.07022726 -0.26594314 -0.3786736 0.041955285 -0.006334587 -0.11853243 -0.13623387 -0.36308625
-0.26288038 -0.26349705 0.047491897 0.063281864 0.09976458 -0.22849303 -0.3138895 -0.38615343
-0.061289236 -0.20455289 -0.21694203 -0.27237445 -0.35159504 -0.33097398 -0.02213062 0.052597743
0.005709711 -0.31984028 -0.21019816 -0.13054612 -0.3805576 -0.15416639 -0.117952086 -0.13250123
-0.29645702 -0.11910611 -0.29748878 -0.18426618 -0.112375975 -0.27726883 -0.18138474 -0.0047270264
-0.20060873 0.005889424 -0.035083793 -0.20386386 -0.34925982 -0.2602239 0.01625839 -0.14967571
-0.017455073 -0.12868147 -0.07004766 -0.06756317 -0.45970276 -0.08249387 -0.2694161 -0.3403887
-0.13425562 -0.28757086 -0.059688218 0.040089022 0.0073889648 -0.3909378 -0.07472673 -0.10960732
-0.41714907 -0.06825352 -0.020138571 -0.20099968 -0.17034003 0.04728141 -0.21844183 -0.18060799
-0.29906845 -0.06564393 0.0142472135 -0.05300121 -0.1684376 -0.1951468 -0.18000546 -0.15765257
-0.38896957 -0.25118175 -0.0631636 -0.18811907 0.039790157 -0.37722543 -0.22583394 -0.0058280057
-0.26285267 -0.2148792 -0.3586488 0.027920121 -0.21261893 -0.170628 0.009691494 -0.2739479

output_layer.bias f4 [784]
00000000: 6f70 aebe c012 f8bc ac9d 24be e22a 5fbe
00000010: ee30 6cbe a960 8f3c d1b1 80be 598c aabe
00000020: 9683 b0be 80ba a8be 1986 babe 1c52 8abc
00000030: e05b b6bd b914 82be 2af3 cfbe 95f0 5cbd
00000040: 636a 42be 6ee5 bfbe 9a33 64be 672b 56be
00000050: d74c 45be f70d d8be f1f6 2fbe d9a7 dfbe
00000060: 6632 e0be cb17 8abe 19e6 4fbd a4ab 21be
00000070: 4b78 0dbe 77a0 b8be b7e1 06be 29d7 1fbc
00000080: d3ce 98be 030d b6be 2a5f 9bbe 8d4a 95be
00000090: 1aa8 debe 2216 87bb 8ad7 a7be ddc3 88be
000000a0: 31b5 8dbe 66d0 72bd d8c7 07be 5650 27bb
000000b0: 7505 06be 06ff 3cbe 8f7c fc3a 29a9 6abe
000000c0: f129 bbbd eb04 25bd 3bdc 27be 8639 abbe
000000d0: 636e b3be afc9 afbe 70dd a7be 7051 debe
000000e0: fc0d 66bb b555 b7be 4466 903c fd6d cabc
000000f0: 3458 97be 4125 ddbe ae97 47be c0f5 dfbe
00000100: ab2b e1bd c1de 20be afb4 c5be ce69 08be
00000110: 4b53 96be f7d9 07be 9b21 cfbd c55e 32be
00000120: fbea 80be 2a5f 9ebe 812a 93bd 4748 99be
00000130: 48b6 24be 49ea 23be 8d94 03be 8435 b4be
00000140: f396 8dbe b83e 8a3d f2a6 16bd 39b2 b1bd
00000150: a187 debe ff1d 5fbb 5aed 25be 0c53 833d
00000160: 43d0 96be 81e9 b1bd 604b a8be 0b26 d3bd
00000170: bbc1 82be 3167 8cbe ee01 7dbc 72e3 cebe
00000180: 3797 67bd 597e a8bd c8dc 92be 9d16 55bd
00000190: 3028 adbe 38b2 39be 49c1 87be 85bb 293d
000001a0: 3631 2abe 8a93 4bbe 6f41 4cbe 1227 afbd
000001b0: 3840 02be f74d 51be dab5 3dbe 34a3 81be
000001c0: 70ba e4bd 7654 8cba 0008 bcbc aab7 23be
000001d0: 8a58 dabe 0d97 f0be 9b25 07bd 09b7 a8be
000001e0: 61c5 47be e61c 78be 0f5b 27bd fc58 91be
000001f0: 47e0 ef3c c80d b5bd 78c1 d7be c10a 8bbe
00000200: 6cb4 e3bd 460f 90be fa64 42be 7fdb 5f3c
00000210: f8b9 bfbe 50d3 cabe e1a8 42bd 53ec a9bd
00000220: 75be 8ebe c8a2 65be 480c 8abe d373 dfbe
00000230: 82cb 4bbe c779 c3bc eb2d 75bd 915c 54be
00000240: 4abc 97be 17b9 98be ff17 d9be 3b21 fcbd
00000250: f359 f4be 1fc2 6bbc 96f5 a8be a481 0ebc
00000260: 7f25 92be 05f4 00bd d7fd a7bd 42f8 c6be
00000270: 444d 9ebe 6360 c2be 91d5 0fbe 1cd5 9cbe
00000280: 175e a6be aa2c 5ebe 6eaf b1bd ac49 e7be
00000290: 25ec 07be e2f5 b2be c3e4 e8bd a586 afbe
000002a0: d824 ccbe 6132 9bbe 5a63 7ebe 0040 5abe
000002b0: 64dc bebd c176 97be 6fe8 94be ebba 95be
000002c0: 2e54 b2be eb5e a8be 467b b4bd 9591 c63c
000002d0: e9b1 acbe 804a 5fbe 699f b8be f7e6 e5bd
000002e0: 3139 e0be 2eeb 62bd 7b6f 24be 9228 ffbd
000002f0: b757 6dbe 34d4 41be aab0 a0bd da98 36be
00000300: 9a2c 56bd b887 bdbe 8e9e 4dbe bd74 f3bd
00000310: c34a a0be 7cc2 1ebd da59 83be ff0f f2be
00000320: 3249 89be e731 e8bd 2ff6 5dbd 1597 b6be
00000330: e4a3 cbbe a77c 3ebe a13b 91be 4765 aebe
00000340: ba35 a3be 69de e4be 5891 80be a604 abbe
00000350: faeb 1bbe 6bb3 a5be 2e76 11be 685e d0bc
00000360: 1bfa 27be 389b b1be 3f01 18be 9c3e d5bd
00000370: 848a 48bc afe2 b7be 17ed 483b b88d 9fbe
00000380: 7198 e4bc 3605 4dbe 137a a3be b13e 87be
00000390: 3bf0 dabd 45d8 96be 53c3 e0be d4d0 1e3b
000003a0: 4a0d 5ebe b172 9abe a778 c8be 8b52 32be
000003b0: a6ca 2cbe 24a6 1b3c 82f4 8fbe d2b0 c7be
000003c0: 7725 89be 7b36 053d 7a37 f5be c236 23bd
000003d0: f9ce cebe dcdb 9fbe ca52 d0be cbed 18bc
000003e0: cbf4 36be 45bc 8bbe 3465 e3be 3f58 d5be
000003f0: 2047 2dbd a13f 9cbe 9f08 0bbc 79ac 0abe
-0.34070155 -0.030282378 -0.16075772 -0.21793702 -0.2306554 0.017502146 -0.25135663 -0.33310202
-0.34475392 -0.32954788 -0.36430433 -0.016884856 -0.089042425 -0.25406435 -0.40615207 -0.053940374
-0.18985896 -0.37479728 -0.2228531 -0.20914994 -0.19267593 -0.42198154 -0.17184044 -0.43682745
-0.4378845 -0.26971278 -0.050756548 -0.15788132 -0.1381542 -0.36059925 -0.13172041 -0.009755888
-0.29845294 -0.35556802 -0.30346042 -0.2915844 -0.43487626 -0.0041225115 -0.3278163 -0.26711932
-0.276773 -0.059280775 -0.13259828 -0.0025530062 -0.13088019 -0.18456659 0.0019263196 -0.22916092
-0.09138859 -0.040287893 -0.16392605 -0.33442324 -0.35045156 -0.3433356 -0.3278613 -0.43421507
-0.003510355 -0.35807577 0.017626889 -0.02471065 -0.2955948 -0.43192485 -0.19491455 -0.4374218
-0.10994657 -0.15709974 -0.38614413 -0.13321611 -0.29360422 -0.1326674 -0.101138316 -0.17418964
-0.25179276 -0.3093198 -0.07185841 -0.29937956 -0.1608516 -0.16007341 -0.12849636 -0.3519708
-0.27654228 0.06750244 -0.036780305 -0.086765714 -0.43462852 -0.0034044979 -0.16203824 0.06412324
-0.29455766 -0.086871155 -0.32870007 -0.103099905 -0.2553843 -0.2742248 -0.015442355 -0.40407902
-0.056540694 -0.08227224 -0.28684068 -0.05202352 -0.33819723 -0.18134391 -0.26514652 0.0414386
-0.16620335 -0.198805 -0.19946836 -0.08552374 -0.1271981 -0.20439897 -0.18526402 -0.25319827
-0.11168373 -0.0010706324 -0.022953033 -0.15988031 -0.42645675 -0.46990243 -0.032994848 -0.32952145
-0.19508888 -0.24229774 -0.040858325 -0.28388202 0.029281748 -0.08840519 -0.42139792 -0.27156642
-0.11118397 -0.28136653 -0.18983832 0.013663172 -0.3744657 -0.39614344 -0.047524337 -0.082970284
-0.27879682 -0.22425377 -0.26962495 -0.43643054 -0.19901851 -0.023861779 -0.059858244 -0.20738436
-0.2963584 -0.29828712 -0.4240112 -0.12311026 -0.47724876 -0.014389544 -0.32999867 -0.008697901
-0.28544232 -0.031482715 -0.08202713 -0.3886128 -0.30918324 -0.37964162 -0.14046313 -0.3063134
-0.3249366 -0.21696725 -0.08676039 -0.45173395 -0.13273676 -0.3495322 -0.11371758 -0.34282413
-0.3987186 -0.30311874 -0.24842587 -0.21313477 -0.0931938 -0.2958279 -0.29083583 -0.2924417
-0.3482985 -0.32884917 -0.08812575 0.02423934 -0.33729485 -0.21805763 -0.3605912 -0.11225694
-0.43793634 -0.055400066 -0.16058151 -0.1245891 -0.23177992 -0.18928605 -0.07846196 -0.17831746
-0.05228863 -0.37017608 -0.20080015 -0.118875004 -0.3130704 -0.038759694 -0.2565449 -0.4727783
-0.26813656 -0.11337643 -0.054189857 -0.3566214 -0.39773476 -0.18602239 -0.28365806 -0.34061643
-0.31876928 -0.44700935 -0.25110888 -0.33401984 -0.15226737 -0.32363448 -0.14205238 -0.025435641
-0.16404001 -0.34688735 -0.14844225 -0.104123324 -0.012240056 -0.35915133 0.0030658895 -0.3116281
-0.027904721 -0.20021519 -0.31929073 -0.26415017 -0.106903516 -0.29461876 -0.4389902 0.0024233358
-0.21684757 -0.30165628 -0.3915455 -0.174143 -0.16874179 0.00950006 -0.28116232 -0.3900209
-0.26786396 0.03252266 -0.47893888 -0.039847143 -0.40392283 -0.31222427 -0.40688163 -0.009334038
-0.17866819 -0.27292076 -0.4441315 -0.4166889 -0.04230416 -0.30517295 -0.008485942 -0.13542356
