trained_models/autoencoder_8_central_chans.pt (torch, 55664 bytes, 4 tensors)

encoder.weight f4 [8, 784]
0	0xbcd0e461	-0.025499525
1	0xbd08093b	-0.033211928
2	0x3cb0fefa	0.021605957
3	0x3d0cbbff	0.034358975
4	0xbd0ca8e5	-0.034340758
5	0xbb655281	-0.0034991803
6	0xbced81fa	-0.028992642
7	0xbd0ccb06	-0.034373306
8	0x3cd420ae	0.02589449
9	0x3c89859e	0.016787346
10	0xbcbcf761	-0.023067178
11	0xbae81b4a	-0.0017708328
12	0x3e59ed9a	0.21282044
13	0xbb4f5da0	-0.0031641498
14	0xbe1c79c8	-0.15280831
15	0xbd9b11b7	-0.07571738
16	0x3cff90de	0.031197008
17	0xbc85d0b5	-0.01633487
18	0xbcf28f53	-0.029609358
19	0x3b9e596e	0.004832438
20	0x3bf06c78	0.007337149
21	0xbc3010ce	-0.010746194
22	0xbcb515f3	-0.022105193
23	0x3cf7da5c	0.030255489
24	0x3b823e37	0.0039747017
25	0x3a72cb25	0.0009261838
26	0x3cf4c9b3	0.029881334
27	0x3d117a6b	0.035517137
28	0x3c8727da	0.016498495
29	0x3bf76e1c	0.007550968
30	0x3cdabcc7	0.026701344
31	0x3c2baaca	0.010477731
32	0xbe55dfd6	-0.20886168
33	0xbe80198e	-0.25019497
34	0x3f1f2ffb	0.6218259
35	0x3f1adab1	0.60489947
36	0x3e15e4b4	0.14638025
37	0xbcb31c50	-0.021864086
38	0x3c407649	0.011746951
39	0x3dd2b394	0.10288158
40	0x3934cbfa	0.00017242125
41	0x3d49b030	0.04924029
42	0x3e8b5b03	0.27217874
43	0x3bf1b97c	0.007376848
44	0x3df580bd	0.119874455
45	0x3d41841b	0.047245126
46	0xbd7db1af	-0.06193703
47	0xbe04a508	-0.1295358
48	0x3caa448b	0.020784637
49	0xbe0d8860	-0.13821554
50	0xbe82c277	-0.2553899
51	0x3d3c5bbd	0.045985926
52	0xbacecc6e	-0.0015777478
53	0xbc899fc0	-0.016799808
54	0xbca2eb45	-0.019887576
55	0xbcaafc0e	-0.020872142
56	0xbcdb629a	-0.026780415
57	0x3bb0eb9c	0.0053991806
58	0xbe97aeac	-0.29625452
59	0x3e4d78ce	0.20065615
60	0x3d4cd64b	0.050009053
61	0x3e9760da	0.2956608
62	0x3e1f1fa0	0.15539408
63	0x3e90a9c9	0.28254536
64	0x3e8c21e8	0.27369618
65	0xbda52fd5	-0.08065764
66	0x3e41485c	0.18875259
67	0x3de41664	0.11137083
68	0x3e54c354	0.20777637
69	0x3e1f6b07	0.15568171
70	0x3e6aeb85	0.22941406
71	0x3e2f18c5	0.17099293
72	0x3e432c48	0.1905986
73	0x3d8dee23	0.069301866
74	0x3d5b963b	0.053610068
75	0x3dc5227e	0.096257195
76	0xbd1352b0	-0.03596753
77	0x3d8cd92a	0.06877358
78	0xbd1eb8a3	-0.038750302
79	0xbc92667a	-0.01787113
80	0xbe40ad47	-0.188161
81	0x3d9d1f15	0.07671944
82	0xbc816463	-0.015794938
83	0xbc987335	-0.018609622
84	0x3c8f3973	0.017483449
85	0x3cbfb9ec	0.023404084
86	0xbdd753d9	-0.105140395
87	0x3d70c217	0.05877885
88	0x3f255203	0.64578265
89	0xbc0d25e4	-0.008614991
90	0xbdded4a9	-0.108804055
91	0xbcec74d0	-0.028864294
92	0xbe59a208	-0.21253216
93	0xbe04cca0	-0.12968683
94	0xbe116c59	-0.14201488
95	0xbd2098b7	-0.03920814
96	0xbd3d39cf	-0.04619771
97	0xbd13ce23	-0.03608526
98	0xbcf4bbb1	-0.029874654
99	0xbd430f0b	-0.047621768
100	0xbd8aa7b0	-0.06770265
101	0xbce9da4f	-0.02854648
102	0xbb82c802	-0.003991128
103	0x3cdc965a	0.026927162
104	0xbc9ea974	-0.01936791
105	0xbb5cf5df	-0.0033715887
106	0xbc917f59	-0.01776092
107	0x3e068aba	0.13138857
108	0x3dc3bb4c	0.095572084
109	0xbeb4d0dd	-0.353156
110	0x3e2548f5	0.16141112
111	0xbcd2f06c	-0.025749408
112	0x3ce43adc	0.027860098
113	0xbe25c993	-0.16190176
114	0x3e5c1c5a	0.2149519
115	0xbdb6d647	-0.08927589
116	0xbde2c507	-0.11072736
117	0xbd4f8706	-0.050665878
118	0xbdd28644	-0.102795154
119	0xbd12260a	-0.035680808
120	0xbd74aea3	-0.05973686
121	0xbd6b73d3	-0.057483505
122	0xbdee61d6	-0.116397545
123	0xbbdd771f	-0.006758585
124	0x3c16c9b9	0.009203368
125	0x3be563e0	0.0070004314
126	0x3d56ebc6	0.052470945
127	0x3e2e9da0	0.17052317
128	0x3e7d96a0	0.2476449
129	0x3e9c1638	0.30485702
130	0x3e994bf5	0.29940763
131	0x3e7aa4d3	0.24476938
132	0x3e236edf	0.15960263
133	0x3def4382	0.11682798
134	0x3e3a3594	0.18184501
135	0x3e1a8687	0.1509038
136	0x3df0d850	0.11760008
137	0x3dd1eee8	0.10250646
138	0x3e6e5ab8	0.23276794
139	0xbdf58d65	-0.119898595
140	0x3c8d2cfe	0.017233368
141	0x3c030f37	0.007999233
142	0xbeb42a12	-0.35188347
143	0xbd9fea70	-0.07808387
144	0xbe83fcce	-0.25778812
145	0xbe551b6b	-0.2081124
146	0xbd97db8f	-0.07414924
147	0xbe238a06	-0.1597062
148	0xbe01a79a	-0.12661591
149	0xbe0f7de3	-0.14012866
150	0xbe115ace	-0.14194795
151	0xbdd69ab0	-0.10478723
152	0x3d15d3a9	0.036578808
153	0x3cc35b78	0.023847327
154	0x3df730c2	0.12069847
155	0x3e59bad6	0.21262679
156	0x3ea1fd40	0.31638527
157	0x3ed24a4e	0.41072315
158	0x3ed76bd6	0.4207446
159	0x3eaf1964	0.3419906
160	0x3e6730c0	0.2257719
161	0x3d649578	0.055806607
162	0x3db3ea25	0.08784894
163	0x3d2aebcd	0.041728783
164	0xbdc51feb	-0.096252285
165	0xbc98d30a	-0.018655319
166	0xbdc7a5e3	-0.09748437
167	0xbdb7c8cc	-0.08973846
168	0xbb53c1ca	-0.0032311552
169	0x3d4168ec	0.047219202
170	0x3ebecb85	0.37264648
171	0x3e275d30	0.16344142
172	0xbe8a9f9f	-0.27074906
173	0xbeb8ce29	-0.36094788
174	0xbe5996cb	-0.21248929
175	0xbe5df06e	-0.21673748
176	0xbe725e27	-0.23668729
177	0xbdfd38ab	-0.12364324
178	0xbe256b08	-0.1615411
179	0xbde269f0	-0.11055362
180	0x3b800f97	0.0039081085
181	0x3da49a2b	0.08037218
182	0x3e1ac6c8	0.15114892
183	0x3e94b3e7	0.29043505
184	0x3eb88000	0.36035156
185	0x3eba8d07	0.3643572
186	0x3ea3be5c	0.3198117
187	0x3ea2e1ce	0.318129
188	0x3e68c39a	0.22730866
189	0x3e256777	0.1615275
190	0x3df509aa	0.11964734
191	0x3cf50984	0.029911764
192	0xbd1879c1	-0.03722549
193	0xbd80ead2	-0.062947884
194	0xbdf362d6	-0.11884086
195	0x3e26d2e1	0.16291381
196	0xbe8f62dc	-0.2800511
197	0x3d4ca99a	0.049966432
198	0x3f0025da	0.50057757
199	0x3e4ed122	0.20196965
200	0x3bd4b734	0.006491566
201	0xbd3fc05d	-0.04681431
202	0xbdb9baaf	-0.0906881
203	0xbd50eb27	-0.05100551
204	0xbdd4385d	-0.10362313
205	0xbe30c5d8	-0.17262971
206	0xbe378241	-0.17920782
207	0xbe081dec	-0.13292664
208	0x3d6f0c7d	0.05836152
209	0x3e43ddd8	0.19127595
210	0x3e88751c	0.26651847
211	0x3ea0297f	0.3128166
212	0x3eaf1b1c	0.3420037
213	0x3e9d3280	0.3070259
214	0x3eaab185	0.33338562
215	0x3e9d5578	0.3072927
216	0x3eb4fe45	0.35350242
217	0x3e470856	0.19436774
218	0x3e329fd1	0.17443778
219	0x3de60444	0.11231282
220	0x3ddde888	0.108353674
221	0xbc2d4829	-0.010576286
222	0xbe2163df	-0.15760754
223	0x3c96ef97	0.018424792
224	0xbece4e4b	-0.40294108
225	0xbe8eac20	-0.27865696
226	0x3ebb3cc8	0.3656981
227	0x3e27617f	0.16345786
228	0x3e186951	0.14883925
229	0xbe2d5420	-0.16926622
230	0xbe01ec06	-0.12687692
231	0xbe1b7dbe	-0.15184686
232	0xbe16dd30	-0.14732814
233	0xbe5c29b8	-0.2150029
234	0xbe30b029	-0.172547
235	0x3cac763a	0.021052469
236	0x3e56e857	0.20987068
237	0x3e8a753f	0.27042577
238	0x3e9ec982	0.31013113
239	0x3e40d760	0.18832159
240	0x3e10bd0b	0.14134614
241	0x3d97224a	0.07379587
242	0x3e4bb463	0.19893031
243	0x3e89dba7	0.26925394
244	0x3e89ea81	0.26936725
245	0x3e5ae3d5	0.21375974
246	0x3daa96cb	0.08329543
247	0x3da399df	0.07988333
248	0x3d6b7226	0.057481907
249	0x3d59783e	0.053093188
250	0xbdcbc6ac	-0.09950003
251	0xbd0ff903	-0.035149585
252	0xbd91a130	-0.07110822
253	0xbe2981cd	-0.16553421
254	0x3e197f32	0.14989927
255	0x3dd24e69	0.10268862

encoder.bias f4 [8]
0	0x3fd117fc	1.6335444
1	0xbfe69e13	-1.801699
2	0x3ca9c062	0.020721618
3	0xbc792fa1	-0.0152091095
4	0xbc20256e	-0.009774549
5	0xbc951f9f	-0.018203555
6	0xbc93e17c	-0.018051855
7	0x406ba6ab	3.6820476

decoder.weight f4 [784, 8]
0	0xbe0629c3	-0.13101868
1	0xbe9fa50b	-0.31180605
2	0xbc0c7755	-0.008573373
3	0x3e457dbc	0.19286245
4	0x3e7a514a	0.24445072
5	0x3e299125	0.16559274
6	0x3dce3904	0.100694686
7	0xbf12f3b0	-0.5740309
8	0xbec1142c	-0.37710702
9	0xbf1aea8e	-0.6051415
10	0xbe986be2	-0.29769808
11	0xbe7fd53a	-0.24983683
12	0x3e47b17d	0.195013
13	0xbd9ecd10	-0.07753956
14	0x3e886146	0.26636714
15	0xbec1a223	-0.37819013
16	0xbeac766a	-0.33684093
17	0xbed4989f	-0.4152269
18	0xbeaf6c0b	-0.34262118
19	0xbe828d6e	-0.25498527
20	0xbeaf4562	-0.34232622
21	0xbe255df9	-0.16149129
22	0xbdbaed67	-0.09127312
23	0xbee82dc5	-0.4534742
24	0xbde495f0	-0.11161411
25	0xbf1a5da2	-0.6029912
26	0x3e993e2e	0.29930252
27	0xbe88566d	-0.26628438
28	0x3e85a51a	0.26102525
29	0x3e9aa2c6	0.3020231
30	0xbe1e801d	-0.15478559
31	0xbeaa67d2	-0.33282334
32	0xbf1416f4	-0.57847524
33	0xbeb2d074	-0.34924662
34	0xbe4c7574	-0.1996668
35	0x3eb01bab	0.3439611
36	0x3d9940e8	0.07483083
37	0xbcbb102c	-0.02283486
38	0xbddaa310	-0.10675633
39	0xbe95e35f	-0.29275033
40	0xbeb3a07f	-0.35083386
41	0xbf04c02f	-0.5185575
42	0xbe0dfc0e	-0.13865682
43	0x3d8002a5	0.062505044
44	0xbe9e29c2	-0.30891234
45	0xbe20e8a2	-0.15713742
46	0x3c2ca525	0.01053742
47	0xbe6fc3dd	-0.2341456
48	0xbf063402	-0.5242311
49	0xbed7f593	-0.42179546
50	0x3e7bb9e4	0.2458263
51	0x3e28e8eb	0.16495101
52	0xbe5649aa	-0.20926538
53	0x3d09d92b	0.033654373
54	0x3e8a1a0b	0.26972994
55	0xbf127179	-0.57204396
56	0xbea17ff2	-0.31542927
57	0xbf15ce04	-0.5851748
58	0x3e4e45cd	0.20143814
59	0x3dadefb1	0.08492983
60	0x3d9f7010	0.07785046
61	0xbd90d6a8	-0.070721924
62	0x3e7ea2c4	0.24866778
63	0xbe9801bc	-0.29688823
64	0xbebea1a8	-0.3723271
65	0xbf2de03b	-0.67920274
66	0xbde1c459	-0.110237785
67	0xbe945cd3	-0.2897707
68	0x3c30da52	0.010794239
69	0x3e626cb5	0.22111781
70	0x3e5fd8c5	0.21860035
71	0xbe42c092	-0.19018772
72	0xbe9dd014	-0.30822814
73	0xbe8e3128	-0.27771878
74	0x3e283537	0.1642655
75	0x3e8c0d65	0.2735397
76	0x3ea12481	0.31473163
77	0xbcdc1d4c	-0.026869439
78	0xbea48b61	-0.32137588
79	0xbe034cfc	-0.12822336
80	0xbe7ba4ab	-0.24574535
81	0xbeb4e898	-0.35333705
82	0x3e1f5cfa	0.15562811
83	0xbeb0abdc	-0.34506118
84	0xbddaac5a	-0.10677405
85	0xbe1e78d9	-0.15475787
86	0xbd57d7be	-0.052695982
87	0xbe96c094	-0.294438
88	0xbe99ef2d	-0.3006529
89	0xbf1465f0	-0.57968044
90	0xbe0c2770	-0.13686919
91	0xbe8385cc	-0.25688016
92	0x3ea268cf	0.31720588
93	0xbd0c9952	-0.034325905
94	0x3e7d1366	0.24714431
95	0xbe8fc0e2	-0.28076845
96	0xbeb3d204	-0.35121167
97	0xbe827760	-0.254817
98	0x3c1f0b0f	0.009707226
99	0x3ea2e309	0.3181384
100	0xbe25a187	-0.16174899
101	0xbe482f96	-0.19549403
102	0x3e15ee66	0.14641723
103	0xbf1654d7	-0.58723205
104	0xbe19c0a1	-0.15014888
105	0xbf33c817	-0.7022719
106	0xbe129db8	-0.14317977
107	0x3e930386	0.28713626
108	0xbe208902	-0.15677264
109	0xbdc04538	-0.093882024
110	0x3dfda8a7	0.123856835
111	0xbdef90a4	-0.1169751
112	0xbea420e0	-0.32056332
113	0xbea6a7fd	-0.3255004
114	0xbe390335	-0.1806763
115	0x3daed88d	0.085373975
116	0xbda885a6	-0.082286164
117	0x3e9212b5	0.28529897
118	0xbe83cddb	-0.25742993
119	0xbec57821	-0.38568214
120	0xbf15d9bd	-0.5853537
121	0xbef27e2b	-0.47361884
122	0xbe87684a	-0.26446754
123	0xbd847aec	-0.06468758
124	0xbe5ff519	-0.21870841
125	0x3ea2304c	0.31677473
126	0x3e8f36df	0.2797155
127	0xbe958705	-0.29204574
128	0xbedb1ecc	-0.42796934
129	0xbf18047c	-0.5938184
130	0xbeb1b308	-0.34706903
131	0x3b814068	0.0039444454
132	0xbce4c144	-0.027924187
133	0xbd677528	-0.056508213
134	0x3e319d46	0.17345151
135	0xbf076093	-0.52881736
136	0xbea8417c	-0.3286246
137	0xbe772120	-0.2413373
138	0x3e7feb3b	0.24992077
139	0xbe5b3d7b	-0.21410172
140	0x3e3890f3	0.18024044
141	0xbdb003d5	-0.08594481
142	0xbe4b4ee6	-0.19854316
143	0xbe811264	-0.25209343
144	0xbe950551	-0.2910562
145	0xbe746026	-0.23864803
146	0xbd8a42ad	-0.06750999
147	0xbeacb104	-0.33728802
148	0xbe98f7aa	-0.29876453
149	0xbd6eb59b	-0.05827866
150	0x3e9a772a	0.3016904
151	0xbe954615	-0.2915503
152	0xbebb91d8	-0.36634707
153	0xbf0bf4da	-0.5467049
154	0x3e53b852	0.20675781
155	0x3d403cf8	0.046933144
156	0xbc33249f	-0.010934024
157	0xbda45c66	-0.08025436
158	0xbe59f4e6	-0.21284828
159	0xbf02116e	-0.50807846
160	0xbf0261ec	-0.50930667
161	0xbee80708	-0.45317864
162	0xbe8fdbb0	-0.28097296
163	0xbe8e8cc0	-0.2784176
164	0xbe605c31	-0.21910168
165	0xbe367ada	-0.17820302
166	0xbddf8db9	-0.10915703
167	0xbeba5225	-0.36390796
168	0xbe365db5	-0.17809184
169	0xbf2ddbdc	-0.67913604
170	0xbe6fa3df	-0.23402356
171	0x3e94eadf	0.29085442
172	0x3d853e48	0.0650602
173	0xbe976014	-0.2956549
174	0xbe2062a0	-0.15662622
175	0xbf0fe6ee	-0.56211746
176	0xbef9af6e	-0.48766655
177	0xbef100b8	-0.4707086
178	0xbe78832c	-0.24268788
179	0x3d5ca657	0.05386957
180	0x3e37e50f	0.17958473
181	0x3e7a7767	0.24459611
182	0xbe179e5a	-0.148065
183	0xbe997e6c	-0.29979265
184	0xbe2279ee	-0.15866825
185	0xbeb728e6	-0.3577339
186	0xbd9198b3	-0.07109203
187	0xbe405a84	-0.18784529
188	0x3e7e063d	0.24807067
189	0x3e22b1f3	0.15888195
190	0xbe6d26d5	-0.23159344
191	0xbe982648	-0.29716706
192	0xbf0c1934	-0.54725957
193	0xbe9baf72	-0.30407292
194	0xbd63abc7	-0.05558374
195	0xbda5ba66	-0.08092193
196	0xbeb2cd53	-0.34922275
197	0x3ea55396	0.32290334
198	0x3e6c4917	0.23074757
199	0xbf0de627	-0.5542931
200	0xbea49128	-0.32141995
201	0xbe825732	-0.2545715
202	0x3e4854dc	0.19563621
203	0x3c5b4167	0.013382292
204	0x3e2185d3	0.15773706
205	0xbe528d65	-0.2056175
206	0xbe863913	-0.2621542
207	0xbe338f5d	-0.17535158
208	0xbe86597d	-0.2624015
209	0xbf1886bd	-0.59580594
210	0xbe2bd53c	-0.16780561
211	0x3ddf899b	0.10914918
212	0xbe0536fa	-0.13009253
213	0x3db4a3e8	0.08820325
214	0x3c86e674	0.01646731
215	0xbe9a0ffb	-0.30090317
216	0xbed88644	-0.42289937
217	0xbedaf1d8	-0.42762637
218	0xbcadff7e	-0.021239992
219	0xbe397878	-0.18112361
220	0xbe859852	-0.26092774
221	0x3dce6eb4	0.10079709
222	0xbde9d193	-0.11416926
223	0xbf188ecb	-0.59592885
224	0xbeafc272	-0.34328038
225	0xbf1ba1ea	-0.60793936
226	0x3e5b4620	0.2141347
227	0x3e09f265	0.13471372
228	0xbe8d04d3	-0.27542743
229	0x3e404184	0.18774992
230	0x3e3a242d	0.18177862
231	0xbe1451a4	-0.14484268
232	0xbe66c50b	-0.22536103
233	0xbe8bc2dc	-0.27297103
234	0xbe1acc9b	-0.15117113
235	0x3c3deefc	0.011592623
236	0xbdac208d	-0.08404646
237	0x3e0063e2	0.12538102
238	0xbe36198b	-0.17783181
239	0xbf0d59f4	-0.5521538
240	0xbe26eda8	-0.16301596
241	0xbefacef0	-0.48986006
242	0x3e688a07	0.22708903
243	0xbdc5910a	-0.09646805
244	0x3de75631	0.112957366
245	0xbe1eb446	-0.15498456
246	0xbd385bd9	-0.045009468
247	0xbed7e170	-0.42164183
248	0xbed77977	-0.42084858
249	0xbef5afdd	-0.47985736
250	0xbdafeced	-0.08590112
251	0x3e3cacc6	0.18425283
252	0x3e0172f1	0.12641503
253	0x3e5689ed	0.20951052
254	0x3dd473e2	0.103736654
255	0xbe39fd51	-0.18163039

decoder.bias f4 [784]
0	0xbe02a26f	-0.12757276
1	0xbef4618b	-0.4773067
2	0x3d7f88d8	0.062386364
3	0xbe9f7370	-0.3114276
4	0xbf00f4ec	-0.5037372
5	0xbd956cc7	-0.07296138
6	0xbf0394fc	-0.5139921
7	0xbcdbab0d	-0.026814962
8	0xbec69521	-0.3878565
9	0xbf318b77	-0.6935343
10	0xbed950a2	-0.4244433
11	0xbe9f6ffa	-0.3114012
12	0xbecc82e1	-0.39943603
13	0xbe98975b	-0.29802975
14	0xbcab5f46	-0.020919453
15	0x3d7acd94	0.06123121
16	0xbef4f35a	-0.47841913
17	0xbe35874c	-0.17727393
18	0xbed06649	-0.40703037
19	0xbe8ee4f4	-0.27909052
20	0x3d4bd680	0.04976511
21	0x3dac548f	0.08414566
22	0xbe8453f0	-0.2584529
23	0xbe57e736	-0.21084294
24	0x3ceb2cd9	0.028707908
25	0xbf26b5c0	-0.6512108
26	0xbe0c0be9	-0.13676418
27	0x3d83e893	0.064408444
28	0xbe6b3ee6	-0.22973213
29	0xbeb3e97e	-0.35139078
30	0xbf14dbd0	-0.5814791
31	0xbe981894	-0.29706252
32	0xbebba69c	-0.3665055
33	0xbe8044a2	-0.25052363
34	0xbbcdefba	-0.006284681
35	0xbe2a50f7	-0.16632448
36	0xbbac8431	-0.005264782
37	0xbeef3e0e	-0.4672703
38	0xbe1c04b9	-0.15236177
39	0xbf20335b	-0.6257836
40	0xbe71a771	-0.2359903
41	0xbee7221b	-0.45143208
42	0xbed19541	-0.40934184
43	0xbe282f40	-0.16424274
44	0xbf0e54ad	-0.55597955
45	0xbf0a622f	-0.54056066
46	0xbccb05a9	-0.024782972
47	0x3d5582f4	0.05212684
48	0xbdeb2f67	-0.11483651
49	0xbee54fb5	-0.44787374
50	0xbec8af5c	-0.3919629
51	0xbee4cdbe	-0.4468822
52	0xbe2a0ad0	-0.16605687
53	0xbee0ab1d	-0.4388055
54	0xbe9cbbdb	-0.30612072
55	0xbea01457	-0.31265518
56	0x3cc33344	0.023828156
57	0xbd75e4b5	-0.060032565
58	0xbd8e0438	-0.069343984
59	0xbe620721	-0.22073032
60	0xbe2b93d7	-0.16755615
61	0xbec7cb65	-0.39022365
62	0xbf179592	-0.592126
63	0xbe265e3e	-0.16246888
64	0xbd7456c2	-0.05965305
65	0xbe521e1a	-0.20519295
66	0xbef52d50	-0.47886133
67	0xbee2c6e7	-0.44292375
68	0xbf1e89e9	-0.61929184
69	0x3dc72f09	0.09725768
70	0xbe33be77	-0.17553125
71	0xbdd8df90	-0.10589516
72	0xbf0d5b8f	-0.5521783
73	0xbda19023	-0.0788882
74	0xbefd7bc5	-0.4950849
75	0xbe7eb946	-0.24875364
76	0xbeebbe17	-0.46043465
77	0x3c725159	0.014789903
78	0xbd9a39e5	-0.07530574
79	0xbef98c6b	-0.48739943
80	0xbf135ba5	-0.57561713
81	0xbe3b3bed	-0.18284579
82	0xbed93983	-0.4242669
83	0xbf04cdd0	-0.51876545
84	0xbd960644	-0.07325414
85	0xbe494e0b	-0.19658677
86	0xbe6273a2	-0.22114423
87	0xbef09701	-0.46990207
88	0x3d797f2d	0.0609123
89	0xbf2158c9	-0.630261
90	0xbe6f246d	-0.23353739
91	0x3d3aa912	0.045571394
92	0xbc4faa3a	-0.0126748625
93	0xbe6d67cb	-0.23184125
94	0xbeac6cd2	-0.33676773
95	0xbee2627b	-0.4421576
96	0xbf86a9a7	-1.0520524
97	0xbef7ff65	-0.48437038
98	0xbdb240f5	-0.08703796
99	0xbecc93ca	-0.39956504
100	0xbfcb4fe8	-1.588376
101	0xbdb4b171	-0.08822907
102	0xbe42e6e6	-0.19033393
103	0xbd70657b	-0.05869053
104	0xbdb17dcd	-0.08666573
105	0x3b7ed238	0.0038882624
106	0xbec3b342	-0.382227
107	0xbeab4074	-0.3344761
108	0xbe29f3b3	-0.1659687
109	0xbea81391	-0.32827428
110	0xbe265639	-0.16243829
111	0xbef03bce	-0.46920627
112	0xbe83df11	-0.25756124
113	0xbf0e1347	-0.55498165
114	0xbe3be079	-0.18347348
115	0xbea92e0c	-0.33042943
116	0x3d61bccc	0.05511169
117	0xbea0ed20	-0.31430912
118	0xbe83f65a	-0.2577389
119	0xbecc677d	-0.39922705
120	0xbf1e23e6	-0.61773527
121	0xbf85f41b	-1.046512
122	0xbf3aeb24	-0.73015046
123	0xbf4e4fd0	-0.80590534
124	0xbf218449	-0.63092476
125	0xbf2e7565	-0.6814788
126	0xbf6b5aee	-0.9193562
127	0xbfad24b7	-1.352683
128	0xbff049a2	-1.8772471
129	0xc02517bb	-2.5795734
130	0xc02e246a	-2.7209725
131	0xc02a2d40	-2.6590118
132	0xc00504ec	-2.0784254
133	0x3d994b64	0.07485083
134	0x3cd4d491	0.025980266
135	0xbe2ecf7f	-0.17071341
136	0xbe602a96	-0.21891245
137	0xbf162348	-0.58647585
138	0xbee4b182	-0.44666678
139	0xbf336761	-0.7007962
140	0xbe63d395	-0.22248681
141	0xbe7d22eb	-0.24720351
142	0xbec9f9b9	-0.39448336
143	0xbe12b1a0	-0.14325571
144	0xbf20c2f6	-0.62797487
145	0xbeba7872	-0.36420017
146	0xbe2b7442	-0.16743568
147	0xbede3116	-0.43396825
148	0xbef6ff17	-0.48241493
149	0x3d6637dd	0.05620562
150	0x3efa4f50	0.48888636
151	0x3f44da38	0.76895475
152	0x3f446ec4	0.76731515
153	0x3ee834d9	0.4535282
154	0xbd259c4c	-0.04043226
155	0xbf345441	-0.7044106
156	0xbfc3c4b0	-1.5294399
157	0xc00c8c3f	-2.19606
158	0xc02a9fe6	-2.6660094
159	0xc02fce49	-2.7469656
160	0xc0357d53	-2.8357742
161	0xc0343845	-2.8159344
162	0xbf33bc80	-0.70209503
163	0xbe623da2	-0.22093824
164	0xbf18ce46	-0.5968975
165	0xbe587a77	-0.21140467
166	0xbec745c5	-0.38920417
167	0xbe8d47db	-0.27593884
168	0xbea9f5ba	-0.33195287
169	0xbef3e156	-0.47632855
170	0xbe97d1fb	-0.2965239
171	0xbe8ac742	-0.27105147
172	0x3d28d7b3	0.04122133
173	0xbe94892d	-0.29010907
174	0xbeacabdc	-0.33724868
175	0x3b188aca	0.0023276084
176	0x3f03aa6a	0.51431906
177	0x3f84ccb0	1.0374966
178	0x3fa22829	1.2668506
179	0x3f8be1b7	1.0928258
180	0x3f2b7f02	0.66990674
181	0x3e4a70bd	0.19769569
182	0xbe984060	-0.29736614
183	0xbf4218b9	-0.75818974
184	0xbf9dac59	-1.2318221
185	0xbfd92dd2	-1.6967108
186	0xc00275ce	-2.0384402
187	0xc012c028	-2.2929783
188	0xc0209fa6	-2.5097442
189	0xc02e86d5	-2.7269795
190	0xc013c4cb	-2.3088863
191	0xbd56193e	-0.052270167
192	0xbe98c8d1	-0.2984071
193	0x3c551151	0.013004617
194	0xbd5c10bf	-0.053726908
195	0xbea81932	-0.32831722
196	0xbf03062c	-0.5118129
197	0xbeb06f54	-0.34459937
198	0xbefd69e6	-0.49494857
199	0xbde4fa04	-0.11180499
200	0xbda4d371	-0.08048142
201	0xbeb6671a	-0.35625535
202	0xbeb69923	-0.3566371
203	0x3e8a3526	0.26993674
204	0x3f32944b	0.6975753
205	0x3f87ad4e	1.0599763
206	0x3f67042b	0.90240735
207	0x3ece0671	0.4023929
208	0xbe79b204	-0.24384314
209	0xbf60e579	-0.8785015
210	0xbf9c1c49	-1.2196132
211	0xbf9f9b62	-1.2469294
212	0xbf96a6c3	-1.1769642
213	0xbf9e337f	-1.2359465
214	0xbfc79454	-1.5592141
215	0xc0013cdf	-2.0193403
216	0xc01c7686	-2.444734
217	0xc021b62e	-2.5267444
218	0xc028708b	-2.631869
219	0xbe4079ae	-0.18796417
220	0xbe610ce1	-0.21977569
221	0xbeff372b	-0.49846777
222	0xbf14ec20	-0.581728
223	0xbd22826a	-0.039675154
224	0x3da1e406	0.0790482
225	0xbd6909f5	-0.05689426
226	0xbd52217b	-0.05130146
227	0xbe0cf5ff	-0.13765715
228	0xbdff0019	-0.124511905
229	0xbf515cc9	-0.81782204
230	0xbf15acda	-0.58466876
231	0x3da06389	0.07831485
232	0x3f2de000	0.6791992
233	0x3f47693b	0.77894944
234	0x3e9c170a	0.30486327
235	0xbf258627	-0.64657825
236	0xbfddf5dd	-1.7340657
237	0xc01072ce	-2.2570071
238	0xc001bfce	-2.0273318
239	0xbfc52a34	-1.5403504
240	0xbf8b4017	-1.0878934
241	0xbf6fb8fb	-0.9364163
242	0xbfa17774	-1.2614579
243	0xbfecf1ea	-1.8511326
244	0xc012c21f	-2.2930982
245	0xc0239bb4	-2.5563784
246	0xc02061d6	-2.5059714
247	0xc03d7b40	-2.9606476
248	0xbeb08ab6	-0.34480828
249	0xbe37cd32	-0.1794937
250	0xbd02da95	-0.031946737
251	0xbf15aba4	-0.5846503
252	0xbf155b85	-0.5834277
253	0xbe2e8325	-0.17042215
254	0xbe40bdac	-0.18822354
255	0xbea45d91	-0.32102636
