trained_models/autoencoder.pt (torch, 105712 bytes, 4 tensors)

encoder.weight f4 [16, 784]
00000000: 9a21 97bc 6ef1 c1ba aa1b 0f3d 6efd 1c3c
00000010: 0a08 a0bb 6c2e 853c ec57 10bd 937d 94bb
00000020: 4a25 1dbb 4a4a 4a3b 4c7a f13c 2fa4 07bd
00000030: d55e 923c fde4 7c3d 1697 1ebd c66d 84bd
00000040: 5e92 b93c 1071 a1bc c330 a1bc 5395 f23b
00000050: 3a3a fc3c 7ed4 adbc 57f6 0dbc aef0 e93c
00000060: 6af2 6c3c c829 0dbd 0540 a43c 7e03 ae3c
00000070: dead d1bc 41b6 eabc 9c4d ab3b 5767 9fbc
00000080: 0e35 6cbe fccc 99be 5ae0 6d3e 282c 3e3e
00000090: deb8 fc3c af12 9a3d d337 c93c 59d3 143d
000000a0: 91f7 8abd aee0 4ebe ab9f 8a3d 6cb7 a9bd
000000b0: 9908 8d3d 6c66 01bd 7f0e 97be d893 2ebd
000000c0: 2a66 223e 85ae cc3d 1e56 7dbe d1ee 0bbe
000000d0: 755a 01bd 335a 413c 7769 cabb 15d4 c9bc
000000e0: d713 1dbc 78d5 fbbc d52b 043e 74e8 323e
000000f0: db8e 76bd 0e2b dcbd 82d2 ca3d ada2 af3d
00000100: 37f2 b0bd ee55 373d bf5d 7cbd dbe2 133d
00000110: b662 09bd d304 2abe eea7 29bc 14e6 103c
00000120: c288 973c b1e9 b7bc 1dcd 1c3e 756a 4e3e
00000130: c425 563e 8ed2 003e 1fe3 d03d 6a78 993d
00000140: d3e2 c53d 4934 f63c b75a d8bc 6c07 aa3c
00000150: 9398 31bb 1147 c0bc 84e1 e03d 8fc4 a7bd
00000160: a7cc 8a3e 72d5 3bbd d612 1b3d 30e4 313c
00000170: df56 f8bc a6a0 3c3d 3093 883d ab36 043e
00000180: 5104 ae3d 9665 cf3d d05c 173e 6e93 d13d
00000190: 79ad 3fbc cfa6 babd 16b9 49bd c48d bd3d
000001a0: 5648 8e3d 4561 473c 4cb3 c53d c26a 103e
000001b0: 2645 443e 0bc2 a53d e5c9 91bd 0a52 c73c
000001c0: 6d99 0abd 99d5 de3d de05 4fbc d0e6 2cbc
000001d0: c0df 8bbd 17be 8a3c c3dd ec3d 2df9 e4bc
000001e0: 5490 9ebd 812c c03c de03 543d a00d 3337
000001f0: be66 44bc 394d fcbc 616b 1fbc cbad 7bbc
00000200: 0c57 5dbb 4fdd f93b 4fc3 97bd df82 fdbb
00000210: 72df 9dbd 2776 a4bc eae4 ce3c f3cf 293d
00000220: 2fd7 fa3b da42 363e d7d6 eebd ae6a 00be
00000230: e12b 453c e5be 0a3c 01fa 82be 322f 09bd
00000240: cc05 063e 28ea 84bc 6f22 78bd 2859 bfbd
00000250: 276d 20bd 3c50 64bc 529e 42bd 86b6 ae3c
00000260: 6bf9 9dbd 6191 1ebe d143 f8bd 3593 44bd
00000270: 669c 8abb 1353 2a3d 1166 a43c 6c00 1cbb
00000280: 30f8 5dbd fc3f 94bd 1908 a2bd f3dc c7bb
00000290: 7aee a53d dcf4 433d 1441 d5bc bd0f 493d
000002a0: 17ed 023d af41 a5bc ea7d 1c3e e311 6b3e
000002b0: 56ca 01be 4803 dabd 7cc3 52bd c3f0 75bd
000002c0: b909 46bd e2ab 1fbd f235 2ebd 7b94 25bd
000002d0: 3845 bebd 3957 09be 9f3a e1bd 888c 173d
000002e0: 6da8 f33d 27dd e03d b721 be3d d144 c93c
000002f0: 44a8 3ebd 6fdc f0bd 8bf9 c5bd a604 8fbd
00000300: 8a39 8bbc ef8a 393d 6834 913d 0491 073c
00000310: 77cc b93d 7c72 5ebe 101a 96bd 97ed 703c
00000320: b62f 98bd f97c 79bd 5ab7 abbc d690 32bd
00000330: dbe7 88bb e9c4 cc3b 9d3b b63b 1459 edbc
00000340: c6d8 59bd 9bc7 bdbd 64b3 acbc d80a f63d
00000350: b72a 853e 89fa 933e 16db 793e b0b3 133e
00000360: 09e9 7a3c 5d81 86bd 9aa5 c4bd 032b 82bd
00000370: eced 14bd 8bfc c93d 3b1a a13d de12 9fbd
00000380: 9b52 d33d d686 a33c 3ae7 4a3b 738e cebc
00000390: 5dd5 28bd f269 49bd 3172 543d 100e 003c
000003a0: 21f4 3b3d 45a4 063c 5091 623b dc0e bb3a
000003b0: 44f3 8cbd 892d 23bd 40a0 ec3c 0540 523e
000003c0: ce3b a93e decf af3e 0eb7 a83e d589 463e
000003d0: 7b7a 943d bab9 05bd 18b5 2ebe 2eab d2bd
000003e0: ec66 b7bd 20b1 ca3d d21a 073e df98 83be
000003f0: 4068 d5bc e5f2 f3bc 4c55 dabd 2b71 ce3c
-0.01844864 -0.0014796683 0.034938492 0.009581907 -0.004883771 0.016257487 -0.0352401 -0.004531571
-0.0023978525 0.0030867034 0.029477261 -0.033115562 0.017867485 0.061741818 -0.038718306 -0.0646625
0.022652801 -0.019707233 -0.019676572 0.0074030547 0.030789483 -0.021219488 -0.008664689 0.028557148
0.014462093 -0.034463674 0.020050058 0.0212419 -0.025595602 -0.028651359 0.0052277576 -0.019458456
-0.23067114 -0.30039203 0.23230115 0.18571532 0.03084987 0.07523095 0.024562752 0.03633437
-0.06785501 -0.20202896 0.067687355 -0.08286938 0.068864055 -0.031591818 -0.29503247 -0.042621464
0.15859285 0.099942245 -0.24739882 -0.1366532 -0.031580407 0.01180129 -0.006177123 -0.024637261
-0.00958725 -0.030741438 0.12907346 0.17471486 -0.06019483 -0.107503995 0.099034324 0.0857595
-0.08639949 0.044759683 -0.06161284 0.036105018 -0.033541404 -0.16603403 -0.010354979 0.008843917
0.018497828 -0.0224503 0.1531262 0.20157798 0.20912844 0.1258032 0.1019957 0.0749367
0.09662404 0.030054228 -0.026410444 0.020755492 -0.0027098998 -0.023471387 0.10980514 -0.081917875
0.27109262 -0.045857854 0.03785976 0.010857627 -0.03031486 0.046051644 0.06668699 0.12911479
0.08496917 0.10126798 0.14781499 0.10233198 -0.011699074 -0.091138475 -0.049248777 0.09255555
0.06947391 0.012169187 0.09653339 0.14103225 0.19167003 0.080936514 -0.071185865 0.024331111
-0.033837724 0.10880584 -0.012635676 -0.010553077 -0.06829786 0.016936345 0.11565735 -0.027950848
-0.07742372 0.023458721 0.0517615 1.0672404e-05 -0.011987386 -0.030798541 -0.009730191 -0.01536126
-0.0033773808 0.007625259 -0.07410299 -0.0077365483 -0.077086344 -0.02007587 0.02525564 0.04145808
0.0076550464 0.1779894 -0.11662071 -0.12540695 0.012034387 0.008468364 -0.25581363 -0.033492275
0.13088149 -0.016224936 -0.060579713 -0.09343177 -0.039166596 -0.013935145 -0.047514267 0.021327268
-0.07713588 -0.15485145 -0.1212231 -0.04799195 -0.00423007 0.041583132 0.0200682 -0.0023803962
-0.05419177 -0.072387666 -0.07911701 -0.0060993372 0.081021264 0.047840938 -0.026032008 0.049087275
0.031964388 -0.020172922 0.15282407 0.22956042 -0.12674841 -0.10645157 -0.05145596 -0.06004406
-0.048349116 -0.03898228 -0.042531915 -0.040424805 -0.09290546 -0.13412179 -0.10997509 0.036999255
0.11897359 0.109796815 0.09283774 0.024568947 -0.04654719 -0.11760794 -0.09666737 -0.069833085
-0.01699521 0.045298513 0.07090074 0.0082743205 0.09072202 -0.2172336 -0.0732919 0.014705083
-0.07430975 -0.0609102 -0.020961452 -0.043595158 -0.00417803 0.0062490595 0.0055613057 -0.02897314
-0.053185247 -0.09266587 -0.021081634 0.12013787 0.2600915 0.2890208 0.24399981 0.14424014
0.015314349 -0.06567643 -0.096018985 -0.0635586 -0.036359712 0.09862622 0.07866331 -0.077672705
0.1031849 0.019961756 0.0030960576 -0.02521441 -0.041219104 -0.049173303 0.051866714 0.007815853
0.045887116 0.008217876 0.0034571476 0.0014271396 -0.06882337 -0.039838348 0.028885007 0.20532234
0.3305344 0.34338278 0.3295216 0.19388516 0.07249924 -0.032647826 -0.1706127 -0.10286556
-0.08955178 0.09897065 0.13193825 -0.2570257 -0.026050687 -0.029778907 -0.106608 0.025200447

encoder.bias f4 [16]
00000000: 6b6f 3840 0c7e b8bf 1c63 2ebb 07bf ab3c
00000010: 50cd b73b 9f23 c53f 25fd 55bf e48c 3640
00000020: 489e af3f 89f0 1f40 de5a 2340 581d 06c0
00000030: cb57 dcbc 0985 7c3f 064f 9d3c 9f5b 943f
2.8818004 -1.4413466 -0.0026609367 0.020965112 0.005609192 1.5401496 -0.8358939 2.8523493
1.3720179 2.499056 2.552421 -2.095541 -0.026897332 0.98640496 0.01920272 1.159046

decoder.weight f4 [784, 16]
00000000: bab1 7fbe 7c7b 36be e895 163e 8977 b43d
00000010: 3c15 a8bd d862 abbe dc63 c23c cf19 5cbe
00000020: e93e 853c 870f 1dbe 9b18 13bd ec06 11bd
00000030: 9c8b f7b9 69ed 0bbf 9403 423e 89dd a4be
00000040: 7865 21be 3c08 c7be 4973 023d 7e4c 60be
00000050: f1d2 bbbc c752 abbe 95af 68be fe1e bebc
00000060: b80a a63b 54bb 5cbb 3be5 93bd 8ad0 40be
00000070: 3449 5d3e 34a7 32bf 9381 dc3c 5d20 143b
00000080: e167 d8bc e07c 4dbe b0e1 e13d 173c c53d
00000090: c1f8 343d 9e0d 1abe e758 b6be f70b dc3c
000000a0: ef08 02be b72c d53c 1603 75be 87e5 e6bd
000000b0: 5f9f 61be 5078 3cbf e0b5 77be 1f5a 793c
000000c0: 6174 25be dfe1 47be fb36 c03d ab3c a93c
000000d0: 4bad 74be 09a7 b9bd 7f34 f1bd 4d5c 30bd
000000e0: 7b0a 71be 622f efbd c54f 70bd 53de 9cbc
000000f0: 07ba f23d baee 27bf 59ba 653e c78d 75bd
00000100: 799a a6be 83fb f6bd 4894 343d 4f2d 703e
00000110: 7dfe af3d 7584 18bf 5c3f 50be 855b 98be
00000120: 44de 093e cd37 89be b2fb a3be c4d4 40be
00000130: 5371 513d 64a6 e9bd 6cfe 2dbd 9a77 49be
00000140: e629 16bd 2471 6abe de52 0fbe 32f2 f43d
00000150: aa81 7abe f460 3bbe 65a2 4fbe 5b8e 483c
00000160: 3aa3 b4be 7ed9 50be 806f 6abe d570 90bd
00000170: 8334 1cbd 8446 20bf 05af 8d3c 5cfa 763c
00000180: 5da6 11bd d061 7abe 4712 9fbc cac8 1d3e
00000190: 1bd0 21be 974d 4bbe 98ee fcbc a470 c7bd
000001a0: 1d6d c8bd 2f4b 39be 31aa 9fbd f525 57be
000001b0: c736 dfbd 21d4 2dbf 3e4e 0bbe abc0 973c
000001c0: 003a 88bc d4d3 b7be 6d89 c3bd 97be babd
000001d0: c132 88bc c281 b0be 2c09 4abe 5ac2 833d
000001e0: 4a40 71be ce9d f2bd 16e7 1dbe 2459 ccbc
000001f0: f97e 94bd 5dc1 0dbf fdf5 80bb 2af4 1ebd
00000200: 6034 5fbd c0fa b9be 118c 2b3e cfe7 8e3d
00000210: bae3 2ebc 1cec 17be 5d4f bdbd e3a4 79be
00000220: 62cb d03b d033 2dbe 6cd1 86be 22c3 c6bd
00000230: 7c1e af3d 14f5 06bf 84e1 35be 96ab 04bd
00000240: 5e64 3abd f83f 6cbe 0c9a 093e 5af3 b3bd
00000250: bc64 35be 7aa7 b0be 7229 36be 6c1c 4fbe
00000260: 2bda b3be b6a9 37bb 38c7 a7bd d74e 04bc
00000270: 7ef6 29be 2c96 1cbf 9b94 533e 4ca8 a9bb
00000280: 9d04 a9bd b511 89be 8bf9 90bd db1a 22be
00000290: 36f0 57bd 93c2 01bf ba7c c6bd 2521 183d
000002a0: e875 99be 5454 033d 5f3f 70be 44d0 45be
000002b0: 9b68 c6bc 2782 10bf dab9 d6bd 75d5 c1bc
000002c0: d77b 873c a420 39be 1b44 4c3d cbf8 0abe
000002d0: 356f 32be e208 73be a7f8 8abe 622e 58be
000002e0: 0fc3 713a 7fb5 f4bc 11f5 acbe 7493 0bbe
000002f0: c875 1f3e 5dfc 1abf d42f aebd 72c3 e93c
00000300: 4184 4ebd 69cb b3bd 51f6 743d 5344 8f3c
00000310: 8b48 04be 9018 edbe ece3 79be f5cd 53be
00000320: a356 f63c 26e0 97bd f00d abbe 379f e3bc
00000330: ba1d 59be f3ad 22bf 5b22 273e 8053 85bd
00000340: 355d d53c cdd6 bebe fbbe 1abd 8c4b e3bd
00000350: 6b53 b9bc e4f3 cdbe 07a8 91be bb0c 473d
00000360: 2e47 b1bc fb05 94bd ee1e aabe 6827 493d
00000370: 86f7 4e3e 85cf 04bf 2d96 b7bd 8894 86be
00000380: 7ae1 82be da83 cdbe 3bc9 bdbd 5873 b4bd
00000390: a039 6fbe e2a8 94be 3e14 58be ce11 9dbe
000003a0: d75e 55be 4248 89be 0217 f3bd 903b 51be
000003b0: 5970 2bbe 5ae6 82be a3b9 21be 29b6 87be
000003c0: de98 4bbe c0b4 87be 6e8a 0b3e 7928 693e
000003d0: a45d 5bbe 08d5 84be b260 11be 4037 24be
000003e0: fdf7 88bd 3ea7 e9bd b6b2 ddbd 1545 b5be
000003f0: 218b e1bd 4575 d2be d99b 75be b4ac 603d
-0.24970141 -0.17820543 0.14705622 0.08811862 -0.08207175 -0.3347385 0.023729257 -0.2149422
0.01626535 -0.15337954 -0.035912137 -0.03540699 -0.00047215528 -0.54659134 0.18946677 -0.32200268
-0.15761364 -0.3887347 0.031848226 -0.2190418 -0.022927733 -0.33461592 -0.22723229 -0.023208138
0.0050671957 -0.0033680992 -0.072214566 -0.18829551 0.21609956 -0.6978638 0.026917255 0.0022602298
-0.02641672 -0.20067167 0.110293746 0.09630602 0.044182543 -0.15044257 -0.35614702 0.026861174
-0.1269872 0.026022298 -0.23926958 -0.112742476 -0.22033451 -0.7362108 -0.24190474 0.01521924
-0.16157676 -0.19519757 0.09385487 0.020658812 -0.23894231 -0.090650626 -0.11777591 -0.043056775
-0.23539154 -0.116789594 -0.058669824 -0.019148981 0.11851888 -0.6559864 0.22434367 -0.059949663
-0.32539728 -0.12059691 0.044086725 0.23454784 0.08593462 -0.59577113 -0.2033667 -0.29757324
0.13463694 -0.26800385 -0.32027966 -0.18831164 0.051133465 -0.114086896 -0.042478964 -0.1967453
-0.03666105 -0.22894722 -0.13996455 0.119602576 -0.24463525 -0.18298703 -0.20276792 0.012240971
-0.35280782 -0.20395467 -0.22894096 -0.07052771 -0.038136017 -0.626076 0.01729537 0.015074339
-0.035559047 -0.24451375 -0.019417895 0.15408626 -0.15802042 -0.19853817 -0.03087549 -0.09738281
-0.09786437 -0.18095087 -0.07796133 -0.21010573 -0.1089912 -0.6790181 -0.13604066 0.018524488
-0.016629219 -0.359038 -0.09547696 -0.091183834 -0.016625764 -0.34473997 -0.19730061 0.06433554
-0.2355968 -0.11846505 -0.15420184 -0.02494485 -0.072507806 -0.55373174 -0.003935574 -0.03880707
-0.054493308 -0.3632412 0.1675265 0.06977808 -0.010674411 -0.14836162 -0.09243653 -0.24379306
0.0063719014 -0.16914296 -0.2633165 -0.097051874 0.08550736 -0.5271771 -0.17761809 -0.0323902
-0.045505874 -0.23071277 0.1343767 -0.0878665 -0.17714208 -0.34502774 -0.17789248 -0.20225686
-0.35127386 -0.002802474 -0.08192295 -0.0080754375 -0.16597936 -0.61166644 0.20662157 -0.0051775333
-0.08252833 -0.26771322 -0.070788465 -0.15830557 -0.052719317 -0.5068752 -0.096917585 0.037140984
-0.29972768 0.032062843 -0.23461674 -0.19317728 -0.024219802 -0.56448597 -0.10484667 -0.023661355
0.016538544 -0.18078858 0.049869638 -0.1357147 -0.17425235 -0.23733857 -0.27142832 -0.21111444
0.00092224864 -0.0298717 -0.3378072 -0.13630468 0.15572274 -0.60541326 -0.08505216 0.028535578
-0.050419096 -0.08779032 0.059805218 0.017488634 -0.12918298 -0.46307802 -0.24403352 -0.20684035
0.030070608 -0.074158 -0.3340907 -0.02778588 -0.21202746 -0.63546675 0.163217 -0.06510067
0.026045421 -0.37273255 -0.03777979 -0.11098394 -0.022622785 -0.40225136 -0.28448507 0.048596125
-0.021640386 -0.07227703 -0.33226722 0.049109846 0.2021161 -0.5187915 -0.08964191 -0.26285195
-0.2556265 -0.40139657 -0.09266897 -0.088110626 -0.23361826 -0.29035097 -0.21101472 -0.30677646
-0.2083696 -0.2681294 -0.11869623 -0.20432878 -0.16742076 -0.2556637 -0.15793471 -0.26506165
-0.19882533 -0.2650509 0.13627025 0.22769345 -0.2142244 -0.2594378 -0.14197043 -0.16036701
-0.06687925 -0.11408852 -0.10825102 -0.35404268 -0.11012865 -0.41105095 -0.23985232 0.054852203

decoder.bias f4 [784]
00000000: 7823 a3be 3481 2fbe 335d c0be 3534 a9be
00000010: feb6 6fbd 738d 013d 8c8f 5ebe e01b 3bbe
00000020: 24b6 9e3c 3630 c4bd 9d2c 533c bd7f 6abe
00000030: e33a 333d a614 4f3d 54ee 36be 068c 48be
00000040: a356 e53d f5e8 90be f75b bbbd c7d1 cebd
00000050: 2078 37be c6ee 1ebe f778 e83d 54e1 36be
00000060: c58a 99be 3539 463d ebe0 77be 85b5 b2be
00000070: 2ed9 92bc 870e 92be a682 e93d 1615 04be
00000080: 4972 84be 21bf 57be 39d3 d73c 5634 fb3d
00000090: 736d a9bd 128e 063e 399e a0be 3cd8 04be
000000a0: e59c 1a3d 0b29 c0be 05f4 d83d aaed 9dbd
000000b0: e8d6 93bd a7e7 acbe ca5b 8639 4e97 b6bd
000000c0: a469 2dbe 9ce0 0fbe dba2 b33d 0d50 bcbd
000000d0: 2b03 db3c 4fcf 81be 017b 833d d91c 07be
000000e0: 7bed 94be 4c53 d23d b1fd 22be 7db9 04be
000000f0: 060c db3c 61bc 24be a290 31bd 6d99 a2be
00000100: c0cb 32bd faa1 09bd f840 563d 8b58 ccbc
00000110: fb2f 3abe 8d4d afbd b09a cd3d 4d34 53bd
00000120: e84e 55be cf61 1dbe f23c 933d 5f65 8abd
00000130: b9f2 043e 3d2f b73d 10cb dcbd 8dc4 a8be
00000140: 060a 08be 6269 9f3c 53b2 e83d 291a b1be
00000150: 31ff 03be 031b 083d 4915 8cbe 2dd0 c23d
00000160: 138a 7bbe 28bf 2c3e 2dd3 bfbd d024 adbe
00000170: 705a 1cbd 351b fbbc 245d d0be 92b7 d4bf
00000180: b13e f1bf dfde 0cc0 367a 6bbd b850 933d
00000190: e47b e2bf 6336 0bc0 9dad 96bf 3a68 03bd
000001a0: bf37 6dbd 3dd9 3e3d e627 163b 6889 b13d
000001b0: 3083 613c f6ec afbd aaa0 2ebe 1e52 733c
000001c0: bdb1 83be 6fdc 84be 2eca 72be 20b6 4ebd
000001d0: 34ed 9cbe bfad 69be 70d5 73be 8b8a 13bf
000001e0: 5d20 44bf 9d5c 8dbf 5dfe 69bf 46be d0bf
000001f0: 405f e1bf b0aa f1bf 25cb 02c0 5b40 12c0
00000200: 55c5 11c0 8c5e 2fc0 df83 0bc0 a91a ebbf
00000210: 007e bdbf 72ba 49bf 7918 57bd 147b 8cbe
00000220: 2f9b 143d aac7 84bd f0d5 f33b 8bb8 9bbe
00000230: 5f10 78bd afbb 80be 2476 df3d 8b26 6b3d
00000240: c6fe 38be 8ac4 66be d1bf 8bbe 75f5 cabe
00000250: 1588 fdbe 3d03 17bf 8d2a 44bf 1a15 65bf
00000260: 6c3e 51bf a05a 97bf 7298 bebf 7e7b fcbf
00000270: 26c7 02c0 e03e 07c0 e2e9 e8bf edd5 abbf
00000280: 7509 7abf e55a 7bbf a97e 98bf 7c10 adbe
00000290: 06b7 71bd 41c3 73bd 3074 f83d 1417 24be
000002a0: 6c8d 91be d121 a93d 4f2d a8be 821b 2fbd
000002b0: a418 1cbe fc23 45be c113 10bf 3b6b 16be
000002c0: 8cf7 82be 6a19 9cbe 9e65 dabe bae8 07bf
000002d0: b06c 25bf fb48 77bf f065 c3bf de1c 09c0
000002e0: adc5 22c0 7f15 19c0 6782 e1bf 5df7 62bf
000002f0: 30f4 a4be eac5 a8be c905 3fbf 1601 25bf
00000300: 2bc6 19bf 3b7e 79be 662e 2d3d 30a5 a5be
00000310: 0bfb 3abe 3ce3 c13b 8231 cebb d01c c43d
00000320: 0e31 1abf 418b 13bf 0045 d7be 2d9e 73be
00000330: 7466 92be 65e5 23bf f66b 71bf 673d 96bf
00000340: 80e5 a5bf 5b86 b5bf 8e08 f6bf fc81 24c0
00000350: e76f 3bc0 f20f 34c0 597a 02c0 c6d1 45bf
00000360: 7138 503e 615b 1f3f 504f 223e d950 11bf
00000370: d7e2 00be 6364 94bd c1c9 93b9 1f31 993d
00000380: 34ee 0c3c aa10 d5bd 4e7d 09be f03f 7b3d
00000390: d8b2 27bf d7b3 d9be ed84 f6be 66f2 9abe
000003a0: 9386 0bbf 8f85 88bf 2b38 dabf 7654 febf
000003b0: 0a57 eabf bb3c e2bf 0cf9 0ac0 4b66 38c0
000003c0: 16a5 4fc0 fd46 50c0 7096 13c0 a682 35bf
000003d0: ff88 263f 723f 8a3f 358e 1f3f 3650 f13c
000003e0: 96f1 35bf 8da9 dabd 255b bfbd 0c5b 9bbe
000003f0: 3156 87bd 26cc 94be ebe5 dfb8 408e 65be
-0.31862998 -0.17139131 -0.37571105 -0.33047643 -0.058524124 0.031629037 -0.21734446 -0.18272352
0.01937396 -0.09579508 0.012889055 -0.22900291 0.04375733 0.0505568 -0.17864352 -0.19584665
0.11198165 -0.28302732 -0.091484 -0.100986056 -0.17916918 -0.15520772 0.11351197 -0.17859393
-0.29988685 0.0483944 -0.24206893 -0.34904113 -0.017925825 -0.28526708 0.11401872 -0.12898669
-0.25868443 -0.21069004 0.026345836 0.12265842 -0.08272829 0.13140133 -0.31370714 -0.12973112
0.037747283 -0.37531313 0.10593418 -0.077113464 -0.072187245 -0.33770487 0.0002562686 -0.08915578
-0.1693483 -0.14050525 0.087712966 -0.09194956 0.026734909 -0.25353476 0.064199455 -0.13194598
-0.29087433 0.10269794 -0.15917088 -0.12961383 0.026739132 -0.16087486 -0.043350823 -0.3175768
-0.043651342 -0.03360174 0.052308053 -0.024944564 -0.18182366 -0.085597135 0.1003927 -0.05156355
-0.20830882 -0.15369342 0.07189359 -0.06757616 0.12983216 0.08944557 -0.107809186 -0.32962456
-0.13285074 0.01945943 0.11362138 -0.3459027 -0.12890317 0.033228885 -0.2735999 0.09512363
-0.2456439 0.16869795 -0.093664505 -0.33817148 -0.038172185 -0.030652622 -0.4069606 -1.6618521
-1.8847257 -2.201103 -0.057489596 0.0719313 -1.7694058 -2.1751945 -1.1771733 -0.03208182
-0.05791449 0.046593893 0.0022911965 0.08668786 0.013764188 -0.085901186 -0.17053476 0.014851121
-0.2572154 -0.25949427 -0.23709938 -0.050466657 -0.30649722 -0.22820185 -0.23811889 -0.57633275
-0.7661188 -1.1043888 -0.9140375 -1.6308067 -1.7607193 -1.8880215 -2.043649 -2.285178
-2.2776692 -2.7401457 -2.1799238 -1.8367511 -1.4804077 -0.7880012 -0.052513573 -0.2743765
0.036280807 -0.064833954 0.007441275 -0.30414233 -0.060562488 -0.2514319 0.109112054 0.057409804
-0.18065938 -0.22535911 -0.27294782 -0.39640394 -0.49517885 -0.58989316 -0.7662743 -0.89485323
-0.81735873 -1.1824532 -1.4890273 -1.9725187 -2.043405 -2.1132126 -1.8196375 -1.342466
-0.9767068 -0.9818557 -1.1913654 -0.3380164 -0.059012435 -0.05951238 0.12131536 -0.16024429
-0.2842821 0.08258403 -0.32847068 -0.042750843 -0.15243775 -0.19252008 -0.5628014 -0.14689343
-0.25579488 -0.3048814 -0.42655653 -0.5308949 -0.6461897 -0.96595734 -1.5265484 -2.142387
-2.5433152 -2.391937 -1.7617921 -0.88658696 -0.3221755 -0.32963496 -0.746182 -0.6445478
-0.60068005 -0.2436456 0.042280577 -0.3235259 -0.18259828 0.005916981 -0.006292523 0.09575808
-0.602311 -0.5763436 -0.4204483 -0.23790808 -0.2859379 -0.64021903 -0.9430536 -1.1737489
-1.2960663 -1.4181627 -1.9221361 -2.5704336 -2.928705 -2.8134732 -2.0387175 -0.77273214
0.2033403 0.6224881 0.15850568 -0.5676399 -0.12586533 -0.0724571 -0.00028188343 0.07480072
0.008601714 -0.10403569 -0.13426706 0.061340272 -0.6550727 -0.4252002 -0.4814829 -0.3026306
-0.5450222 -1.0665759 -1.7048391 -1.9869525 -1.8307812 -1.7674783 -2.1714506 -2.8812435
-3.244451 -3.2543328 -2.306057 -0.7090248 0.6505279 1.0800612 0.62326366 0.029457193
-0.71071756 -0.106768705 -0.09343556 -0.303429 -0.066082366 -0.29062003 -0.00010676294 -0.22417545
