trained_models/autoencoder.pt (torch, 107376 bytes, 6 tensors)

input_layer.weight f4 [16, 784]
0	0xbcdc4bcc	-0.026891612
1	0xbcbe5167	-0.023232175
2	0xbceea778	-0.02913259
3	0x3ad249b7	0.0016043697
4	0xbcfcd1d8	-0.03086178
5	0x3ca8686a	0.020557601
6	0x3cd6f85a	0.02624147
7	0x3c04d0f7	0.008106462
8	0xbb81282e	-0.0039415574
9	0xba769edc	-0.0009407827
10	0xbcbb9333	-0.022897338
11	0xbc353697	-0.0110603785
12	0xbbf04ba5	-0.0073332363
13	0xbb6fc181	-0.0036583843
14	0xba5c95d6	-0.0008414661
15	0xbc594f65	-0.013263558
16	0x3a1a056e	0.0005875443
17	0xbc8031e3	-0.015648788
18	0xbc8f405c	-0.017486744
19	0xbd0dd2c7	-0.03462484
20	0xbcc8d5bc	-0.024515979
21	0x3b2595a5	0.0025266197
22	0x3c59c513	0.013291615
23	0xbcc1f91a	-0.023678351
24	0x3ce1093a	0.02747022
25	0xbcfe8ae8	-0.031072095
26	0x3ca7e165	0.020493219
27	0x3c1a720e	0.009426607
28	0x3bad4f93	0.005289027
29	0x3cd37467	0.02581234
30	0xbb38b593	-0.0028184399
31	0x3b835d0a	0.004008894
32	0x3c59948a	0.013280043
33	0x39890882	0.00026137015
34	0x3ccfc601	0.02536297
35	0x3ca009ef	0.019535987
36	0xbd0ffc14	-0.03515251
37	0x3c39548f	0.011311664
38	0x3c8e1bd6	0.017347258
39	0x3bf8da78	0.007594403
40	0xbbe031af	-0.0068418602
41	0xbc98cb9d	-0.018651778
42	0xbcba1136	-0.022713285
43	0x3c635980	0.013876319
44	0xbb40aab1	-0.0029398615
45	0xbc93000e	-0.017944362
46	0xbcf5e4c8	-0.030016318
47	0x3d00693c	0.03135036
48	0x3c8765ce	0.016528036
49	0xbc1ebf72	-0.009689199
50	0x3ad65eeb	0.0016355192
51	0xbc5f91ee	-0.013645632
52	0x3d08fb37	0.033442702
53	0x3cbac755	0.022800127
54	0x3c0706d7	0.008241377
55	0xbabe1e93	-0.0014504961
56	0x3ce276fc	0.027644627
57	0xbd0045cf	-0.031316575
58	0xbc7eca85	-0.015551214
59	0xbb05beb7	-0.0020407864
60	0xbc9cb467	-0.019128991
61	0xbce0ffbe	-0.027465697
62	0xbcca2ed0	-0.024680525
63	0xbd0a5e7a	-0.033781506
64	0xbb677d50	-0.0035322495
65	0x370d89a8	8.4363055e-06
66	0x3c9b0ae8	0.018926099
67	0xbcfe4165	-0.031037042
68	0xbc205417	-0.009785674
69	0xba96be84	-0.001150087
70	0x3d0ae3cc	0.03390865
71	0xbcf7bb6f	-0.030240742
72	0xbc8cdcc4	-0.017195113
73	0xbccf8200	-0.025330544
74	0xbc446539	-0.011987024
75	0x3c92ffa8	0.017944172
76	0x3c214a67	0.009844399
77	0xbc4a12e6	-0.012333607
78	0x3d0123cd	0.031528283
79	0xbbd137ed	-0.0063848407
80	0x3d0d19b6	0.034448348
81	0x3b9e0b41	0.004823119
82	0xbcdb920e	-0.026803043
83	0x3c825e4e	0.015914109
84	0x3d07361b	0.033010583
85	0xbcffe663	-0.031237787
86	0xbc8306d5	-0.015994469
87	0xbcb27bc3	-0.02178753
88	0x3c5b8e21	0.013400585
89	0xbca62a5e	-0.020283874
90	0x3cd43b08	0.025907055
91	0xbbe4740d	-0.006971842
92	0xbc649d8a	-0.013953576
93	0xbc0c3bb4	-0.008559156
94	0xbd110fc2	-0.03541542
95	0x3ca8f149	0.020622866
96	0xbc891e3a	-0.016738046
97	0xbbc8bacf	-0.006125785
98	0xbce2b53d	-0.027674312
99	0xbcf188cb	-0.029484173
100	0xbc027a34	-0.007963706
101	0xbc38c322	-0.011276992
102	0x3d0126bb	0.031531077
103	0xbb497a6d	-0.0030743137
104	0x3d11d8b9	0.035607073
105	0x3ce4072a	0.027835447
106	0xbc555757	-0.013021312
107	0xbd10104a	-0.035171784
108	0x3bfbe705	0.007687452
109	0x3d094c1d	0.033519853
110	0xbc4c7965	-0.012480115
111	0xba0635b7	-0.00051196985
112	0x3c4fed37	0.012690834
113	0x3cff7308	0.03118278
114	0x3beb4f6e	0.0071810996
115	0x3c2255ca	0.009908149
116	0xbd055887	-0.03255513
117	0xbcbaf68b	-0.022822639
118	0x3b188e0d	0.0023278028
119	0xbc64ccbc	-0.013964828
120	0xbb572ccb	-0.0032833095
121	0x3cb3e400	0.021959305
122	0xbd0db8f6	-0.03460022
123	0xbb5504de	-0.0032504122
124	0xbcd8ebd0	-0.026479632
125	0xbce213b8	-0.027597293
126	0x3cea5c7f	0.028608559
127	0x3ced314d	0.028954173
128	0xbab809e0	-0.0014041029
129	0xbbe75a85	-0.0070603513
130	0x3c667972	0.014067041
131	0x3c07e699	0.008294725
132	0xbcb0fcad	-0.02160486
133	0xbb7f8d9d	-0.003899432
134	0x3cee129e	0.029061612
135	0xbbaea4f5	-0.005329723
136	0xbc052302	-0.008126022
137	0xbca9d9e0	-0.020733774
138	0x3c0bc15a	0.008529985
139	0x3bea9b13	0.0071595996
140	0xba3da6dc	-0.0007234642
141	0xbc90ed15	-0.017691175
142	0x3cd90dce	0.02649584
143	0x3c1faaa6	0.009745276
144	0x3d09ae83	0.033613693
145	0x3c12d471	0.008961783
146	0xbc268401	-0.010163308
147	0x3bc0aed7	0.0058802175
148	0xbcae7945	-0.02129806
149	0xbd0ae676	-0.03391119
150	0xba9b4c30	-0.0011848267
151	0x3cf936e5	0.030421684
152	0xbd013e2f	-0.031553444
153	0x3cc477ed	0.023982966
154	0xbc67528e	-0.014118804
155	0x3cf34eda	0.029700685
156	0x3d077bce	0.033077054
157	0x3cc9762f	0.024592487
158	0xbbb11bcc	-0.005404925
159	0xbd094e09	-0.033521686
160	0xbc0469a9	-0.008081832
161	0xbab79195	-0.0014005179
162	0xbcd31cf5	-0.025770644
163	0xbbae9a50	-0.005328454
164	0xbcd60bf1	-0.026128741
165	0xbcc98f68	-0.024604514
166	0xbcb14c0c	-0.021642707
167	0xbcdaec33	-0.026723957
168	0xbc0368f7	-0.008020631
169	0xbcf42a35	-0.029805282
170	0xbcc4f683	-0.024043327
171	0xbbf3843a	-0.007431534
172	0xbd017eee	-0.03161519
173	0xbcff99f1	-0.031201335
174	0xbb2fdf04	-0.0026835809
175	0xbb8e2500	-0.004337907
176	0x3cbb0754	0.022830643
177	0xbca92a49	-0.020650046
178	0x3d12df24	0.035857335
179	0xbcf9926d	-0.030465329
180	0xbce53a94	-0.027982034
181	0x3b7de255	0.003873964
182	0xb960c5bb	-0.00021435965
183	0x3c20313c	0.009777363
184	0x3c57e6db	0.013177599
185	0xbc323bbd	-0.0108785005
186	0x3c0ce611	0.008599774
187	0xbcdeacc3	-0.027181989
188	0x3b288d0a	0.0025718831
189	0xbcb3544c	-0.021890782
190	0x3cf5715d	0.029961282
191	0x3ba9f031	0.0051861038
192	0x3b970ce0	0.004609689
193	0x3ca35e83	0.019942528
194	0xbccee75e	-0.025256809
195	0x3c159165	0.009128903
196	0x3c9a2970	0.018818587
197	0xbb9e3c5b	-0.0048289723
198	0x3c849f6b	0.016189298
199	0xbcda286c	-0.026630603
200	0x3cbd2626	0.02308948
201	0xbc790d32	-0.0152009
202	0x3bd1fe0e	0.0064084595
203	0x3ccca1a7	0.024979426
204	0xbc474edd	-0.012164799
205	0x3cf0b245	0.02938188
206	0x3c06245d	0.008187381
207	0xbcfeb160	-0.031090438
208	0xbc2fab51	-0.010721997
209	0x3d119a82	0.03554774
210	0x3c4309d2	0.011904197
211	0x3a32dd16	0.00068231055
212	0x3c56d20b	0.013111602
213	0x3c4ceec3	0.012508097
214	0x3c88a21d	0.016678864
215	0x3c9d100b	0.019172689
216	0x3ca771fe	0.020440098
217	0xbcb9acfc	-0.022665493
218	0x3847e99f	4.7662874e-05
219	0x3c989a03	0.018628126
220	0xbd01e8c6	-0.03171613
221	0x3d0d2e2e	0.03446787
222	0x3ce4d96d	0.027935708
223	0x3d099020	0.033584714
224	0x3c27c28d	0.010239256
225	0xbbc04d49	-0.005868588
226	0x3d062235	0.032747466
227	0xbc6fd47f	-0.014638065
228	0x3bebe38b	0.007198756
229	0xbccfc9c5	-0.025364766
230	0xbbd7f0b6	-0.0065899743
231	0xbbd86a97	-0.0066045034
232	0x3cea5978	0.028607115
233	0xbd084137	-0.03326532
234	0xbd0dd4bc	-0.034626707
235	0x3cf4cf51	0.029884012
236	0x3c3ed147	0.011646575
237	0xb9aacb32	-0.0003257632
238	0x3b9ef0ad	0.004850468
239	0x3cd872b1	0.026421877
240	0xbc4f000c	-0.0126342885
241	0x3cac5b37	0.021039588
242	0xbc6a94bf	-0.01431769
243	0xbcdb5719	-0.02677493
244	0x3cd94a0b	0.026524564
245	0xbc89cbda	-0.016820837
246	0x3cd43f41	0.025909068
247	0x3a738cf0	0.00092907157
248	0xbc4ccce5	-0.012500023
249	0x3c5ef794	0.013608832
250	0x3ce70b2c	0.02820357
251	0xbce986d5	-0.028506676
252	0x3bb0c320	0.0053943545
253	0xbce4ed3d	-0.027945155
254	0x3c8b3f88	0.016998067
255	0x3c587ca0	0.013213307

input_layer.bias f4 [16]
0	0x3f1ac846	0.60461843
1	0x3ef847b2	0.484922
2	0x3f03ed63	0.515341
3	0x3efa4bf8	0.48886085
4	0x3edad905	0.42743698
5	0x3eb4949f	0.3526964
6	0x3ee7a3ff	0.45242307
7	0x3ef85436	0.48501748
8	0x3f2b6985	0.66957885
9	0x3e926d4d	0.28599015
10	0x3f18685b	0.59534234
11	0x3eedadb5	0.4642159
12	0x3ed273e9	0.41104057
13	0x3ed811c6	0.4220106
14	0x3ea5e590	0.32401705
15	0x3f07481f	0.52844423

central_layer.weight f4 [16, 16]
0	0x3f131b01	0.5746308
1	0x3eba8582	0.36429983
2	0x3ef931e4	0.48670876
3	0x3eda2ff5	0.42614713
4	0x3f164a7b	0.587074
5	0x3dd19a90	0.102345586
6	0x3e9614d6	0.29312772
7	0x3e0922c5	0.1339217
8	0x3eb3c801	0.35113528
9	0x3f1062cc	0.5640075
10	0x3ed4779f	0.41497514
11	0x3f17ef73	0.59349746
12	0x3e2adf65	0.16686781
13	0x3ea0646a	0.3132661
14	0x3ed9c9f4	0.4253689
15	0x3e83303c	0.25622737
16	0x3eeda8aa	0.46417743
17	0x3f066929	0.5250421
18	0x3eafb7d2	0.3431993
19	0x3e861a75	0.2619206
20	0x3efd715f	0.49500558
21	0x3f0acbe0	0.5421734
22	0x3ed68cb7	0.41904232
23	0x3f076fff	0.5290527
24	0x3ec61bb1	0.38693002
25	0x3e3870ec	0.18011826
26	0x3eb94a6c	0.36189592
27	0x3e12c731	0.14333798
28	0x3f03e3ba	0.5151936
29	0x3f075b53	0.52873725
30	0x3eb55c21	0.3542185
31	0x3f0248be	0.50892246
32	0x3e34b232	0.17646101
33	0x3efe4d9c	0.49668586
34	0x3e9ed1ff	0.3101959
35	0x3e2d1eca	0.16906276
36	0x3e2e7743	0.17037682
37	0x3f0302d8	0.51176214
38	0x3e67c4c7	0.22633658
39	0x3f0ac7b3	0.54210967
40	0x3f14d737	0.5814089
41	0x3e0ab74f	0.13546489
42	0x3f0b0982	0.5431138
43	0x3ee81b19	0.45333174
44	0x3ea78ce6	0.32724684
45	0x3f00b215	0.5027173
46	0x3efd6087	0.49487707
47	0x3e6a4750	0.22878766
48	0x3ed259ed	0.41084233
49	0x3df7b31c	0.12094709
50	0x3daba8eb	0.08381828
51	0x3f0c2c9e	0.5475558
52	0x3e99f208	0.30067468
53	0x3e18cc5d	0.14921708
54	0x3f0f7c2d	0.5604885
55	0x3ece8b48	0.40340638
56	0x3e836789	0.2566493
57	0x3ea63299	0.32460478
58	0x3f076331	0.5288573
59	0x3eeb3fff	0.45947263
60	0x3e8f2d62	0.27964312
61	0x3ef4a026	0.47778434
62	0x3d8814b5	0.066445746
63	0x3e93e399	0.2888458
64	0x3f1ccde4	0.61251664
65	0x3e5cf39c	0.21577305
66	0x3e8adfdc	0.27123916
67	0x3f079303	0.529587
68	0x3e954e54	0.29161322
69	0x3eeb0870	0.45904875
70	0x3f19e801	0.60119635
71	0x3e299dc2	0.16564086
72	0x3e85fdea	0.26170284
73	0x3ee7d389	0.45278576
74	0x3f18170b	0.5941016
75	0x3e5594a1	0.20857479
76	0x3eba01a8	0.3632939
77	0x3e6cd3e8	0.23127711
78	0x3f14a9d5	0.58071643
79	0x3ec0f8fd	0.37689963
80	0x3edc1a7f	0.42988965
81	0x3ec2a5c5	0.38017097
82	0x3f1c3e2f	0.61032385
83	0x3ed1682b	0.40899786
84	0x3ee21e3b	0.4416369
85	0x3eb96362	0.36208636
86	0x3ea27e76	0.31737107
87	0x3eaf262a	0.34208804
88	0x3f1843a8	0.59478235
89	0x3e20fa69	0.15720524
90	0x3efe6764	0.49688256
91	0x3e8dca29	0.27693298
92	0x3e8431d9	0.2581928
93	0x3e2c17a6	0.16805896
94	0x3e8495a6	0.25895423
95	0x3eb497f2	0.35272175
96	0x3f147621	0.5799275
97	0x3e7dca2c	0.24784154
98	0x3f11a187	0.56887096
99	0x3eb79cc6	0.35861796
100	0x3ea0beeb	0.3139566
101	0x3e582223	0.21106772
102	0x3e73196b	0.23740165
103	0x3f046e82	0.5173112
104	0x3edbf98a	0.4296382
105	0x3eea0996	0.45710438
106	0x3e7a9c95	0.24473794
107	0x3ea17216	0.31532353
108	0x3e30d163	0.17267375
109	0x3def6ae2	0.11690308
110	0x3ec41c10	0.3830266
111	0x3ef82c88	0.48471475
112	0x3ee541d8	0.44776797
113	0x3f104dc9	0.5636869
114	0x3e9f31d9	0.31092718
115	0x3e449376	0.19196877
116	0x3e55b9f7	0.20871721
117	0x3f09218b	0.5356681
118	0x3eb8566e	0.3600344
119	0x3ed89e99	0.423085
120	0x3f0a92f6	0.54130495
121	0x3e660e62	0.22466424
122	0x3e6736c4	0.22579485
123	0x3eef1af5	0.46700254
124	0x3eb79f4e	0.35863727
125	0x3e961bf8	0.29318213
126	0x3ef8adce	0.48570102
127	0x3f0175ee	0.5057057
128	0x3eb8e2a4	0.36110413
129	0x3e8cb2e2	0.27480227
130	0x3f14b7dd	0.58093053
131	0x3eb81c8d	0.35959283
132	0x3f099258	0.5373893
133	0x3eef2f04	0.46715558
134	0x3e4cc208	0.19995892
135	0x3e84e6e0	0.25957394
136	0x3f09fecb	0.5390441
137	0x3ecb2c91	0.3968244
138	0x3e890f04	0.2676927
139	0x3f01a3e2	0.5064069
140	0x3e97cc5c	0.296481
141	0x3e55537f	0.20832632
142	0x3e674b18	0.2258724
143	0x3ef1d153	0.47230014
144	0x3ea51494	0.32242262
145	0x3eea2219	0.4572914
146	0x3ef536d0	0.4789338
147	0x3e87127e	0.26381296
148	0x3f03cefd	0.51487714
149	0x3e1049c0	0.14090633
150	0x3e640fe3	0.22271685
151	0x3f011a8a	0.5043112
152	0x3f191217	0.5979323
153	0x3e3ca017	0.18420444
154	0x3e588795	0.2114547
155	0x3eab18a1	0.33417228
156	0x3f0bde8d	0.5463646
157	0x3eaf3a76	0.3422429
158	0x3e870b73	0.26375923
159	0x3e4f3cad	0.2023799
160	0x3e5c5db1	0.21520115
161	0x3e6f31af	0.23358797
162	0x3f1c248d	0.6099327
163	0x3f0019be	0.5003928
164	0x3e798719	0.24367942
165	0x3e02d082	0.12774852
166	0x3f0f1134	0.55885625
167	0x3e67841e	0.22608992
168	0x3ebad915	0.36493745
169	0x3e170267	0.1474701
170	0x3ee19016	0.4405524
171	0x3e85efa6	0.261594
172	0x3ed04aa0	0.40681934
173	0x3eca7bf4	0.39547694
174	0x3e1dc5ea	0.1540753
175	0x3f15e60e	0.5855416
176	0x3f1a9f01	0.6039887
177	0x3e6d22f2	0.23157862
178	0x3e55bd1e	0.20872924
179	0x3f0b942f	0.54522985
180	0x3e872143	0.26392564
181	0x3f1562b8	0.5835376
182	0x3ea4b8d1	0.32172254
183	0x3e9926e8	0.29912496
184	0x3f163dd8	0.58688116
185	0x3e920593	0.28519878
186	0x3ec44423	0.38333234
187	0x3efaf259	0.49013022
188	0x3ef77b3e	0.48336214
189	0x3f13e290	0.5776758
190	0x3eb03151	0.34412625
191	0x3f086ff3	0.5329582
192	0x3ef38e73	0.47569618
193	0x3ef4006d	0.47656575
194	0x3eaec7ec	0.34136903
195	0x3f1c7b73	0.6112587
196	0x3e8b0ee9	0.27159813
197	0x3efd5ba6	0.49483985
198	0x3f00cd88	0.50313616
199	0x3ec4512d	0.38343182
200	0x3f0fc8dc	0.5616586
201	0x3dedcafb	0.11610981
202	0x3f153c80	0.5829544
203	0x3f007c2a	0.5018946
204	0x3ed61152	0.4181009
205	0x3e91304e	0.28357166
206	0x3e5735f4	0.21016675
207	0x3ee004ad	0.43753567
208	0x3edbac95	0.42905107
209	0x3eaf439f	0.34231278
210	0x3efd5985	0.4948236
211	0x3e04094b	0.1289417
212	0x3e5d07b2	0.21584967
213	0x3e294c7b	0.16533081
214	0x3e82660c	0.2546848
215	0x3f05820b	0.52151555
216	0x3ec97de5	0.39353862
217	0x3e593ac5	0.21213825
218	0x3e896d06	0.2684099
219	0x3e5a3e44	0.21312815
220	0x3e5482ff	0.20753096
221	0x3e0a70c7	0.13519584
222	0x3e5a8c34	0.21342546
223	0x3e2bc67f	0.16774939
224	0x3e8d43b6	0.27590722
225	0x3efe3f46	0.4965765
226	0x3e5a427d	0.21314426
227	0x3edd0d1a	0.43174058
228	0x3ef359e5	0.47529522
229	0x3e2ff828	0.17184508
230	0x3f0673f7	0.525207
231	0x3f04e2ee	0.5190877
232	0x3ec42456	0.38308972
233	0x3f138be9	0.5763536
234	0x3f123eef	0.5712728
235	0x3ec0e7d8	0.37676883
236	0x3f062e8c	0.52414775
237	0x3ea9501b	0.33068928
238	0x3e257644	0.16158396
239	0x3e661288	0.22468007
240	0x3ec01273	0.37514076
241	0x3f03f879	0.51551014
242	0x3eb4a050	0.3527856
243	0x3e601d98	0.21886289
244	0x3eb2faf4	0.34957087
245	0x3e58b5ad	0.21163054
246	0x3e86320e	0.26210064
247	0x3e3b8d24	0.1831556
248	0x3eb77040	0.35827827
249	0x3e2b3379	0.16718854
250	0x3f15f1f9	0.58572346
251	0x3ec36aad	0.38167325
252	0x3e5bba74	0.21457845
253	0x3f215b9d	0.63030416
254	0x3e5fe5f4	0.21865064
255	0x3f282502	0.6568147

central_layer.bias f4 [16]
0	0x3f22b6aa	0.63559973
1	0x3f17e400	0.59332275
2	0x3f60b26e	0.8777226
3	0x3f36c715	0.71397525
4	0x3ef67a16	0.4814002
5	0x3f258500	0.64656067
6	0x3f4dcea8	0.8039346
7	0x3f476cb2	0.7790023
8	0x3f3727bd	0.7154501
9	0x3f340fd2	0.7033664
10	0x3f1ec283	0.6201555
11	0x3f1f08b9	0.62122685
12	0x3f02e133	0.51124877
13	0x3f625a7f	0.88419336
14	0x3f0fa777	0.56114906
15	0x3f3ae7ac	0.73009753

output_layer.weight f4 [784, 16]
0	0xbe019c98	-0.12657392
1	0xbecf3a16	-0.40474004
2	0xbe1af498	-0.15132368
3	0xbe9fc7ad	-0.31207028
4	0xbd21cf8a	-0.039504565
5	0xbcd82f0a	-0.026389617
6	0xbdbc2ba6	-0.09188013
7	0xbdf86dcc	-0.12130317
8	0x3c617d7f	0.013762831
9	0xbd465ad1	-0.048426453
10	0xbeaef4c6	-0.34171122
11	0xbedb4fd6	-0.42834347
12	0xbee70de1	-0.45127776
13	0x3da89ac3	0.082326435
14	0xbda98785	-0.082778014
15	0xbd64e60e	-0.05588346
16	0xbe2cf611	-0.16890742
17	0xbe2987b3	-0.16555671
18	0xbe814c62	-0.25253588
19	0xbea89b02	-0.32930762
20	0xbe2c0cf8	-0.16801822
21	0xbe9ac7b9	-0.302305
22	0xbe771f9d	-0.24133153
23	0xbec3e7dd	-0.38262835
24	0xbd014076	-0.031555615
25	0x3dcb2bfb	0.09920498
26	0xbe1fb19f	-0.15595101
27	0xbe83df87	-0.25756475
28	0xbafba426	-0.00191987
29	0xbe16cca1	-0.14726497
30	0x3c934cc8	0.017980948
31	0xbe2b9874	-0.16757375
32	0xbe2fcd73	-0.17168216
33	0xbe3ebc28	-0.18626463
34	0xbecb22be	-0.39674944
35	0xbd9fefea	-0.07809432
36	0xbe802692	-0.25029427
37	0xbb19be61	-0.0023459422
38	0xbecdc4b4	-0.40189135
39	0xbeb60fba	-0.35558873
40	0xbe04aa4a	-0.12955585
41	0xbd9d8622	-0.076915994
42	0xbcfbbab9	-0.030728685
43	0xbe40277d	-0.18765064
44	0xbe827bb8	-0.25485015
45	0xbe9d68aa	-0.30743915
46	0x3d8dc431	0.06922186
47	0xbd25c792	-0.04047353
48	0xbe790357	-0.2431768
49	0xbec61257	-0.38685867
50	0x3dada686	0.084790275
51	0xbdded82e	-0.10881077
52	0xbd569d13	-0.05239589
53	0xbeb4088b	-0.35162768
54	0xbe685030	-0.22686839
55	0xbd8133e7	-0.06308728
56	0xbe591df0	-0.21202826
57	0xbdf720dc	-0.12066814
58	0xbe995f79	-0.29955652
59	0xbe38ded5	-0.18053754
60	0xbea91f16	-0.3303153
61	0x3dd7364b	0.105084024
62	0xbe85dca4	-0.26144898
63	0x3d9f5e95	0.07781712
64	0xbea6b479	-0.32559565
65	0xbeb54da2	-0.35410792
66	0xbe325304	-0.1741448
67	0xbe27600e	-0.16345236
68	0xbe952780	-0.291317
69	0xbdff44b6	-0.124642774
70	0xbd8b7e07	-0.06811147
71	0xbedd90ee	-0.43274635
72	0xbe7a0f7b	-0.24419968
73	0x3d95b681	0.073102005
74	0xbe4a1bf8	-0.19737232
75	0x3cf6ce96	0.030127805
76	0x3cbc81b9	0.023011075
77	0xbdf40a3a	-0.11916013
78	0xbd5d130f	-0.053973254
79	0xbe041e13	-0.12902097
80	0xbe792749	-0.24331392
81	0xbe2a8ebf	-0.16656016
82	0x3c18bbaa	0.009322086
83	0x3b85429e	0.0040667793
84	0xbe9bb755	-0.3041331
85	0x3d6e6d93	0.058209967
86	0xbc4a1e63	-0.012336346
87	0xbe89e232	-0.26930386
88	0xbecbc09b	-0.39795384
89	0xbda1de41	-0.0790372
90	0xbd33d318	-0.043902487
91	0xbe8bc504	-0.27298748
92	0xbe1083e5	-0.14112814
93	0xbea15f9e	-0.31518263
94	0x3c9568d9	0.018238472
95	0xbe66bbbc	-0.22532552
96	0x3d5bb436	0.05363866
97	0xbdf68880	-0.12037754
98	0xbecc06c8	-0.39848924
99	0xbe22eb2f	-0.15910028
100	0xbeb7bbea	-0.35885555
101	0xbdd5515a	-0.10415907
102	0xbd7c5fd2	-0.06161482
103	0xbe8be118	-0.2732017
104	0xbe3d90e4	-0.18512303
105	0xbe1cf36e	-0.15327236
106	0xbeb60793	-0.35552654
107	0xbe22bfa5	-0.15893419
108	0xbde5feff	-0.11230277
109	0xbe494c0b	-0.19657914
110	0xbc2111ac	-0.009830873
111	0xbe42c187	-0.19019137
112	0xbea2d3f8	-0.31802344
113	0xbd22edff	-0.039777752
114	0xbe09b349	-0.13447298
115	0xbe9846a2	-0.2974139
116	0xbea0ff0f	-0.31444594
117	0x3d749d31	0.059720222
118	0xbe16e747	-0.14736663
119	0xbe9d98fe	-0.30780786
120	0x3caa9dc1	0.020827176
121	0xbe8d86c4	-0.2764188
122	0xbca4c715	-0.020114461
123	0xbe971c8a	-0.2951396
124	0xbea41487	-0.3204691
125	0xbcda97d0	-0.026683718
126	0xbe65528a	-0.22394767
127	0xbe16c175	-0.14722236
128	0xbe2483da	-0.16065922
129	0xbb9dd1b3	-0.004816258
130	0x3d86208f	0.06549179
131	0x3cdaf578	0.026728377
132	0xbe8bc696	-0.27299947
133	0xbde0af5b	-0.109709464
134	0xbeb44707	-0.3521044
135	0xbd93bb7b	-0.072134934
136	0xbeac105d	-0.33606234
137	0xbea0a441	-0.31375316
138	0xbe10c84b	-0.14138906
139	0xbebf7e6d	-0.37401143
140	0xbd9cce66	-0.07656555
141	0xbd008cba	-0.031384207
142	0xbe9602c2	-0.2929898
143	0xbeb39c99	-0.35080412
144	0xbd89b11b	-0.06723233
145	0xbdb5841e	-0.0886309
146	0xbe1220fc	-0.14270395
147	0xbd783e91	-0.060606543
148	0xbea02871	-0.31280854
149	0xbdf3aa65	-0.118977346
150	0xbea8c934	-0.32966006
151	0xbe5e15ab	-0.21687953
152	0xbbf5cd44	-0.007501276
153	0xbeaa984b	-0.33319315
154	0xbeaae3e2	-0.33376986
155	0x3d37dcc8	0.044888288
156	0xbde59bb7	-0.11211341
157	0x3cbd964d	0.023142958
158	0xbea831f0	-0.328506
159	0xbe45d3e9	-0.19319119
160	0xbddb67bc	-0.10713145
161	0xbe8b7980	-0.27241135
162	0xbab89bd5	-0.0014084528
163	0xbdc45072	-0.09585656
164	0xbe5cc5ff	-0.21559905
165	0xbd4d6df7	-0.0501537
166	0x3cdec66e	0.027194228
167	0xbecfddd0	-0.40598917
168	0xbec049c2	-0.37556273
169	0xbeadab8c	-0.33919942
170	0xbea0e62e	-0.31425613
171	0xbe3f095d	-0.18655916
172	0xbe17049a	-0.14747849
173	0x3a8ca6af	0.0010730828
174	0xbe4d3e69	-0.20043339
175	0xbcc01c10	-0.023450881
176	0xbe6cd265	-0.23127134
177	0xbdfc0bbd	-0.123069264
178	0xbec1482e	-0.3775038
179	0xbe2c6428	-0.16835082
180	0xbe367aff	-0.17820357
181	0x3d0b3f33	0.03399582
182	0xbde2ae4d	-0.110684015
183	0xbcee7e4c	-0.029112957
184	0x3cb1a230	0.021683782
185	0xbed2c3ff	-0.41165158
186	0xbe0fd938	-0.14047706
187	0xbe0ba0f6	-0.1363562
188	0xbee7b524	-0.45255387
189	0xbebd8bd4	-0.37020743
190	0x3d2b020c	0.04175
191	0xbdef9d7d	-0.116999604
192	0xbc5693cc	-0.013096761
193	0xbea4c14c	-0.32178724
194	0xbea40957	-0.32038376
195	0xbe4da804	-0.20083624
196	0xbe2c4068	-0.16821444
197	0x3d18f8db	0.037346702
198	0x3d75895b	0.059945446
199	0xbe1c9e2b	-0.15294711
200	0xbe4ecabe	-0.20194528
201	0xbd9f5e2d	-0.077816345
202	0xbe8a17b5	-0.26971212
203	0xbe80c72a	-0.2515195
204	0xbe6b8486	-0.22999772
205	0x3c9570ab	0.0182422
206	0xbdeb07e2	-0.11476113
207	0xbe3155bc	-0.17317861
208	0x3d4fb0ee	0.050705843
209	0xbeb0bc12	-0.34518486
210	0xbdb7680d	-0.08955393
211	0x3cd5f031	0.026115509
212	0xbe525367	-0.20539628
213	0x3d30d674	0.04317327
214	0xbed7c58d	-0.42142907
215	0xbe3d8d00	-0.18510818
216	0xbea5c235	-0.3237473
217	0xbc8d4832	-0.01724634
218	0xbd5e2659	-0.05423579
219	0xbcd2371d	-0.025661046
220	0xbead7353	-0.33877048
221	0xbe9dab00	-0.30794525
222	0xbe9dd038	-0.3082292
223	0xbe26c91d	-0.16287656
224	0xbeafe9a8	-0.34357953
225	0xbd655578	-0.055989712
226	0xbd8dad18	-0.06917781
227	0xbd4ed67a	-0.05049751
228	0xbdad6fba	-0.08468576
229	0xbe856a0f	-0.2605748
230	0xbd94e5de	-0.07270406
231	0xbeb4c420	-0.35305882
232	0xbe3d4095	-0.18481667
233	0xbecfa7d6	-0.40557736
234	0x3cebdcf2	0.028791878
235	0xbb9f26a3	-0.004856901
236	0xbe810c4d	-0.25204697
237	0xbe84245f	-0.25809
238	0xbe24cd96	-0.1609405
239	0xbc6b3e28	-0.014358081
240	0xbec07243	-0.37587175
241	0xbdd1da31	-0.10246695
242	0xbe81110c	-0.25208318
243	0xbe101a9a	-0.14072648
244	0xbe665708	-0.22494137
245	0xbe468fa4	-0.19390732
246	0xbd777927	-0.060418274
247	0xbe39afbf	-0.18133448
248	0xbdca518e	-0.098788366
249	0xbd50dd82	-0.050992496
250	0xbe4242b9	-0.18970765
251	0xbd07f4fe	-0.033192627
252	0xbe24faeb	-0.16111343
253	0xbe5f9f29	-0.21838059
254	0xbc91f4ff	-0.017817019
255	0xbd9cc6c0	-0.07655096

output_layer.bias f4 [784]
0	0xbe211213	-0.15729551
1	0xbe96929c	-0.2940873
2	0xbd880cf9	-0.06643099
3	0xbea6f0da	-0.3260563
4	0xbe91444e	-0.28372425
5	0xbed6d202	-0.41957098
6	0xbd348315	-0.044070322
7	0xbe9a5233	-0.30140838
8	0xbe44a7e2	-0.19204667
9	0xbec247b9	-0.37945345
10	0xbdafc832	-0.08583106
11	0xbdc0b178	-0.094088495
12	0xbedc1e82	-0.42992026
13	0xbe2cb399	-0.16865386
14	0xbe842bfb	-0.25814804
15	0xbe9c059e	-0.30473036
16	0xbe1dea92	-0.15421513
17	0xbe3b978d	-0.18319531
18	0x3af2d79a	0.0018527389
19	0xbeae4c77	-0.34042713
20	0xbdd08203	-0.10181048
21	0xbe533219	-0.2062458
22	0xbee633f5	-0.44961515
23	0xbe6fa0e3	-0.23401217
24	0xbe88e037	-0.26733562
25	0xbdb7d5de	-0.08976339
26	0xbe781785	-0.24227722
27	0xbe8e419c	-0.2778443
28	0xbe2ecfcf	-0.1707146
29	0xbeb5c3aa	-0.35500842
30	0xbe654eaf	-0.22393297
31	0xbdc92aad	-0.09822593
32	0x3c8c7be1	0.017148914
33	0xbe2a804d	-0.16650505
34	0xbedaea20	-0.42756748
35	0xbec1df97	-0.37865898
36	0xbe588926	-0.21146068
37	0xbdd0bc04	-0.10192111
38	0xbeb20686	-0.34770602
39	0xbed499fe	-0.41523737
40	0xbd144f99	-0.036208723
41	0xbe8bb242	-0.27284437
42	0xbe4ef767	-0.20211564
43	0xbeadfb79	-0.3398092
44	0xbed00ee2	-0.40636355
45	0xbe133c5b	-0.14378493
46	0xbea0a1d4	-0.31373465
47	0xbe647cb7	-0.223132
48	0xbe450d92	-0.19243458
49	0xbc88d902	-0.01670504
50	0xbea406a2	-0.3203631
51	0xbed185d1	-0.40922406
52	0xbda20aff	-0.079122536
53	0xbe812f17	-0.2523124
54	0xbd1502b7	-0.036379542
55	0xbd25c144	-0.040467516
56	0xbec5396d	-0.38520375
57	0xbe3140b4	-0.17309839
58	0xbee57617	-0.44816658
59	0xbeb475e3	-0.3524619
60	0xbe44189c	-0.19150013
61	0xbe3a06aa	-0.18166605
62	0xbe5fda60	-0.21860647
63	0xbedd6690	-0.4324231
64	0xbc3b2b6b	-0.011423926
65	0xbd61c95d	-0.055123676
66	0xbeb5be14	-0.3549658
67	0xbea8687c	-0.32892215
68	0xbe2e0fda	-0.16998234
69	0xbe889b38	-0.26680923
70	0xbeb47f46	-0.35253352
71	0xbd8ef91b	-0.06981107
72	0xbe486185	-0.19568451
73	0xba82edbb	-0.0009989062
74	0xbec6e8cd	-0.38849488
75	0x3d8904fa	0.06690402
76	0x3c6c5236	0.0144238975
77	0xbeb83b08	-0.35982537
78	0xbdd4ac58	-0.103844345
79	0xbd1ff3d5	-0.039050896
80	0xbe309136	-0.17242894
81	0xbe663765	-0.22482069
82	0xbea7dd65	-0.32786098
83	0xbe2f112c	-0.17096394
84	0xbde3ac74	-0.11116877
85	0x3d658bb1	0.056041423
86	0xbe239311	-0.1597407
87	0xbe41be38	-0.18920219
88	0xbee367b2	-0.4441505
89	0xbed6a990	-0.4192624
90	0xbed23483	-0.41055688
91	0xbc0c9115	-0.008579512
92	0xbeef6205	-0.4675447
93	0xbdc45ef3	-0.095884226
94	0xbebd11f6	-0.36927766
95	0xbe232275	-0.15931113
96	0xbe833030	-0.25622702
97	0xbe208edb	-0.15679495
98	0xbe7fc836	-0.24978718
99	0xbe2889fd	-0.16458888
100	0xbe664c98	-0.22490156
101	0xbeab2fb1	-0.33434823
102	0xbdd5235f	-0.10407137
103	0xbeb16033	-0.34643707
104	0xbe29b41c	-0.16572613
105	0xbeb6b623	-0.35685834
106	0xbea6aeaa	-0.32555133
107	0xbd9721ff	-0.07379531
108	0xbb8ab4d5	-0.0042329826
109	0xbc231c65	-0.0099555
110	0xbd436c25	-0.047710557
111	0xbdc02fe6	-0.09384136
112	0xbe75066a	-0.23928228
113	0xbd35de19	-0.044401262
114	0xbe529fe0	-0.205688
115	0xbdbbeb64	-0.091757566
116	0xbec21f1e	-0.37914366
117	0xbe156b7c	-0.14591783
118	0xbd12bdd4	-0.035825565
119	0xbe8fd853	-0.2809473
120	0xbef0f71e	-0.47063535
121	0xbd91c90c	-0.07118425
122	0xbceb0556	-0.028689068
123	0xbec532ea	-0.38515407
124	0xbd9b03e5	-0.07569102
125	0xbe817b4a	-0.25289375
126	0xbe3d6951	-0.18497206
127	0xbebb6ce9	-0.3660653
128	0xbd37eb0a	-0.044901885
129	0xbe1a89f7	-0.15091692
130	0xbec93297	-0.3929641
131	0xbca3d2bc	-0.019997947
132	0xbeb89356	-0.36049908
133	0xbed24a79	-0.41072443
134	0xbe1db1d9	-0.15399875
135	0xbe21ca3c	-0.15799803
136	0xbeee1e20	-0.4650736
137	0x3c1d9a76	0.009619346
138	0xbe52adde	-0.20574138
139	0xbe50a594	-0.20375663
140	0xbeda667f	-0.42656323
141	0xbde8fc58	-0.11376256
142	0xbea68bff	-0.32528684
143	0xbe2d4daf	-0.16924165
144	0xbe32b317	-0.1745113
145	0xbed8cdd5	-0.42344537
146	0xbe001cee	-0.12511036
147	0xbd39390d	-0.045220423
148	0xbc5edfa2	-0.013603123
149	0xbe876d40	-0.2645054
150	0xbe8125f2	-0.25224262
151	0xbecb1701	-0.39665988
152	0xbd32f131	-0.04368705
153	0x3c1e7275	0.009670843
154	0xbca607a1	-0.02026731
155	0xbe45f438	-0.19331443
156	0xbe1c8772	-0.15286043
157	0x3c512692	0.012765544
158	0xbc1ada38	-0.0094514415
159	0xbe2ce48e	-0.16884062
160	0xbed9f285	-0.4256784
161	0x3d0dfe95	0.034666616
162	0xbe54ff4e	-0.20800516
163	0xbe3e3e48	-0.18578446
164	0xbce456c3	-0.027873402
165	0xbebf056c	-0.37308824
166	0xbea0ddbd	-0.31419173
167	0xbdaddd6c	-0.084894985
168	0xbe7eee0a	-0.24895492
169	0xbe9d6486	-0.30740756
170	0xbd78117d	-0.060563553
171	0xbed43799	-0.41448668
172	0xbe4d1f8b	-0.20031564
173	0xbef7895e	-0.4834699
174	0xbdeea524	-0.11652592
175	0xbe77bf41	-0.24194051
176	0xbdb313b8	-0.087439954
177	0xbeaa47dd	-0.33257952
178	0xbebfd6a7	-0.37468454
179	0xbe625e92	-0.22106388
180	0xbdd8f817	-0.105941944
181	0xbe076f3d	-0.13226028
182	0xbe866256	-0.262469
183	0xbda1e4b2	-0.07904948
184	0xbe0722c3	-0.13196854
185	0xbe2ab409	-0.1667024
186	0x3c1570ac	0.009121101
187	0xbe66b362	-0.22529367
188	0xbeb21d45	-0.34787956
189	0x3ce28663	0.027651971
190	0xbe093cd5	-0.13402112
191	0xbea9e31f	-0.33181092
192	0xbd40d37d	-0.04707669
193	0xbe9bda59	-0.30440024
194	0xbe9d2135	-0.30689397
195	0xbe16bdbd	-0.14720817
196	0xbe0bea46	-0.13663587
197	0xbe64412c	-0.22290486
198	0xbe44f2b0	-0.19233203
199	0xbebd0017	-0.3691413
200	0xbce794cf	-0.0282692
201	0xbe17ab1d	-0.14811368
202	0xbece265c	-0.4026364
203	0xbef3e3b5	-0.47634664
204	0xbe2acb56	-0.16679129
205	0x3c70519f	0.0146678975
206	0xbeb998a5	-0.3624927
207	0xbee2b4c5	-0.4427854
208	0xbe1973c9	-0.14985575
209	0xbb2b9ca1	-0.0026185887
210	0xbbb8b53d	-0.0056368397
211	0xbe739f5b	-0.23791258
212	0xbe816876	-0.2527501
213	0x3ce58daa	0.028021652
214	0xbe81a6cc	-0.25322568
215	0xbd44c198	-0.048036188
216	0xbe4dd844	-0.2010203
217	0xbec96d38	-0.3934114
218	0xbe7b2111	-0.24524333
219	0xbc9d1067	-0.01917286
220	0xbee53df6	-0.44773835
221	0xbec5381b	-0.38519368
222	0xbe76ad4b	-0.24089544
223	0xbe09a4f8	-0.13441837
224	0xbe161127	-0.1465498
225	0xbe416378	-0.188856
226	0xbe0b1d2c	-0.13585347
227	0xbe556868	-0.20840609
228	0xbec31b4c	-0.38106763
229	0x3d3461ed	0.0440387
230	0xbec3750a	-0.3817523
231	0xbe8331fc	-0.25624073
232	0xbdc7f56a	-0.09763606
233	0xbebbbe38	-0.36668563
234	0xbecd5eee	-0.40111488
235	0xbd082f16	-0.03324803
236	0xbe71cc6f	-0.23613141
237	0xbe1ad6ee	-0.15121052
238	0xbc352c9c	-0.011057999
239	0xbec6f889	-0.38861492
240	0xbe50136d	-0.2031991
241	0x3c1da680	0.009622216
242	0xbe90eed6	-0.28307217
243	0xbdfbbff5	-0.12292472
244	0xbe89f99f	-0.26948258
245	0xbe4f4466	-0.20240936
246	0xbe58ee41	-0.21184637
247	0xbe44c707	-0.19216548
248	0xbdea4530	-0.11438978
249	0xbea63938	-0.3246553
250	0xbea7bc23	-0.32760724
251	0xbecc485f	-0.39898965
252	0xbd445972	-0.047936864
253	0xbe805840	-0.2506733
254	0xbe3ea67a	-0.18618193
255	0xbdef40b1	-0.11682261
