trained_models/autoencoder_48_central_chans.pt (torch, 306744 bytes, 4 tensors)

encoder.weight f4 [48, 784]
0.017374218 -0.025831701 0.007537646 0.00046707905 0.01083217 0.0061516934 -0.015497821 0.032088928
-0.018806173 0.008696339 -0.011420902 -0.012689906 -0.20065914 -0.30894792 -0.13301168 -0.033257168
-0.016642299 0.026493056 0.0155099295 -0.006874076 0.022763314 0.006169264 -0.010839305 -0.0063360548
0.021195848 -0.03559048 -0.025703283 0.00672108 0.034383554 -0.016710222 -0.010779816 -0.016414434
0.05838039 0.12780695 -0.22841164 -0.16957767 0.098334484 0.19594143 -0.051637743 0.18156125
0.36523226 -0.01730763 0.048984356 0.18637884 -0.053410366 -0.23384953 -0.32296002 -0.2871311
-0.11367362 0.025028171 0.23460242 0.30068895 0.019340243 -0.014021461 -0.014220558 -0.029781148
0.032183804 -0.006352161 0.2528486 0.00450631 -0.0102906935 0.07149043 -0.251363 -0.10668954
-0.18127602 -0.04577644 0.19164969 0.25288597 -0.036867656 -0.30389568 -0.42495897 -0.44998285
-0.15757596 -0.06838795 0.068422094 0.011144416 -0.06259836 -0.1699984 -0.14155473 0.09666459
-0.06662918 0.035716303 0.0138845965 -0.012629838 -0.028091576 -0.020987656 0.32044244 0.031154348
0.11165705 -0.2085417 0.037504066 0.043286696 -0.08866842 0.22874744 0.40021142 0.19736844
0.18777744 0.016409395 -0.27321827 -0.3879148 -0.20838481 -0.0005816056 -0.06421798 0.024586309
0.088526204 0.10745653 0.10608406 -0.017882554 0.07793016 0.056004692 -0.2961741 0.0064050984
0.026844397 -0.23163787 0.08407804 0.20726624 0.056517273 -0.084460646 0.085689664 -0.08272043
0.019039277 0.13176413 0.30567297 0.46445265 0.4695259 0.31505215 0.08348645 0.03666192
0.045279227 0.09282858 0.116999716 0.06956862 0.17801934 0.24439934 0.37726843 0.21813813
0.11180004 0.42419225 0.22429736 -0.22050835 -0.01326541 0.021117361 -0.04853039 0.21776876
0.042270694 -0.1961791 -0.1651413 -0.19785662 -0.0049247043 0.14621803 0.32638457 0.38862917
0.32351398 0.16411757 0.008628365 -0.026221434 0.0670602 0.07930491 0.016118996 -0.07213078
-0.04550464 0.17242296 0.22084604 0.13654578 0.1519971 0.1562304 0.2823302 0.19978663
0.012938994 0.014309657 -0.16784522 0.060067095 -0.08978024 -0.28702435 -0.4189981 -0.3096451
-0.1844658 0.0053702025 0.18552148 0.11099491 0.14002283 -0.0082057705 -0.13159882 -0.1424036
-0.01767824 -0.0007255287 -0.07839749 -0.19221264 -0.018755535 0.07663585 0.15922499 0.24850433
0.4605024 0.40325868 0.25312433 0.29897848 -0.020371273 0.035117052 -0.10944681 -0.016184475
-0.35648263 -0.22130094 -0.24360098 -0.27454665 -0.041530836 0.075439684 0.1495362 0.09479535
-0.017236397 -0.105845004 -0.17467074 -0.13520792 0.05428309 -0.008543258 -0.08876181 -0.16846977
-0.12877326 0.04743869 0.23793845 0.2410926 0.44773456 0.21238522 0.058399376 -0.046987597
0.18364932 0.0489282 -0.04948752 0.13329494 -0.084753804 0.0044546947 -0.035039432 -0.1693747
-0.10363096 0.11397676 0.21935424 0.18225141 0.14174475 0.04791148 -0.030099891 0.015845673
0.031177636 0.072763 -0.013845842 -0.06244129 0.036817808 0.1920937 0.20524225 0.2840738
0.41778415 0.26593477 0.19198607 0.4342778 0.108996026 0.03842177 0.07107781 0.1199571
00000000: 6054 8e3c 019d d3bc 5cfe f63b 4ae2 f439
00000010: 6a79 313c 2594 c93b 93ea 7dbc ae6f 033d
00000020: 670f 9abc 177b 0e3c bc1e 3bbc 53e9 4fbc
00000030: 9779 4dbe 6c2e 9ebe 3734 08be ab38 08bd
00000040: 6e55 88bc f707 d93c 5c1d 7e3c ee3f e1bb
00000050: 217a ba3c 8a27 ca3b 5797 31bc ae9e cfbb
00000060: eaa2 ad3c 53c7 11bd b18f d2bc 813c dc3b
00000070: c5d5 0c3d e0e3 88bc d39d 30bc 9077 86bc
00000080: 4720 6f3d d3df 023e bee4 69be c5a5 2dbe
00000090: 9763 c93d dfa4 483e 1982 53bd 31eb 393e
000000a0: b9ff ba3e bbc8 8dbc d2a3 483d 18da 3e3e
000000b0: d4c4 5abd 4076 6fbe 045b a5be d902 93be
000000c0: b7cd e8bd e107 cd3c 9e3b 703e e7f3 993e
000000d0: 6e6f 9e3c 45ba 65bc 58fd 68bc 98f7 f3bc
000000e0: 2ad3 033d ca25 d0bb 5f75 813e aba9 933b
000000f0: 4c9a 28bc 9369 923d a7b2 80be 0c80 dabd
00000100: 6ca0 39be 1480 3bbd d13f 443e 457a 813e
00000110: 8a02 17bd 3798 9bbe 3994 d9be 2764 e6be
00000120: 985b 21be fb0e 8cbd e220 8c3d 1297 363c
00000130: 9233 80bd 1014 2ebe b9f3 10be 16f8 c53d
00000140: e174 88bd 424b 123d 387c 633c 61ed 4ebc
00000150: 4e20 e6bc 4eee abbc 0811 a43e 6737 ff3c
00000160: 74ac e43d f58b 55be dd9d 193d 644d 313d
00000170: ca97 b5bd c53c 6a3e 83e8 cc3e f41a 4a3e
00000180: bb48 403e ff6c 863c 44e3 8bbe c59c c6be
00000190: d462 55be e476 18ba b784 83bd 3a69 c93c
000001a0: 3a4d b53d 2b12 dc3d 9a42 d93d 6f7e 92bc
000001b0: d999 9f3d 2d65 653d 22a4 97be dce1 d13b
000001c0: c8e8 db3c 7a32 6dbe 1c31 ac3d 9a3d 543e
000001d0: a87e 673d b4f9 acbd 107e af3d 5469 a9bd
000001e0: 42f8 9b3c 2ded 063e 2b81 9c3e bdcc ed3e
000001f0: b365 f03e 844e a13e f2fa aa3d cf2a 163d
00000200: b676 393d e91c be3d 8c9d ef3d fe79 8e3d
00000210: b44a 363e d243 7a3e 5429 c13e 9a5f 5f3e
00000220: 6bf7 e43d ba2f d93e 35ae 653e f1cc 61be
00000230: 2a57 59bc 51fe ac3c cdc7 46bd c6fe 5e3e
00000240: 0924 2d3d 2de3 48be cd1a 29be ed9a 4abe
00000250: 6a5f a1bb 2eba 153e e11b a73e 67fa c63e
00000260: a0a3 a53e 700e 283e fc5d 0d3c 55ce d6bc
00000270: dc56 893d 9d6a a23d fc0b 843c 4db9 93bd
00000280: 1363 3abd a58f 303e 7725 623e a8d2 0b3e
00000290: 21a5 1b3e ddfa 1f3e 958d 903e de94 4c3e
000002a0: 13fe 533c 0d73 6a3c 9edf 2bbe ea08 763d
000002b0: b4de b7bd dbf4 92be eb86 d6be cd89 9ebe
000002c0: 9ae4 3cbe 86f8 af3b 58f9 3d3e 4d51 e33d
000002d0: 2562 0f3e 7f71 06bc d7c1 06be 40d2 11be
000002e0: f5d1 90bc 6831 3eba dd8e a0bd 64d3 44be
000002f0: 35a5 99bc 42f3 9c3d e00b 233e eb77 7e3e
00000300: f8c6 eb3e ec77 ce3e 8399 813e b513 993e
00000310: a8e1 a6bc e6d6 0f3d a625 e0bd 4e95 84bc
00000320: e484 b6be b79c 62be 8972 79be 6191 8cbe
00000330: 3d1c 2abd 1f80 9a3d 0520 193e 1124 c23d
00000340: 5833 8dbc 44c5 d8bd e3dc 32be f273 0abe
00000350: f257 5e3d 05f9 0bbc c0c8 b5bd 5783 2cbe
00000360: 23dd 03be 124f 423d 23a6 733e fbe0 763e
00000370: 773d e53e 837b 593e 2f34 6f3d 1176 40bd
00000380: 910e 3c3e f068 483d 6db3 4abd 787e 083e
00000390: 6793 adbd b0f8 913b 8285 0fbd 9070 2dbe
000003a0: 783c d4bd a66c e93d 669e 603e 1da0 3a3e
000003b0: 8925 113e d43e 443d 0c94 f6bc c9ce 813c
000003c0: 3e68 ff3c c504 953d acd9 62bc 70c2 7fbd
000003d0: 45ce 163d 36b4 443e 062b 523e 1f72 913e
000003e0: cee7 d53e 9a28 883e ff97 443e a959 de3e
000003f0: 4f39 df3d 2560 1d3d 3e91 913d 11ac f53d

encoder.bias f4 [48]
0.15092784 -0.80642503 0.0040703695 1.7706084 -0.12151746 -0.043909684 0.8734092 0.10011226
1.6693983 1.6993474 2.336326 0.672946 -0.26201436 0.027113164 0.4573778 0.32602876
-0.16990197 0.4449167 -1.0662469 -0.6442433 0.25985494 -0.4267284 1.8522738 1.0461187
-0.043251317 -0.024478147 2.0784976 0.7092594 0.5862576 -1.799605 0.23941189 -0.016585954
0.123638056 1.2715158 1.937335 -0.068510585 1.7969284 -0.60607916 0.22443233 0.5876315
0.00094100245 0.67884886 -0.58467376 1.6347965 0.07734391 -0.82575834 0.25521895 1.2329817
00000000: d48c 1a3e df71 4ebf bc60 853b 4ca3 e23f
00000010: 25de f8bd a4da 33bd bf97 5f3f a807 cd3d
00000020: d8ae d53f 3784 d93f 5d86 1540 3046 2c3f
00000030: bf26 86be 6d1c de3c 6c2d ea3e 3eed a63e
00000040: c8fa 2dbe 1fcc e33e c77a 88bf 21ed 24bf
00000050: b50b 853e 257c dabe 4f17 ed3f 38e7 853f
00000060: 4b28 31bd 6586 c8bc 1b06 0540 0692 353f
00000070: fa14 163f 7559 e6bf 6428 753e 44df 87bc
00000080: f335 fd3d 08c1 a23f 98fa f73f 474f 8cbd
00000090: c001 e63f 0128 1bbf 97d1 653e 056f 163f
000000a0: 9bad 763a 0ac9 2d3f 2ead 15bf 0341 d13f
000000b0: 7c66 9e3d e664 53bf 0fac 823e 58d2 9d3f

decoder.weight f4 [784, 48]
-0.07074203 -0.2049849 0.089242525 -0.11276238 -0.130491 0.1261206 -0.0732817 -0.10225196
0.01719262 -0.1064762 0.066749 0.0252701 -0.14654432 0.1261761 -0.16223232 -0.019993497
-0.00078468205 -0.16846019 0.005157432 0.052995365 -0.093334384 0.012648359 -0.21022041 -0.022759506
0.07497343 -0.122490376 -0.108800404 -0.018019227 -0.0031293493 -0.14368927 -0.07563442 0.061615985
0.07337774 -0.043793138 -0.10744298 -0.05414807 -0.049911365 0.026741581 -0.09193386 0.0017609147
-0.057429142 0.040814303 -0.15929466 -0.16488074 -0.12069911 -0.11624703 -0.007506904 -0.16163999
0.012300423 -0.1282607 -0.13604565 -0.2004904 -0.06086084 0.08500468 0.0066145444 0.044020277
-0.09239248 -0.009197207 -0.01976212 -0.13731763 -0.15880828 0.1285697 0.042533487 0.045999695
-0.0062915813 0.036255516 -0.09140611 0.06479681 -0.08046277 0.09643899 -0.09760095 -0.14676552
0.0003567403 0.043511197 -0.119039275 -0.118614465 -0.08567416 -0.25508705 -0.09493437 -0.013972051
-0.18404543 -0.062055074 -0.21483989 -0.12084133 -0.103985645 0.081517525 0.070824124 -0.024687022
0.026521862 -0.11519437 -0.14846145 0.0100732865 0.0409636 0.019626591 -0.13501984 -0.00362956
-0.07636041 -0.06141444 0.026375024 -0.3932593 0.017217787 -0.06440536 0.09964882 -0.07633776
-0.1514131 0.085485466 -0.13527615 -0.10618888 -0.0547624 0.13182497 0.039742395 0.032432947
-0.15065499 -0.08417809 0.08128578 -0.14476235 -0.09726458 0.068400025 -0.21558937 -0.13321549
-0.08204081 -0.108792335 0.06308179 -0.02443435 -0.1672249 -0.1969282 -0.093973495 0.008300954
-0.15258123 0.05327598 -0.078626096 -0.1517399 0.009437779 0.07287112 -0.1769854 0.06196662
0.09609125 -0.06935042 -0.11530884 0.05543337 -0.12161293 0.011777216 -0.11330886 -0.046917584
-0.17526504 -0.18391548 -0.14516696 -0.2515574 -0.06316136 0.1343256 -0.1033216 -0.10825894
0.09137325 -0.008808184 0.006419193 -0.049306948 -0.021538345 0.12103929 -0.036771104 -0.03629484
-0.031786393 -0.09550327 0.09747232 0.027799869 0.012292757 0.08830025 -0.21146436 0.026417796
-0.049793344 0.011922371 0.0020715552 -0.045781188 0.09346055 -0.14030024 -0.14114116 0.005293216
-0.11854091 -0.011215424 -0.097685814 0.06792588 0.044346593 -0.13808934 -0.1080694 -0.065070935
0.020569379 -0.14025302 -0.14466174 -0.0007887457 -0.15481728 -0.08691273 0.08724907 -0.16013715
-0.16733228 -0.16161475 0.06835744 -0.1407997 0.02530416 0.037922222 -0.0026181699 -0.07772871
0.011734645 -0.07728388 0.05874073 -0.004864874 -0.0022915613 -0.07059665 -0.12516962 -0.06624197
-0.09191899 0.081724375 0.07111397 0.06375362 -0.012583552 0.01319294 -0.30736002 -0.18090646
-0.14778545 -0.03468156 -0.102658786 0.013141172 0.085169435 -0.08653591 0.021994399 0.060830258
-0.032789912 -0.1671924 -0.13793315 -0.17295091 -0.12385871 0.073648795 -0.17356502 -0.15806516
0.12186653 0.03085687 -0.1927304 -0.118852235 -0.07382066 -0.051536843 -0.07932008 -0.029910872
-0.0070290123 -0.10747656 -0.14554264 -0.24057916 -0.09125241 0.110378616 -0.12820248 -0.11203417
-0.07705035 -0.14935064 0.01996845 0.032347087 0.038082395 -0.036582936 -0.018719789 -0.15238297
00000000: 33e1 90bd 90e7 51be c9c4 b63d f6ef e6bd
00000010: 6f9f 05be c225 013e b714 96bd 7a69 d1bd
00000020: 8ad7 8c3c 3210 dabd b3b3 883d 3e03 cf3c
00000030: b70f 16be 4f34 013e 3b20 26be 67c9 a3bc
00000040: 1fb3 4dba d480 2cbe adff a83b ab11 593d
00000050: 1926 bfbd 103b 4f3c 0544 57be 2572 babc
00000060: ab8b 993d 3cdc fabd bfd2 debd 0f9d 93bc
00000070: c515 4dbb 4823 13be 38e6 9abd 0b61 7c3d
00000080: 1247 963d 6f60 33bd 110b dcbd 5eca 5dbd
00000090: dc6f 4cbd 2911 db3c d247 bcbd 7ece e63a
000000a0: d23a 6bbd e62c 273d 241e 23be 7fd6 28be
000000b0: 1831 f7bd ec12 eebd 7afc f5bb f484 25be
000000c0: b787 493c c656 03be 8d4f 0bbe 5b4d 4dbe
000000d0: 3749 79bd ef16 ae3d d2be d83b 9b4e 343d
000000e0: 4538 bdbd e2af 16bc 2be4 a1bc fe9c 0cbe
000000f0: a39e 22be c7a7 033e 9837 2e3d 2d6a 3c3d
00000100: 9c29 cebb aa80 143d 2033 bbbd 31b4 843d
00000110: aac9 a4bd ce81 c53d 02e3 c7bd b349 16be
00000120: df08 bb39 cc38 323d ddca f3bd 24ec f2bd
00000130: ef75 afbd c59a 82be f36c c2bd 08eb 64bc
00000140: 6876 3cbe 762d 7ebd fdfe 5bbe a97b f7bd
00000150: 6df6 d4bd a9f2 a63d 3d0c 913d 703c cabc
00000160: 6044 d93c 07eb ebbd 4706 18be 6d0a 253c
00000170: 73c9 273d f2c7 a03c a442 0abe e9dd 6dbb
00000180: d962 9cbd b58d 7bbd 6f10 d83c 4859 c9be
00000190: 510c 8d3c f5e6 83bd ae14 cc3d f956 9cbd
000001a0: 090c 1bbe 0113 af3d d585 0abe 8e79 d9bd
000001b0: 8a4e 60bd 20fd 063e ecc8 223d 69d8 043d
000001c0: 4d45 1abe 9065 acbd 2979 a63d 953c 14be
000001d0: a732 c7bd 5015 8c3d 76c3 5cbe a469 08be
000001e0: 0305 a8bd 84ce debd 0731 813d 8c2a c8bc
000001f0: 013d 2bbe 8ca7 49be 2d75 c0bd b900 083c
00000200: 413e 1cbe ea37 5a3d b806 a1bd b461 1bbe
00000210: eaa0 1a3c 743d 953d a93b 35be b6d0 7d3d
00000220: 7dcb c43d 9807 8ebd 0b27 ecbd 1a0e 633d
00000230: 3310 f9bd 39f5 403c 7a0e e8bd a72c 40bd
00000240: ae78 33be 5754 3cbe a6a6 14be 22cc 80be
00000250: be5a 81bd a68c 093e 469a d3bd ddb6 ddbd
00000260: e621 bb3d 3450 10bc 1858 d23b 15f6 49bd
00000270: 2f71 b0bc 73e3 f73d 4c9d 16bd e6a9 14bd
00000280: 7332 02bd 3897 c3bd 919f c73d 8dbc e33c
00000290: 8f67 493c c3d6 b43d 1d8a 58be 226a d83c
000002a0: 1bf4 4bbd 0c56 433c eec2 073b 0e85 3bbd
000002b0: 3f68 bf3d deaa 0fbe 4f87 10be b772 ad3b
000002c0: 94c5 f2bd e6c0 37bc 800f c8bd b91c 8b3d
000002d0: c6a4 353d 4b67 0dbe 7d53 ddbd e943 85bd
000002e0: 1d81 a83c 7d9e 0fbe 3522 14be d4c3 4eba
000002f0: 6c88 1ebe 4dff b1bd a4af b23d fefa 23be
00000300: 2759 2bbe 567e 25be fcfe 8b3d cc2d 10be
00000310: ab4a cf3c 5554 1b3d 9a95 2bbb 3b30 9fbd
00000320: ab42 403c 0347 9ebd 1f9a 703d 8569 9fbb
00000330: 052e 16bb fa94 90bd 772c 00be dfa9 87bd
00000340: 0640 bcbd 1c5f a73d 33a4 913d 4291 823d
00000350: 3e2b 4ebc 3327 583c 4b5e 9dbe 8b3f 39be
00000360: 1255 17be 400e 0ebd c53e d2bd 124e 573c
00000370: 506d ae3d bd39 b1bd 992d b43c 2629 793d
00000380: b74e 06bd 7c34 2bbe 593e 0dbe 0b1a 31be
00000390: a3a9 fdbd 2ed5 963d 07bb 31be d5db 21be
000003a0: 2995 f93d 8cc7 fc3c 1e5b 45be cd68 f3bd
000003b0: 492f 97bd 4c18 53bd 9172 a2bd a507 f5bc
000003c0: a153 e6bb ac1c dcbd 2109 15be 625a 76be
000003d0: 8be2 babd 2f0e e23d 8347 03be 2c72 e5bd
000003e0: 93cc 9dbd 60ef 18be e094 a33c 617e 043d
000003f0: 49fc 1b3d fdd7 15bd 3e5a 99bc 480a 1cbe

decoder.bias f4 [784]
0.090225 -0.027836297 -0.15485969 0.035250295 0.0783892 0.057152096 0.020429986 -0.10622451
-0.1325605 0.098847374 0.093811415 -0.149488 -0.12600568 -0.08214315 -0.02663033 -0.13481608
-0.017196745 -0.017126663 -0.16414852 0.08100371 -0.05301101 0.052945033 0.033504173 -0.09385564
0.08435563 -0.07927936 0.031827837 0.034941927 -0.03195326 -0.13512978 -0.01906317 0.02051652
0.08667962 -0.13250624 -0.0549986 -0.029959636 -0.010291798 0.03260821 -0.048198607 0.08509766
0.002507933 0.061650414 -0.1525932 0.05505474 0.08587061 0.031664867 0.03844001 0.06739979
0.06274257 0.02516354 -0.013190968 0.046389 -0.020566816 0.04832547 0.07920139 -0.12433966
-0.07222605 -0.13031414 -0.06946329 -0.15176687 -0.0055579166 -0.10071683 -0.106723346 0.038594384
-0.014340657 -0.14697345 0.015083905 -0.124170154 -0.14214782 -0.11976662 -0.3346426 -0.016265953
-0.2826808 -0.122159526 -0.02429779 0.104204856 -0.10570374 0.11032482 -0.10493204 -0.13440959
-0.07972101 -0.14882876 -0.043163 -0.17092547 -0.13323976 0.06430392 0.098595224 0.091405556
0.012896894 -0.13317347 -0.006237481 -0.04160505 -0.15176937 0.04627631 -0.36543846 -0.015915506
-0.29373768 -0.21068504 -0.3983124 -0.23136148 -0.08416026 -0.1460476 -0.2513518 -0.27523506
-0.15311627 -0.1780391 -0.0074022077 -0.056924578 0.025056897 -0.033148415 -0.10261358 0.038082007
-0.0840244 0.07583465 -0.025408681 -0.02411898 -0.12891145 -0.14956859 0.0022962368 0.08657836
-0.11038998 -0.30054474 -0.2769102 -0.26240328 -0.32092917 -0.47121117 -0.30855635 -0.2648596
-0.26738438 -0.28096268 -0.17904608 -0.38675115 -0.39474434 -0.1286832 -0.254878 -0.02555908
-0.07940089 0.10105391 -0.1477508 -0.0947117 0.109228335 -0.12139994 0.10080249 -0.043161735
-0.14513446 0.0060357023 -0.06901755 -0.2117788 -0.17197001 -0.27013618 -0.38037032 -0.3978847
-0.3730616 -0.65893275 -0.6782407 -0.348243 -0.2900482 -0.4734609 -0.44488862 -0.42223993
-0.4031639 -0.24708866 -0.29603094 -0.1483362 -0.09071804 0.011604961 -0.08378345 0.07225038
-0.15028359 0.029994324 -0.13209824 -0.037342884 -0.16648161 -0.17429793 -0.23400778 -0.17271937
-0.0996118 -0.4237807 -0.3741696 -0.6318957 -0.5968997 -0.6881097 -0.58403075 -0.5554234
-0.49713305 -0.34745857 -0.529224 -0.44316927 -0.5260503 -0.18892026 -0.2191355 -0.04727374
-0.056021858 -0.08280781 0.0074443594 -0.016537806 -0.15815789 -0.13347371 -0.08934368 0.065242894
-0.26876834 0.042929303 -0.07191972 -0.28340042 -0.4486073 -0.6013619 -0.43230963 -0.5647556
-0.5011255 -0.5831645 -0.9218369 -0.6613484 -0.56185925 -0.63720095 -0.64379424 -0.36414194
-0.31158546 -0.21790671 -0.266094 -0.08838939 -0.053860206 -0.053631846 -0.04929451 -0.10397927
0.039564144 -0.1234956 0.014840618 -0.23471132 -0.13227747 -0.033616588 0.04138875 -0.0721701
-0.229228 -0.57954234 -0.5779038 -0.4530353 -0.57009923 -0.59264535 -0.7811549 -0.70186603
-0.42946234 -0.5200795 -0.70048416 -0.32836092 -0.27174997 -0.34789187 -0.31178725 -0.24843884
-0.21692878 -0.17515168 -0.058556855 0.00847402 -0.02438756 -0.16450459 0.104551576 -0.23245713
00000000: e3c7 b83d f208 e4bc 8a93 1ebe 9d62 103d
00000010: 848a a03d 5118 6a3d c95c a73c 3c8c d9bd
00000020: f1bd 07be 7e70 ca3d 3320 c03d 6213 19be
00000030: a207 01be ab3a a8bd da27 dabc 3a0d 0abe
00000040: 30e0 8cbc 374d 8cbc 8d16 28be 46e5 a53d
00000050: 1322 59bd e4dc 583d ac3b 093d 6337 c0bd
00000060: a5c2 ac3d 385d a2bd e85d 023d 441f 0f3d
00000070: 6ce1 02bd 765f 0abe 5d2a 9cbc 4312 a83c
00000080: 1685 b13d b7af 07be 3646 61bd e96d f5bc
00000090: ee9e 28bc 3090 053d e76b 45bd af47 ae3d
000000a0: 225c 243b 2585 7c3d 6441 1cbe 1481 613d
000000b0: eedc af3d 05b3 013d 4673 1d3d e708 8a3d
000000c0: 2d7f 803d c523 ce3c ee1e 58bc 6402 3e3d
000000d0: bd7b a8bc eef0 453d 5734 a23d cba5 febd
000000e0: 40eb 93bd 1271 05be c542 8ebd c668 1bbe
000000f0: 2f1f b6bb a044 cebd c591 dabd 2515 1e3d
00000100: 13f5 6abc 3580 16be 7c22 773c ec4c febd
00000110: 338f 11be 3448 f5bd 4656 abbe 2d40 85bc
00000120: 8abb 90be c62e fabd 290c c7bc 5b69 d53d
00000130: 347b d8bd fbf1 e13d 9ce6 d6bd aba2 09be
00000140: c544 a3bd 9166 18be b0cb 30bd 1607 2fbe
00000150: 0170 08be c6b1 833d 4bec c93d d632 bb3d
00000160: 7e4d 533c a05e 08be c863 ccbb 0f6a 2abd
00000170: 6e69 1bbe 3a8c 3d3d c01a bbbe 3c61 82bc
00000180: c964 96be d2bd 57be 9aef cbbe 06ea 6cbe
00000190: 375c acbd 818d 15be 2fb1 80be 9ceb 8cbe
000001a0: 83ca 1cbe e24f 36be 388e f2bb bf29 69bd
000001b0: 1f44 cd3c a2c6 07bd 1227 d2bd e1fb 1b3d
000001c0: fc14 acbd 324f 9b3d de25 d0bc 2b95 c5bc
000001d0: 5d01 04be 8228 19be 767c 163b ff4f b13d
000001e0: 2414 e2bd 00e1 99be 2cc7 8dbe b959 86be
000001f0: d450 a4be 9742 f1be 19fb 9dbe ad9b 87be
00000200: 9be6 88be 57da 8fbe db57 37be 3f04 c6be
00000210: ee1b cabe 87c5 03be 5f7f 82be 4761 d1bc
00000220: ef9c a2bd 5af5 ce3d fc4b 17be 35f8 c1bd
00000230: 1bb3 df3d 88a0 f8bd 8971 ce3d 5cca 30bd
00000240: 219e 14be 24c7 c53b 1359 8dbd 8bdc 58be
00000250: e818 30be 4a4f 8abe e6bf c2be 8bb7 cbbe
00000260: ee01 bfbe d1af 28bf 2fa1 2dbf e84c b2be
00000270: 3381 94be 7869 f2be 71c8 e3be d52f d8be
00000280: 806b cebe cf04 7dbe 5e91 97be 72e5 17be
00000290: 61ca b9bd bc22 3e3c a896 abbd 02f8 933d
000002a0: f1e3 19be a8b6 f53c c344 07be daf4 18bd
000002b0: 287a 2abe 287b 32be bc9f 6fbe 59dd 30be
000002c0: 4501 ccbd c9f9 d8be 2893 bfbe ebc3 21bf
000002d0: 6bce 18bf f527 30bf 0a83 15bf 3a30 0ebf
000002e0: 3988 febe 17e6 b1be 397b 07bf 15e7 e2be
000002f0: 3cab 06bf 5074 41be 0e65 60be 1ca2 41bd
00000300: 2d77 65bd 2497 a9bd d0ef f33b 4b7a 87bc
00000310: 24f4 21be 55ad 08be d2f9 b6bd 119e 853d
00000320: 019c 89be a3d6 2f3d a54a 93bd dc19 91be
00000330: dbaf e5be daf2 19bf b057 ddbe d393 10bf
00000340: c349 00bf 454a 15bf 81fd 6bbf 214e 29bf
00000350: 02d6 0fbf 9a1f 23bf b3cf 24bf d070 babe
00000360: 2188 9fbe f022 5fbe 793d 88be 7f05 b5bd
00000370: 859c 5cbd 11ad 5bbd 0ae9 49bd 15f3 d4bd
00000380: 030e 223d 43eb fcbd 1026 733c 2a58 70be
00000390: bf73 07be 8cb1 09bd 4087 293d ebcd 93bd
000003a0: bfba 6abe e35c 14bf 81f1 13bf 3ef4 e7be
000003b0: 06f2 11bf 9bb7 17bf c4f9 47bf 7ead 33bf
000003c0: 7de2 dbbe ee23 05bf ee52 33bf ec1e a8be
000003d0: d022 8bbe e21e b2be 94a2 9fbe c066 7ebe
000003e0: 9422 5ebe f65a 33be 50d9 6fbd 9ed6 0a3c
000003f0: 6cc8 c7bc e473 28be 231f d63d 3e09 6ebe
