trained_models/autoencoder_16_central_chans.pt (torch, 105912 bytes, 4 tensors)

encoder.weight f4 [16, 784]
0	0x3cd19177	0.025582058
1	0xbcb53d83	-0.022124058
2	0xbc54f281	-0.012997271
3	0x3d044f84	0.032302395
4	0xbc13a14a	-0.009010622
5	0x3c1a1a93	0.00940575
6	0x3ca64857	0.020298166
7	0x3d062df3	0.032758664
8	0x3c21ceee	0.009875996
9	0xbb8d3f53	-0.0043105274
10	0xbcaab701	-0.020839216
11	0xbb800fca	-0.003908132
12	0x3e12183c	0.14267057
13	0x3e2a9cc9	0.16661371
14	0x3d56e927	0.052468445
15	0x3aeb5476	0.0017954248
16	0x3cf64848	0.030063763
17	0x3cd1995a	0.025585819
18	0x3ce12cea	0.027487237
19	0x3c9e2bec	0.019308053
20	0xbc560137	-0.013061813
21	0x3ca9efd7	0.020744247
22	0xbcafc0d5	-0.021454254
23	0xbd08d406	-0.033405326
24	0xbbe0b5c1	-0.0068576043
25	0xbd0c5afe	-0.034266464
26	0xbcacacba	-0.021078456
27	0xbc8c3497	-0.01711492
28	0xbcf4f788	-0.029903188
29	0xbc67c958	-0.014147125
30	0x3cea9afc	0.028638355
31	0x3c2fa3e1	0.010720224
32	0x3c89c9c1	0.016819837
33	0x3df36b63	0.11885717
34	0x3f28f248	0.6599469
35	0x3f3c00b1	0.73438555
36	0x3e87d223	0.2652751
37	0x3e75f9c7	0.24021064
38	0x3e993818	0.2992561
39	0x3f10526a	0.56375754
40	0x3ea5e871	0.324039
41	0x3ed9ea48	0.42561555
42	0x3e8e9239	0.27845934
43	0xbe0e4129	-0.13892044
44	0x3ceb20cb	0.02870216
45	0x3d86e4bd	0.06586597
46	0xbdac2c82	-0.08406927
47	0x3d12cad4	0.035837963
48	0x3e75e9a1	0.24014904
49	0xbdeb243c	-0.114815205
50	0x3dbe40d1	0.092897065
51	0x3ec9a784	0.39385617
52	0x3cdec518	0.027193591
53	0xbbe0156e	-0.006838492
54	0xbb9db84a	-0.0048132287
55	0xbcec9b41	-0.028882625
56	0xbc52877c	-0.012849685
57	0xbb9312f7	-0.004488345
58	0x3cdb5e8c	0.026778482
59	0x3e40ecf5	0.18840392
60	0x3eabe28e	0.33571285
61	0x3e4135a1	0.18868114
62	0x3d8736a6	0.0660222
63	0x3ea7e5ba	0.32792455
64	0x3e85269f	0.26006028
65	0x3d39eddc	0.045392856
66	0x3eda5a8d	0.4264721
67	0x3f15b8fe	0.584854
68	0x3ee9778b	0.45599017
69	0x3f0a3dac	0.54000354
70	0x3eadfdd9	0.33982733
71	0x3e8e2f07	0.27770254
72	0x3ded7bd4	0.11595884
73	0x3e3b1e53	0.18273287
74	0x3e6162b0	0.22010303
75	0x3ea054cd	0.31314698
76	0x3e87338d	0.26406518
77	0x3e2bd2ae	0.16779587
78	0x3e1a910e	0.15094396
79	0x3e6680f4	0.22510129
80	0xbd4cc5ec	-0.04999344
81	0xbde8c8ca	-0.113664225
82	0xbc4cf5ea	-0.012509802
83	0xbbff785c	-0.0077963304
84	0xbc4e910e	-0.012607826
85	0xbcc8192e	-0.02442607
86	0x3debb338	0.11508793
87	0xbe124f4d	-0.14288063
88	0xbce2b0b3	-0.027672147
89	0x3c6c9a23	0.014441046
90	0x3dd22124	0.10260227
91	0x3e2512d0	0.16120458
92	0xbc83305b	-0.016014269
93	0x3dac6af3	0.084188364
94	0x3e21ab6c	0.15788049
95	0x3e73218d	0.23743267
96	0x3e0b6592	0.13612965
97	0x3e4c9bc4	0.19981295
98	0xbcbeb34f	-0.02327886
99	0xbdb099f8	-0.08623117
100	0xbd902ddc	-0.07039997
101	0x3b76cc9b	0.0037658575
102	0x3d36fb18	0.044673055
103	0x3e21f5b6	0.15816388
104	0x3d77e8f7	0.060524907
105	0x3dcc7536	0.09983294
106	0xbdeae2e8	-0.1146906
107	0xbd175237	-0.03694364
108	0xbd0b442f	-0.03400057
109	0x3da1b985	0.07896713
110	0xbebd72a8	-0.37001538
111	0xbc3b54ce	-0.011433793
112	0xbc264f7c	-0.0101507865
113	0x3ca1a6da	0.019732881
114	0x3ea565a4	0.32304108
115	0xbea217b8	-0.3165872
116	0xbe10d8f6	-0.14145264
117	0x3dd614ec	0.10453209
118	0xbdd102a7	-0.10205584
119	0xbddb5d8f	-0.10711204
120	0x3ca5924e	0.020211365
121	0x3e1c4d01	0.1526375
122	0x3e14c292	0.14527348
123	0x3e26584f	0.16244625
124	0x3e02e791	0.12783648
125	0x3de61366	0.11234169
126	0x3bc07a6e	0.0058739698
127	0x3b4be2a8	0.003111044
128	0xbc48123a	-0.012211377
129	0xbd93e09b	-0.072205745
130	0xbd820929	-0.063494034
131	0xbe0e7b91	-0.13914324
132	0xbe0a6d7a	-0.13518324
133	0xbcee8333	-0.029115295
134	0xbd2cf0d7	-0.04222187
135	0x3d90d709	0.07072265
136	0xbcf3aa16	-0.02974419
137	0x3d4ab565	0.049489398
138	0xbc11ffe7	-0.0089111095
139	0xbe75fd5a	-0.24022427
140	0xbc72a7d3	-0.01481052
141	0xbbbe091c	-0.0057994258
142	0x3e84a520	0.2590723
143	0xbdd823dc	-0.10553715
144	0xbcf30fb9	-0.029670583
145	0xbdc5ff70	-0.096678615
146	0x3dae07ee	0.08497606
147	0x3d5bfa39	0.053705428
148	0x3be1d6d7	0.006892066
149	0x3bd604b9	0.0065313247
150	0x3c1f32bb	0.009716685
151	0xbb26ea98	-0.0025469419
152	0xbcb3f29e	-0.021966275
153	0xbd091855	-0.03347047
154	0xba16b644	-0.00057492056
155	0x3d9d8efd	0.076932885
156	0x3db397ea	0.0876921
157	0xbbc49973	-0.005999738
158	0xbe1d58c2	-0.1536589
159	0xbe8fb578	-0.28068137
160	0xbe9e5299	-0.30922392
161	0xbe83f4f1	-0.25772813
162	0xbe3bf154	-0.18353778
163	0xbe374442	-0.17897132
164	0x3d1ff102	0.039048202
165	0x3d0b34a9	0.033985768
166	0xbe04efd5	-0.12982114
167	0xbea68754	-0.32525122
168	0xbcb22957	-0.021748228
169	0xba57a008	-0.00082254456
170	0x3ce82932	0.028339956
171	0xbe6ebf3c	-0.23315138
172	0x3e2edb18	0.17075765
173	0xbd1ed53d	-0.03877758
174	0x3da1d50e	0.07901965
175	0xbd180005	-0.037109394
176	0x3c023f9b	0.007949735
177	0x3c4cdb8b	0.012503515
178	0x3cd65d7f	0.02616763
179	0xbd72c99e	-0.05927431
180	0xbd1bb091	-0.038010184
181	0x3c64bee2	0.013961526
182	0x3e202362	0.15638497
183	0x3e835c8e	0.2565655
184	0x3e5cd2c1	0.21564771
185	0x3e04bca7	0.1296259
186	0xbddd019f	-0.10791325
187	0xbe83827e	-0.25685495
188	0xbe87a8a3	-0.26495847
189	0xbe9974e1	-0.29971984
190	0xbe8c2524	-0.27372086
191	0xbe5d3412	-0.21601894
192	0xbda13435	-0.07871286
193	0xbd23a4fc	-0.039952263
194	0xbdedb80b	-0.11607369
195	0xbdcf8908	-0.101335585
196	0xbdd2d1e0	-0.10293937
197	0xbe5d5358	-0.21613824
198	0xbe53d4ae	-0.206866
199	0xbd23e07c	-0.040009007
200	0xbd4b71f5	-0.049669225
201	0x3ced2e02	0.028952602
202	0x3c2d1b23	0.010565552
203	0x3de04f24	0.10952595
204	0xbcc5203a	-0.024063218
205	0x3a59aea9	0.00083039195
206	0xbcc82b22	-0.02443463
207	0xbcc340cb	-0.023834607
208	0xbae2f369	-0.0017314974
209	0x3db7a406	0.08966832
210	0x3e80b495	0.25137773
211	0x3ec53b9d	0.38522044
212	0x3ed0401e	0.40673918
213	0x3e790d35	0.24321444
214	0x3c159f08	0.009132154
215	0xbdc77762	-0.09739567
216	0xbe821034	-0.25402987
217	0xbe7f59ac	-0.24936551
218	0xbe6cac8e	-0.231127
219	0xbe764dd1	-0.24053122
220	0xbcaafd0e	-0.020872619
221	0xbd5bf546	-0.053700708
222	0xbd3a9bd8	-0.04555878
223	0xbded22bc	-0.11578891
224	0xbd8d3740	-0.06895304
225	0xbde49642	-0.11161472
226	0xbd81b871	-0.063340075
227	0x3dbcad21	0.09212709
228	0xbde32383	-0.11090758
229	0xbd2e3519	-0.042531107
230	0xbd48272e	-0.04886549
231	0xbb16b6f0	-0.0022997223
232	0x3b6fb422	0.0036575873
233	0x3caf993b	0.02143537
234	0xbcaf95fb	-0.021433821
235	0xbc1ed3a0	-0.00969401
236	0x3d2f049e	0.042729013
237	0x3df910cc	0.12161407
238	0x3eabf253	0.33583316
239	0x3ef81615	0.48454347
240	0x3ef0dbb7	0.4704263
241	0x3e9afb76	0.30269974
242	0x3e25fba4	0.16209275
243	0xbd23a7b9	-0.039954875
244	0xbe6d1581	-0.23152734
245	0xbe790d3f	-0.24321459
246	0xbeb7503b	-0.35803398
247	0xbe2980ce	-0.16553041
248	0xbe0a30cf	-0.13495182
249	0xbdbbdbbb	-0.0917277
250	0xbdd8377d	-0.105574585
251	0x3c9c0595	0.01904563
252	0xbe2e6ded	-0.17034121
253	0xbd9b8f3b	-0.075956784
254	0xbe03ee43	-0.12883858
255	0xbe04404f	-0.12915157

encoder.bias f4 [16]
0	0xbe03f4ee	-0.12886402
1	0xbcba1932	-0.022717092
2	0xbd0a8e8e	-0.033827357
3	0x3fd3184a	1.6491787
4	0xbd280f31	-0.041030113
5	0x40243e3e	2.566299
6	0xbfb56d82	-1.4174044
7	0xc01b792d	-2.429271
8	0x3c8010b9	0.015632974
9	0x401720e1	2.3613818
10	0x4024b0b2	2.5732846
11	0x3ff3dee4	1.9052396
12	0x3fd8fe00	1.6952515
13	0xbfe3698b	-1.7766584
14	0x3f7ac9d4	0.97964215
15	0x4031f510	2.7805824

decoder.weight f4 [784, 16]
0	0x3d9276c2	0.071515575
1	0xbdd3e112	-0.10345663
2	0x3c8ef7d9	0.017452167
3	0xbf907c8d	-1.128801
4	0xbe4b4e50	-0.19854093
5	0xbe01105f	-0.12603901
6	0xbcecb37c	-0.028894179
7	0xbeb84dde	-0.35996908
8	0x3d3de17d	0.04635762
9	0xbe6eb05c	-0.23309463
10	0xbe6b8d63	-0.23003154
11	0xbd6e9b31	-0.05825347
12	0x3d96d213	0.07364287
13	0xbce69a1f	-0.028149663
14	0xbef2a72c	-0.47393167
15	0xbe011816	-0.12606844
16	0x3cafe209	0.021470087
17	0x3d8ff198	0.07028502
18	0xbce0b26e	-0.027428832
19	0xbf40da51	-0.75333124
20	0xbe2b0f78	-0.1670512
21	0xbe095d0c	-0.13414401
22	0xbe4d5bb1	-0.20054509
23	0xbe8fa7fe	-0.28057855
24	0xbe2f7347	-0.17133819
25	0xbe24dd54	-0.16100055
26	0xbe3d1b9e	-0.18467566
27	0xbf018dcb	-0.50606984
28	0xbb324695	-0.0027202715
29	0xbe53a536	-0.20668492
30	0xbe05241f	-0.1300206
31	0xbe6ffb49	-0.23435701
32	0xbe8e11ee	-0.27748054
33	0xbd99eec6	-0.075162455
34	0xbb82a182	-0.0039865384
35	0xbf8a9a15	-1.0828272
36	0x3da8e6e3	0.08247163
37	0xbca85442	-0.02054799
38	0x3d29217a	0.04129169
39	0xbdb26724	-0.08711079
40	0xbe2c54a6	-0.16829166
41	0xbd3bb79b	-0.045829397
42	0xbe5a5c31	-0.2132423
43	0xbe0244f2	-0.12721613
44	0x3b8e2f24	0.0043391157
45	0xbe6d2f66	-0.23162612
46	0xbea4c5ad	-0.32182065
47	0xbea8ebc6	-0.3299238
48	0xbe5a68f1	-0.21329094
49	0x3dce19b6	0.10063498
50	0xbdb7276c	-0.08943066
51	0xbf55abfd	-0.8346556
52	0x3d837d09	0.06420333
53	0xbe9df7d6	-0.30853146
54	0xbdb03425	-0.08603696
55	0xbe0a8396	-0.13526759
56	0xbdeceb49	-0.115683146
57	0xbdc2d0a9	-0.09512455
58	0xbe876462	-0.26443774
59	0xbe26444e	-0.16236994
60	0x3df62911	0.120195515
61	0xbdd684dc	-0.1047456
62	0xbe9cf809	-0.30657986
63	0xbda31d44	-0.07964566
64	0xbe807dcc	-0.25095975
65	0x3d438537	0.047734465
66	0x3e2fe8f4	0.17178708
67	0xbf6d937b	-0.9280316
68	0x3e62eb7d	0.22160144
69	0xbd949bdd	-0.07256291
70	0xbdad3274	-0.08456889
71	0xbdf22e99	-0.11825294
72	0x3d5cdbfb	0.053920727
73	0x3c46bc5b	0.012129868
74	0xbea67a4e	-0.32515186
75	0xbeded784	-0.435238
76	0xbcfb5e69	-0.030684667
77	0xbe31ef7e	-0.17376515
78	0xbdf633bd	-0.12021587
79	0xbdb6c165	-0.08923606
80	0xbe8fdefb	-0.28099808
81	0x3d8ac773	0.06776323
82	0xbe81051e	-0.25199217
83	0xbf456fa9	-0.77123505
84	0xbe16ff6d	-0.14745875
85	0xbe98f3c7	-0.29873487
86	0x3d4ebdac	0.050473854
87	0xbd26c2d2	-0.04071314
88	0xbb48200c	-0.003053668
89	0xbe47da8a	-0.1951696
90	0xbe07a2d0	-0.13245702
91	0xbf35b677	-0.70981544
92	0xbde99c75	-0.11406795
93	0xbe99398a	-0.2992671
94	0xbd178f5c	-0.037001953
95	0xbe868583	-0.26273736
96	0xbd9d038e	-0.07666694
97	0x3e00a08f	0.12561248
98	0x3e313d28	0.17308486
99	0xbf674e80	-0.90354156
100	0xbe7cc7e4	-0.24685627
101	0xbe6cdee5	-0.23131903
102	0xbe989453	-0.29800662
103	0xbd3c24a7	-0.045933392
104	0x3e54814e	0.20752451
105	0xbe0f435a	-0.13990536
106	0x3cb87218	0.022515342
107	0xbe9bcc40	-0.30429268
108	0x3d6bbeca	0.057554998
109	0x3d201325	0.039080758
110	0xbeed6331	-0.4636474
111	0xbe3e826b	-0.18604438
112	0x3d9d41bd	0.07678554
113	0x3e199bdc	0.15000862
114	0xbdd099b3	-0.10185566
115	0xbf910357	-1.1329144
116	0x3cfed3d4	0.031106867
117	0xbe1e015f	-0.1543021
118	0x3d01723e	0.03160309
119	0xbe5858ef	-0.21127675
120	0xbc89ac96	-0.016805928
121	0xbe9e0488	-0.30862832
122	0xbe2b1850	-0.16708493
123	0xbec18f61	-0.37804702
124	0xbe9b07be	-0.30279344
125	0xbd2f7a54	-0.04284127
126	0xbca4f6b3	-0.020137167
127	0xbc2f4d7e	-0.010699628
128	0xbe0bb0ce	-0.13641664
129	0x3e2abff8	0.16674793
130	0x3e53571b	0.20638697
131	0xbf88414c	-1.0644927
132	0xbe4617fc	-0.19345087
133	0xbe196d3a	-0.14983073
134	0x3d4b8701	0.049689297
135	0xbeae6304	-0.34059918
136	0xbde7a733	-0.113111876
137	0x3dfbb35e	0.12290071
138	0xbe21e85c	-0.15811294
139	0xbe8886e6	-0.2666542
140	0xbe1f80fc	-0.15576547
141	0xbe39f1fe	-0.18158719
142	0xbe826f58	-0.25475574
143	0xbe9f6dc1	-0.31138423
144	0x3d8abefe	0.0677471
145	0xbe821452	-0.25406128
146	0x3e097c40	0.13426304
147	0xbf8b2245	-1.0869833
148	0x3cd9e940	0.02660048
149	0xbdbbbab2	-0.09166469
150	0xbe2572a6	-0.16157016
151	0xbe2d3175	-0.16913398
152	0xbd3bf3fb	-0.045886975
153	0xbc933705	-0.017970571
154	0xbeab87d4	-0.33502066
155	0xbdd47a7e	-0.10374926
156	0xbe64ff9a	-0.2236313
157	0xbd043f31	-0.032286827
158	0xbeb92915	-0.36164156
159	0x3c497dc9	0.012298056
160	0xbe3ae1a6	-0.1825014
161	0x3d8f011b	0.06982633
162	0xba36b58a	-0.00069698005
163	0xbf7254ff	-0.94660944
164	0x3dfbecab	0.12301
165	0x3dbfcb64	0.093649656
166	0x3d75d8ab	0.060021084
167	0xbe9be5aa	-0.30448657
168	0xbe4219e8	-0.18955195
169	0xbdb9d269	-0.09073336
170	0xbe7d3631	-0.24727704
171	0xbecef97c	-0.40424716
172	0xbe97744e	-0.2958092
173	0xbd047fc5	-0.032348413
174	0xbeb0b6a7	-0.34514353
175	0xbe779d05	-0.24180992
176	0xbe006d19	-0.12541617
177	0xbdcfde5d	-0.10149834
178	0xbd31701a	-0.0433198
179	0xbf38d778	-0.7220378
180	0x3e215726	0.157559
181	0xbd91946e	-0.07108389
182	0xbe74efa5	-0.23919542
183	0xbe607510	-0.21919656
184	0xbe7cbdea	-0.24681821
185	0xbde8f6f8	-0.113752306
186	0xbe8e4ee2	-0.27794558
187	0xbee0aea1	-0.4388323
188	0x3dcc6cb0	0.09981668
189	0xbe81ca2c	-0.25349557
190	0xbd8ca814	-0.06867996
191	0xbe84baf0	-0.25923872
192	0x3dc4d617	0.09611147
193	0xbe31622a	-0.17322603
194	0x3d21e579	0.039525483
195	0xbf517c4f	-0.81830305
196	0xbe819e2f	-0.25315997
197	0xbe95cd37	-0.2925813
198	0xbd5b4154	-0.0535291
199	0xbea04f25	-0.31310382
200	0x3e2b1818	0.1670841
201	0xbe41a0ec	-0.18909043
202	0xbe6aa74c	-0.22915381
203	0xbded364f	-0.11582624
204	0xbd6a730a	-0.057238616
205	0x3cc3d087	0.023903145
206	0xbea66e2c	-0.3250593
207	0xbdba8b74	-0.0910863
208	0xbe30d3e4	-0.1726833
209	0xbd9498e7	-0.07255726
210	0xbe3d25dd	-0.18471475
211	0xbf80397d	-1.0017544
212	0x3e385cf4	0.18004209
213	0x3d00faca	0.03148917
214	0xbdbc259c	-0.09186861
215	0xbe73c280	-0.23804665
216	0x3dbc1c70	0.091851115
217	0xbe06a0d1	-0.13147284
218	0xbe2436a7	-0.16036473
219	0xbe87f12a	-0.2655118
220	0xbe275f4a	-0.16344944
221	0xbe64a654	-0.22329074
222	0xbe0584c9	-0.13038935
223	0x38ae4aae	8.310877e-05
224	0xbe7b88ea	-0.24563947
225	0x3c0634cb	0.008191298
226	0x3e5e4995	0.21707757
227	0xbf9a4971	-1.2053663
228	0xbde22c61	-0.11043621
229	0xbe3615ed	-0.17781802
230	0x3ca7a7db	0.020465782
231	0x3d97a626	0.07404737
232	0xbe042e19	-0.1290821
233	0xbeac8f5b	-0.33703122
234	0xbcfe3df9	-0.03103541
235	0xbea52835	-0.32257238
236	0x3ccaf58d	0.02477529
237	0xbeb5ae19	-0.35484388
238	0xbe9b1604	-0.30290234
239	0xbe87eae4	-0.26546395
240	0xbd976d71	-0.07393921
241	0xba88926b	-0.0010419613
242	0x3e5dcb8f	0.21659683
243	0xbf92fbf5	-1.1483141
244	0x3dd12cae	0.102136
245	0xbdb8d47c	-0.09024903
246	0xbcd8e875	-0.026478032
247	0x3d1f120d	0.038835574
248	0x3e3b32f5	0.18281157
249	0x3d894de1	0.06704307
250	0xbeabe8ca	-0.3357604
251	0xbe462627	-0.19350491
252	0xbe82e8d5	-0.25568262
253	0xbeaea5fc	-0.3411101
254	0xbea72bd2	-0.3265062
255	0xbe36018f	-0.17774032

decoder.bias f4 [784]
0	0xbe166f6c	-0.14690942
1	0x3cd69939	0.02619611
2	0xbe4408d7	-0.19143997
3	0xbd024ae0	-0.031809688
4	0x3e07f476	0.13276848
5	0x3d2f53dc	0.042804584
6	0xbe982c7a	-0.29721433
7	0x3c06b30c	0.008221399
8	0xbdda1683	-0.10648825
9	0x3e164276	0.1467379
10	0x3e33a760	0.17544317
11	0xbe0f2d9a	-0.1398224
12	0xbd80919d	-0.062777735
13	0xbe7474d2	-0.23872688
14	0xbda460f0	-0.08026302
15	0xbe73843e	-0.23780915
16	0x3ddbe54f	0.107370965
17	0xbe4d0749	-0.2002231
18	0xbd002568	-0.031285673
19	0xbde8aefa	-0.11361499
20	0x3da46cf8	0.08028597
21	0x3d94476b	0.072401844
22	0x3dd0a80c	0.101883024
23	0xbcfd1817	-0.030895276
24	0xbda9a196	-0.08282773
25	0x3c6bd273	0.014393437
26	0xbe876275	-0.26442304
27	0xbdae0753	-0.08497491
28	0xbcd93438	-0.026514158
29	0xbda2b313	-0.07944312
30	0xbe7835a8	-0.24239218
31	0x3e4492a5	0.19196565
32	0xbe3b2a6c	-0.18277901
33	0xbe79f648	-0.24410355
34	0xbe3c92e4	-0.1841541
35	0xbdfa4c09	-0.12221534
36	0xbcd82f64	-0.026389785
37	0xbd5b7d05	-0.053586025
38	0xbdbe5388	-0.09293276
39	0xbe81d55b	-0.2535809
40	0x3c1a5076	0.009418597
41	0xbe4a1098	-0.19732893
42	0xbe83ba95	-0.25728288
43	0x3c85e20b	0.016343137
44	0xbe884ce7	-0.26621172
45	0x3c992e68	0.018698886
46	0xbe4f54f4	-0.20247251
47	0xbe623fb3	-0.22094612
48	0x3e11be17	0.1423267
49	0xbe63b122	-0.2223554
50	0xbd99f239	-0.075169034
51	0xbe26a4d5	-0.16273816
52	0xbe76b1af	-0.24091218
53	0x3d258f64	0.04041995
54	0xbda9ac31	-0.08284796
55	0x3dc6c563	0.09705617
56	0xbd91ef67	-0.071257405
57	0x3d937c2a	0.07201417
58	0xbe335517	-0.17512928
59	0xbe5f168f	-0.21785949
60	0xbe923865	-0.2855865
61	0x3e3b4883	0.1828938
62	0xbe985a3c	-0.29756343
63	0xbea3bef9	-0.31981638
64	0x3dbb6f10	0.09152043
65	0x3cf4fbc6	0.029905211
66	0x3d63082d	0.05542772
67	0x3c33cd30	0.0109742135
68	0xbdc30088	-0.09521586
69	0xbd7cc153	-0.061707806
70	0x3dfa7bda	0.12230654
71	0xbe534801	-0.20632936
72	0xbea7ac82	-0.327488
73	0xbda2a5f3	-0.079418086
74	0xbd6d8c85	-0.057995338
75	0x3da1e2de	0.079045996
76	0xbd636e7e	-0.055525295
77	0xbd103a48	-0.03521183
78	0x3ca6838a	0.020326395
79	0xbe355584	-0.17708403
80	0xbe42e049	-0.1903087
81	0x3c538f59	0.012912595
82	0xbe4e8ece	-0.20171663
83	0xbe1301bc	-0.1435613
84	0x3d5a51c2	0.053300627
85	0xbbbf0b02	-0.0058301697
86	0xbe80d2d9	-0.25160864
87	0xbd7f3a11	-0.062311236
88	0xbd9e8393	-0.077399395
89	0x3d4afb8a	0.049556293
90	0xbc98c022	-0.018646304
91	0xbd79e25f	-0.0610069
92	0x3cbe30f5	0.023216704
93	0xbe526b69	-0.20548786
94	0x3e010f7c	0.12603563
95	0x3e33723e	0.17524049
96	0xbdd1eebc	-0.10250613
97	0xbf9adeff	-1.2099303
98	0xbfd724e5	-1.6808134
99	0xbfa118b2	-1.2585661
100	0xbf7211bc	-0.9455831
101	0xc00b7878	-2.1792278
102	0xbff69392	-1.9263785
103	0xbf06c313	-0.5264141
104	0xbf0a608c	-0.5405357
105	0xbea858ac	-0.3288015
106	0xbe445df3	-0.19176464
107	0xbe3cbea4	-0.18432099
108	0xbe0a2372	-0.13490084
109	0xbbddef81	-0.006772936
110	0x3dc9cbf6	0.098533556
111	0xbe2cda6a	-0.16880193
112	0xbdc1e372	-0.0946721
113	0xbd2974ba	-0.041371085
114	0xbdf83213	-0.12118926
115	0x3e1b8c2a	0.15190187
116	0xbdad3b99	-0.08458633
117	0x3dc8ea03	0.09810259
118	0xbe4ec543	-0.20192437
119	0xbe81cd9e	-0.25352186
120	0xbece0431	-0.40237573
121	0xbf89a508	-1.0753489
122	0xbf893591	-1.0719472
123	0xbfa40834	-1.2815003
124	0xbfc0592e	-1.5027215
125	0xbfbfad03	-1.4974674
126	0xbfe5f09b	-1.7964052
127	0xc011ab58	-2.276083
128	0xc02a53a2	-2.6613545
129	0xc02dd6b4	-2.7162294
130	0xc0262aa5	-2.5963528
131	0xc0071d69	-2.11117
132	0xbf9987a8	-1.1994524
133	0xbf0a01b3	-0.5390884
134	0xbf39aa46	-0.7252544
135	0x3d9be8c5	0.07612757
136	0x3e343be9	0.17600979
137	0xbe5dd59d	-0.21663518
138	0x3d5e7dfe	0.054319374
139	0xbe93c27c	-0.28859317
140	0xbc2bb13c	-0.010479268
141	0x3d1f11ef	0.038835462
142	0xbe78efe5	-0.24310263
143	0xbe38c1c5	-0.18042667
144	0xbdab7727	-0.08372336
145	0xbeb98642	-0.36235243
146	0xbdbebaf4	-0.09313002
147	0xbf3b7984	-0.73232293
148	0xbf07b8a2	-0.530161
149	0xbeea4407	-0.45755026
150	0xbf115e77	-0.56784767
151	0xbee358a9	-0.4440358
152	0xbf1843f0	-0.59478664
153	0xbf871ac7	-1.0555047
154	0xbfc87e2b	-1.5663503
155	0xc00b558f	-2.177097
156	0xc0279794	-2.6186266
157	0xc0259a33	-2.5875366
158	0xbff5cec0	-1.920372
159	0xbf9260b0	-1.1435757
160	0xbf342892	-0.70374405
161	0xbed6d2a8	-0.41957593
162	0xbf2cbb0c	-0.6747291
163	0xbef97ad5	-0.48726526
164	0x3e06f127	0.1317793
165	0xbe970969	-0.29499367
166	0xbbceb41b	-0.0063080913
167	0xbe069070	-0.13141036
168	0xbe33739f	-0.17524575
169	0xbd52aa0f	-0.05143171
170	0x3e1c6543	0.15273003
171	0xbea68b5d	-0.325282
172	0xbe8c6b50	-0.27425623
173	0xbebd215b	-0.3693951
174	0xbf45edde	-0.7731608
175	0xbf1e8214	-0.61917233
176	0xbe8570e0	-0.2606268
177	0xbe54b7f3	-0.20773296
178	0xbe89f512	-0.26944786
179	0xbea4408c	-0.32080495
180	0xbf2783be	-0.654354
181	0xbf9cb30d	-1.2242142
182	0xbffab42a	-1.9586232
183	0xc026e26b	-2.6075695
184	0xc038a321	-2.8849566
185	0xc02d1ced	-2.7048905
186	0xbfe90c04	-1.8206792
187	0xbf25e8cb	-0.6480834
188	0x3e0668fd	0.13125987
189	0x3ea18371	0.31545594
190	0xbe2cecae	-0.16887161
191	0xbed095ee	-0.40739387
192	0xbdd9b655	-0.1063048
193	0xbe769f70	-0.24084258
194	0xbe0c94b1	-0.13728596
195	0xbe5f5902	-0.21811298
196	0xbc6840b0	-0.014175579
197	0xbe731282	-0.23737529
198	0x3ce86068	0.028366283
199	0xbe120fc9	-0.14263834
200	0x3c539bfa	0.012915606
201	0xbf2ac15e	-0.66701305
202	0xbf6b8490	-0.9199915
203	0xbf27a371	-0.65483767
204	0xbf0beb57	-0.54655975
205	0xbeeb8488	-0.4599955
206	0xbf5e61a0	-0.86867714
207	0xbfb398fc	-1.4031062
208	0xbff3eef8	-1.9057302
209	0xc0105c8d	-2.2556489
210	0xc02cf9a6	-2.7027373
211	0xc04a10ef	-3.1572835
212	0xc04e79c7	-3.2261827
213	0xc04f306a	-3.23733
214	0xc0174abc	-2.3639364
215	0xbf4fe2ab	-0.8120524
216	0x3f0b99e4	0.54531693
217	0x3f6fd568	0.9368501
218	0x3f33a401	0.70172125
219	0xbe43a634	-0.1910637
220	0xbf216dac	-0.6305797
221	0xbdb7a51a	-0.089670375
222	0x3e1db1c8	0.1539985
223	0xbccede24	-0.02525241
224	0x3e168782	0.1470013
225	0x3db37b97	0.08763807
226	0xbd534a21	-0.051584367
227	0xbe86985c	-0.26288116
228	0xbf05a303	-0.5220186
229	0xbf6a57cb	-0.9154021
230	0xbf2fc91b	-0.6866624
231	0xbf4cca27	-0.7999596
232	0xbf285fc4	-0.65771127
233	0xbf889f82	-1.0673678
234	0xbfe101c5	-1.7578665
235	0xc02167a6	-2.5219512
236	0xc0361fbe	-2.8456874
237	0xc03bf14a	-2.936602
238	0xc045b1bd	-3.0889733
239	0xc05bed7c	-3.43637
240	0xc06df930	-3.7183342
241	0xc068bb6d	-3.6364396
242	0xc02b054f	-2.672199
243	0xbf4f416f	-0.8095922
244	0x3f64dcf5	0.89399654
245	0x3fc50115	1.5390955
246	0x3f88bd25	1.0682722
247	0x3d2ff058	0.04295382
248	0xbed1281e	-0.4085092
249	0x3caa0d08	0.020758167
250	0x3db388e4	0.08766344
251	0x3deff497	0.11716574
252	0xbe14aea8	-0.14519751
253	0xbdc531ac	-0.09628615
254	0xbe57baf7	-0.21067415
255	0xbdf0de27	-0.11761122
