trained_models/autoencoder_64_central_chans.pt (torch, 407160 bytes, 4 tensors)

encoder.weight f4 [64, 784]
0	0x3ac40f93	0.0014958255
1	0x3d0d1414	0.034442976
2	0xbc8130a0	-0.015770257
3	0x3c8bb500	0.017054081
4	0xbc8a169c	-0.016856484
5	0xbb8b726e	-0.0042555844
6	0xbbb9a0c1	-0.0056649153
7	0xbb5a7993	-0.0033336624
8	0x3be6fe25	0.0070493394
9	0xbc93b0ae	-0.018028583
10	0xbd0e7d7c	-0.03478764
11	0xbcc06efa	-0.023490418
12	0xbe007cd2	-0.12547615
13	0xbdd10473	-0.10205927
14	0x3cd62de9	0.026144939
15	0x3c26ea34	0.010187674
16	0xbc04a9ce	-0.008097125
17	0xbc8c682c	-0.017139517
18	0x3b4a3aa5	0.0030857709
19	0x3bd7c5b7	0.0065848487
20	0x3cb41eba	0.021987308
21	0xbc72c681	-0.014817835
22	0x3c0904d7	0.00836297
23	0x3cdb48ee	0.026768174
24	0xbc80cc73	-0.015722489
25	0xbc61d8fc	-0.013784643
26	0x3c3900dc	0.011291709
27	0xbcc94e2a	-0.024573404
28	0xbd0c1aa5	-0.034205098
29	0xbc9b628e	-0.018967893
30	0x3d0ae835	0.033912856
31	0xbd07d4c8	-0.03316191
32	0xbd5cee12	-0.05393798
33	0xbdbc5379	-0.09195609
34	0x3e936aed	0.28792515
35	0x3e8a1517	0.26969215
36	0x3d51e030	0.051239192
37	0x3d37c7e6	0.044868372
38	0x3e24467a	0.1604251
39	0x3dc6066d	0.09669194
40	0x3e388676	0.18020043
41	0x3e807613	0.25090083
42	0x3e105790	0.14095902
43	0x3c970575	0.01843522
44	0xbded0cfc	-0.11574742
45	0x3d7fc4f1	0.062443677
46	0x3e2061a1	0.15662242
47	0x3c74d62e	0.014943643
48	0x3e3d15f8	0.18465412
49	0xbce80844	-0.028324254
50	0xbe6cd1ed	-0.23126955
51	0x3e02383b	0.12716763
52	0x3c93ac4a	0.01802649
53	0xbcb2357e	-0.021754023
54	0xbccc6077	-0.024948342
55	0xbabc4e93	-0.0014366679
56	0xbc63ea01	-0.013910771
57	0xbc38fc97	-0.011290691
58	0xbe419d1f	-0.18907593
59	0x3d212b45	0.039347906
60	0x3ebe9031	0.37219384
61	0x3d824219	0.063602634
62	0x3d61f084	0.055161014
63	0x3d918efd	0.07107351
64	0xbd48c562	-0.049016364
65	0x3d5e0084	0.05419971
66	0x3e18c8cd	0.1492035
67	0x3e92d80b	0.28680453
68	0x3ea25a6b	0.31709608
69	0x3ecde860	0.4021635
70	0x3ed30394	0.41213667
71	0x3caa64c8	0.02080001
72	0x3db8ca54	0.09022966
73	0x3e91a244	0.2844411
74	0x3eb4cdbe	0.3531322
75	0x3e2ab196	0.16669306
76	0x3d0a7d47	0.03381088
77	0x3c2c01d3	0.010498482
78	0x3df09b72	0.11748399
79	0x3d2ec7ab	0.042670887
80	0x3de27e6f	0.110592715
81	0xbbf8b231	-0.0075896014
82	0x3cd1a16c	0.025589667
83	0xbcb74a13	-0.022374189
84	0xbaf64825	-0.0018789811
85	0xbca22275	-0.019791821
86	0xbe5a8931	-0.21341397
87	0xbdfe0fa1	-0.12405325
88	0xbd51754d	-0.051137257
89	0x3e1d116d	0.15338679
90	0x3e0660f7	0.13122927
91	0x3de0d335	0.109777845
92	0xbdceee86	-0.101040885
93	0x3ce5fe55	0.028075377
94	0x3e8acd7d	0.271099
95	0x3e99cb93	0.30038127
96	0x3e951416	0.29116887
97	0x3eb39af1	0.35079148
98	0x3d39ef19	0.045394037
99	0xbda76a03	-0.08174517
100	0x3be02103	0.006839873
101	0xbd41ee2c	-0.04734628
102	0xbdff642b	-0.124702774
103	0xbe0b3753	-0.13595323
104	0xbe200e45	-0.15630443
105	0x3d4e072a	0.0502998
106	0x3e1de3e7	0.15418969
107	0x3e0a72e7	0.13520394
108	0x3e4d5faf	0.20056032
109	0xbe0b9f9d	-0.13635106
110	0xbd8527a2	-0.065017
111	0xbd1241a8	-0.035707146
112	0x3d0b1db2	0.033963867
113	0x3e1bb21b	0.1520466
114	0xbddd2f99	-0.10800094
115	0xbef6340c	-0.48086584
116	0xbcbece1e	-0.023291644
117	0xbde58edf	-0.11208891
118	0xbd444f2e	-0.047927074
119	0x3d1c919e	0.03822481
120	0xbdc7453f	-0.097300045
121	0x3dc689a9	0.09694225
122	0x3e5bf573	0.2148035
123	0x3e86c66a	0.26323253
124	0x3ea1d131	0.31604913
125	0x3e5dfef0	0.21679282
126	0x3dafe128	0.08587867
127	0xbd82c57e	-0.06385325
128	0xbe152d82	-0.14568141
129	0xbe44f5f4	-0.19234449
130	0xbdbe06f3	-0.09278669
131	0xbd500628	-0.05078712
132	0xbd60934a	-0.054827966
133	0xbdd34ee4	-0.103177816
134	0xbe21643a	-0.1576089
135	0xbd32ce9f	-0.04365408
136	0x3dbe23de	0.09284185
137	0x3e198965	0.14993818
138	0x3e543508	0.20723355
139	0x3e5d8c91	0.21635653
140	0x3c95d3ec	0.018289529
141	0x3ce2747a	0.027643431
142	0x3c954db2	0.018225525
143	0x3c69ace3	0.014262411
144	0x3ce80741	0.028323771
145	0xbdcd8cc2	-0.10036613
146	0x3c4b9978	0.0124267265
147	0x3d21f533	0.03954048
148	0x3e050a67	0.1299225
149	0x3e142abe	0.1446943
150	0x3e679bac	0.22617978
151	0x3e4256d8	0.18978441
152	0x3e75a8cf	0.23990177
153	0x3e2bd790	0.1678145
154	0x3df0c646	0.11756568
155	0xbc2dafed	-0.010601026
156	0xbde58cdb	-0.11208507
157	0xbe3b75bd	-0.18306632
158	0xbde43fa5	-0.11144952
159	0xbceea082	-0.02912927
160	0x3e1ec864	0.1550613
161	0x3d8bd9d8	0.0682866
162	0xbca23d15	-0.019804517
163	0x3c950b17	0.018193765
164	0x3d1549c3	0.036447298
165	0x3e6c79d0	0.23093343
166	0x3de42cae	0.111413345
167	0xbe19dd4d	-0.15025826
168	0xbc647581	-0.013944031
169	0x3c2c9028	0.010532416
170	0xbe7e649b	-0.24843065
171	0x3cc88a70	0.024480075
172	0x3c8ad25b	0.016946008
173	0xbcb25080	-0.021766901
174	0xbd52bb6d	-0.051448274
175	0x3e101b4f	0.14072917
176	0x3e352d75	0.17693122
177	0x3e5ee361	0.21766426
178	0x3db0a020	0.086242914
179	0xbd38a294	-0.04507692
180	0xbe0604b4	-0.13087732
181	0xbe056112	-0.1302531
182	0x3d01ce29	0.03169075
183	0x3daed1e0	0.08536124
184	0x3da70559	0.08155317
185	0x3d1f3732	0.038870998
186	0x3c36ec39	0.011164718
187	0x3d8cc2a4	0.06873062
188	0x3e4bfac5	0.1991988
189	0x3e4cce74	0.2000063
190	0x3df13bc3	0.11778977
191	0x3cc1dc27	0.023664547
192	0xbdc98ee2	-0.09841706
193	0x3dc1afc9	0.094573565
194	0x3e124c17	0.14286838
195	0x3ea97b8b	0.33102068
196	0x3d672f15	0.056441385
197	0x3d858c9a	0.06520958
198	0xbdad3586	-0.084574744
199	0x3e1cee3c	0.15325254
200	0x3d92c814	0.07167068
201	0x3decd0d7	0.115632705
202	0x3db99dad	0.090632774
203	0x3ded2089	0.11578471
204	0x3db47ad0	0.08812487
205	0x3da1448d	0.07874403
206	0xbde90249	-0.11377389
207	0xbeb37151	-0.3504739
208	0xbee46e75	-0.44615522
209	0xbe91721e	-0.28407377
210	0xbd5b28fa	-0.053505875
211	0x3dca3d0f	0.09874927
212	0x3e2edbc7	0.17076026
213	0x3d58fd85	0.05297615
214	0xbc077002	-0.008266451
215	0x3d65cb86	0.0561023
216	0x3e52e071	0.2059343
217	0x3e4f481e	0.20242354
218	0x3e3addba	0.18248644
219	0xbda8e23b	-0.08246275
220	0xbea9303a	-0.33044606
221	0xbd92e72d	-0.071729995
222	0x3e4bd60c	0.19905871
223	0x3e06997f	0.13144492
224	0xbd544baa	-0.05182997
225	0xbe1c2a22	-0.15250447
226	0x3e3134e0	0.17305326
227	0x3e047edd	0.1293902
228	0x3db53a2e	0.088489875
229	0x3e254ea8	0.16143286
230	0x3e3153f9	0.1731719
231	0x3e54794d	0.20749398
232	0x3de5c73f	0.11219644
233	0xbb9f6dd9	-0.00486539
234	0xbe5051cc	-0.20343703
235	0xbeb9d4d2	-0.36295182
236	0xbeae5a6d	-0.34053364
237	0xbe41e867	-0.1893631
238	0x3c8b612e	0.017014112
239	0x3d9963b2	0.074897185
240	0x3deb83e8	0.114997685
241	0xbc9eb55e	-0.019373592
242	0xbe00dd9c	-0.12584537
243	0xbbfca36d	-0.0077099116
244	0x3e18700e	0.14886495
245	0x3de870ef	0.113496654
246	0xbd367c4d	-0.044552136
247	0xbeb5c17c	-0.3549918
248	0xbf10e5ab	-0.56600446
249	0xbecd5506	-0.4010393
250	0x3e38eac8	0.18058312
251	0xbde45090	-0.111481786
252	0x3d5b9cf5	0.053616483
253	0xbe59759c	-0.2123627
254	0x3e197d2d	0.14989157
255	0x3e9940fa	0.29932386

encoder.bias f4 [64]
0	0x3f8cd280	1.100174
1	0xbe96f289	-0.29481915
2	0xbfb3266f	-1.3996104
3	0x3f9ba38e	1.2159288
4	0x400de293	2.216954
5	0x3f351f99	0.7075134
6	0xba65e56c	-0.0008769843
7	0x3d97ada3	0.074061655
8	0x40072277	2.1114786
9	0x3fd6991c	1.6765475
10	0xbf1a4725	-0.6026481
11	0xbd197980	-0.037469387
12	0x3ec6bb3f	0.38814732
13	0xbf17521f	-0.5910968
14	0xbc98de19	-0.018660592
15	0x3ddaa999	0.106768794
16	0xbb7ed87b	-0.0038886357
17	0x3f45c030	0.7724638
18	0x40054926	2.0825896
19	0x3dd8ff5d	0.10595582
20	0x3f16967f	0.5882339
21	0x3f548378	0.83013105
22	0xbe8b2cb7	-0.27182552
23	0x3e4ff0e9	0.20306744
24	0x3ecf3c35	0.40475622
25	0x3f84c1f8	1.0371695
26	0xbf62810b	-0.88478154
27	0x3d3b4712	0.045722075
28	0x3edb3ee8	0.4282143
29	0xbff0079b	-1.8752321
30	0x3e991a89	0.29903057
31	0x3f5edb8c	0.8705375
32	0x3c2937a4	0.010328207
33	0xbe82a583	-0.255169
34	0x3f58a226	0.8462242
35	0x3f43e440	0.76520157
36	0xbf142ed2	-0.5788394
37	0x3f0545fe	0.52059925
38	0x3f441d89	0.7660757
39	0x3c2f3dcc	0.010695886
40	0x3f5a84e8	0.8535905
41	0xbfd94486	-1.6974037
42	0xbbb42389	-0.0054974
43	0x3c867a92	0.016415868
44	0x3dd64fea	0.10464461
45	0x3cdef8a5	0.027218172
46	0x3f53dd6b	0.8275973
47	0x3ea9b591	0.33146337
48	0x40193422	2.393807
49	0xbf99ce96	-1.201617
50	0x3f03d31a	0.5149399
51	0x3ea3c5a1	0.31986716
52	0x3fc777db	1.5583452
53	0x3f19846c	0.59967685
54	0xbf41d30a	-0.75712645
55	0xbcdac40a	-0.026704807
56	0x3f851111	1.0395833
57	0x3e233c3f	0.15940951
58	0xbea3639e	-0.3191194
59	0x3ed7212e	0.42017502
60	0x3ebc7888	0.36810708
61	0x3e0383d7	0.12843262
62	0xbfe043a1	-1.7520639
63	0xbc8b34f6	-0.016993027

decoder.weight f4 [784, 64]
0	0xbd15a487	-0.03653386
1	0xbe2006df	-0.15627621
2	0xbd869a16	-0.06572358
3	0x3c3cd1b4	0.0115246065
4	0xbc0bef3c	-0.008540925
5	0x3d818452	0.06324066
6	0xbe27b651	-0.16378142
7	0xbe0f43d8	-0.13990724
8	0x3d8c13fa	0.06839748
9	0x3bbdd43b	0.005793122
10	0xbe208097	-0.15674053
11	0x3deb09cc	0.11476478
12	0x3d7cc208	0.06170848
13	0xbb1d6d75	-0.002402154
14	0xbdb3e827	-0.08784514
15	0xbdf83d92	-0.121211186
16	0xbdb77c50	-0.089592576
17	0xbd8969a8	-0.067096055
18	0xbdcc8d71	-0.09987915
19	0xbc436281	-0.011925341
20	0xbdeff5c3	-0.11716797
21	0xbc2479a0	-0.010038763
22	0xbd1f500f	-0.03889471
23	0x3da996eb	0.082807384
24	0x3c83409c	0.01602202
25	0xbe8617fc	-0.26190174
26	0x3cc96377	0.024583561
27	0xbd4beb47	-0.049784925
28	0x3cdd53f0	0.027017564
29	0x3afa7717	0.0019108978
30	0xbd6c134b	-0.057635587
31	0x3d001570	0.031270444
32	0x3deb0a2f	0.11476552
33	0x3d053ed4	0.03253062
34	0xbde9eacb	-0.11421736
35	0xbce53ad1	-0.027982147
36	0xbdee1b13	-0.11626258
37	0xbdddf962	-0.108385816
38	0xbe03d8f3	-0.12875728
39	0x3d9b63ac	0.0758737
40	0xbe254202	-0.16138461
41	0xbd13e82a	-0.03611008
42	0xbc7e4f81	-0.015521885
43	0xbb379590	-0.002801273
44	0x3b59e5a2	0.0033248444
45	0x3d088632	0.033331104
46	0xbdc01627	-0.09379225
47	0xbd210638	-0.03931257
48	0x3d87ffd3	0.066405915
49	0xbe683b91	-0.22678973
50	0xbc8f7836	-0.017513376
51	0x3d5c76bf	0.053824183
52	0xbe2c706a	-0.16839758
53	0xbe0a70f2	-0.13519648
54	0xbcaa2537	-0.020769699
55	0x3d11ec3b	0.035625678
56	0x3d6471ea	0.0557727
57	0x3ddafdde	0.106929526
58	0x3d35a154	0.044343308
59	0xbdb848b1	-0.0899824
60	0x3d650eab	0.05592219
61	0x3db34d6b	0.08755001
62	0xbd981ced	-0.07427392
63	0xbc595d92	-0.013266938
64	0xbc909316	-0.017648261
65	0xbd6eb691	-0.058279578
66	0xbdeb0f84	-0.11477569
67	0xbe202e09	-0.15642561
68	0x3d93f5c7	0.07224613
69	0xbd3dd3a6	-0.04634442
70	0xbd044bde	-0.032298915
71	0x3c93ce2d	0.018042648
72	0xbd9728b1	-0.07380808
73	0x3d27cda6	0.040967606
74	0xbdcfb3d5	-0.10141722
75	0x3d67bf2a	0.056578793
76	0xbd4690a8	-0.0484778
77	0xbdb5cfff	-0.08877563
78	0xbde6990a	-0.11259659
79	0xbd542d42	-0.051800974
80	0xbde642d4	-0.11243215
81	0x3da3a876	0.07991116
82	0xbe2cb194	-0.16864616
83	0xbe1ad638	-0.1512078
84	0x3d88eaf8	0.06685442
85	0xbd42a25f	-0.04751813
86	0x3d2dc0a5	0.04242005
87	0xbd540902	-0.051766403
88	0xbd90eafd	-0.070760705
89	0xbe972cd6	-0.29526395
90	0xbe0cbe5b	-0.1374449
91	0xbdd5e248	-0.1044355
92	0xbe1f88b4	-0.15579492
93	0x3ca9d44a	0.02073111
94	0xbdeeac27	-0.11653929
95	0x3c897963	0.016781515
96	0xb9ace8f4	-0.0003297996
97	0xbe1c7b26	-0.15281352
98	0xbd8ed3db	-0.06974002
99	0xbe1573fc	-0.14595026
100	0xbce20a76	-0.027592879
101	0x3dacafdc	0.0843198
102	0xbcc3ed97	-0.023917003
103	0x3adfc583	0.0017072413
104	0xbddf2886	-0.10896401
105	0xbddbf319	-0.107397266
106	0x3db57d96	0.08861844
107	0x3dd92ad8	0.10603875
108	0xbdaf12af	-0.085484855
109	0xbdb7195d	-0.089403845
110	0xbd90078d	-0.0703269
111	0xbdbb4c7a	-0.09145446
112	0x3da97227	0.08273726
113	0xbe2595ce	-0.16170427
114	0x3c157784	0.009122733
115	0x3a35ea94	0.0006939557
116	0xbdc897aa	-0.097945526
117	0x3d5a9240	0.05336213
118	0xbda6a4f0	-0.08136928
119	0x3da5afc1	0.08090163
120	0x3d5add7c	0.05343388
121	0x3daf8ae3	0.085714124
122	0xbda03490	-0.078225255
123	0xbc9aa669	-0.018878179
124	0xbddb6abc	-0.10713717
125	0xbd91882b	-0.0710605
126	0xbc5382a5	-0.012909566
127	0xbd35f541	-0.044423345
128	0xbe08eda4	-0.13371903
129	0xbe003284	-0.1251927
130	0xbcd972b2	-0.026543949
131	0xbe01313a	-0.12616435
132	0xbb255a50	-0.0025230832
133	0xbdb56aa5	-0.088582315
134	0xbdfeb0f9	-0.124360986
135	0x3d2aa45c	0.04166065
136	0xbe0c97a5	-0.13729723
137	0x3d8b9111	0.068147786
138	0xbd1872df	-0.037218925
139	0xbde6dbfc	-0.112724274
140	0x3d64f1b9	0.055894587
141	0xbd27a3e0	-0.040927768
142	0xbe05ba1c	-0.13059276
143	0xbd2e957a	-0.04262302
144	0xbdcab666	-0.09898071
145	0x3dab82c3	0.0837455
146	0xbe0f6fad	-0.14007445
147	0x3da41c3c	0.08013198
148	0xbe1e707d	-0.15472598
149	0xbbfd5635	-0.007731224
150	0x3d46770d	0.04845338
151	0xbe0576eb	-0.13033645
152	0xbdd26dbb	-0.10274836
153	0xbe4c8da5	-0.19975908
154	0xbd976739	-0.07392735
155	0xbd7010ef	-0.0586099
156	0xbdffa027	-0.124817185
157	0x3b272cb9	0.0025508835
158	0xbdf7a499	-0.120919414
159	0x3d803e11	0.06261838
160	0xbc3d4c12	-0.011553781
161	0xbe0d45b1	-0.13796116
162	0xbdaa97bb	-0.083297215
163	0xbd47909c	-0.048721895
164	0xbda253ee	-0.079261646
165	0xbbe67c9e	-0.0070338985
166	0x3d54c5f7	0.051946606
167	0xbd85c294	-0.065312535
168	0xbd29849b	-0.041386228
169	0xbe144869	-0.14480747
170	0xbd6f0114	-0.058350638
171	0x3da7f0d7	0.082002334
172	0xbe18f4f5	-0.14937194
173	0xbd0897e4	-0.03334798
174	0xbc4e81d7	-0.012604198
175	0xbd1df6c8	-0.038565427
176	0xbd5353c7	-0.05159357
177	0xbe66af5c	-0.22527832
178	0x3c4b3ef5	0.012405147
179	0xbd9f70e5	-0.07785205
180	0xbb777a32	-0.0037762043
181	0xbe0b6d41	-0.13615896
182	0xbe1b7eea	-0.15185133
183	0xbc8765dd	-0.016528064
184	0xbd0b92c2	-0.034075506
185	0xbc0993c0	-0.008397043
186	0xbb83cb32	-0.0040220255
187	0x3d9b87e4	0.075942785
188	0x3d8638ff	0.0655384
189	0x3c989162	0.018624011
190	0xbba703c2	-0.0050968835
191	0xbd9997aa	-0.07499631
192	0x3b1023c3	0.0021993972
193	0xbe21150c	-0.15730685
194	0xbd7a14ba	-0.061054923
195	0xbdaf93e8	-0.08573133
196	0xbda0deed	-0.0785502
197	0x3d54168f	0.051779326
198	0xbddfff80	-0.10937405
199	0x3d83000a	0.06396492
200	0x3d83e60c	0.06440362
201	0x3d9925fb	0.07477947
202	0x3d1b6bc7	0.03794458
203	0xbddb8362	-0.10718419
204	0xbe2401d1	-0.16016318
205	0xbc993619	-0.018702554
206	0x3cf9de31	0.030501457
207	0x3ca4f84b	0.020137927
208	0xbda72509	-0.08161361
209	0xbd3789af	-0.04480904
210	0xbe531efd	-0.2061729
211	0x3da19548	0.07889801
212	0xbdd3f47a	-0.103493646
213	0x3d653d36	0.05596658
214	0xbc0f144b	-0.008732866
215	0xbdc3aff8	-0.09555048
216	0xbc8084d2	-0.015688334
217	0xbe8c7fcd	-0.27441254
218	0xbd3ddb79	-0.046351884
219	0xbdc42a17	-0.095783405
220	0xbcd51e12	-0.026015315
221	0xbe21b65a	-0.15792218
222	0xbd358aa9	-0.04432169
223	0xbdfc7b07	-0.12328153
224	0xbd5dd58d	-0.054158736
225	0x3d451d80	0.048123837
226	0xbe037f0a	-0.1284143
227	0x3d870ca2	0.065942064
228	0xbe219c9f	-0.15782402
229	0xbda88025	-0.08227567
230	0xbe099904	-0.13437277
231	0x3de46180	0.11151409
232	0x3ca41354	0.020028748
233	0x3d440a80	0.047861576
234	0x3dafc364	0.0858219
235	0x3d36ecec	0.04465954
236	0xbdb5a185	-0.08868698
237	0x3da1ec87	0.07906442
238	0xbd48843d	-0.048954237
239	0xbbeaf109	-0.007169847
240	0xbd58dd17	-0.052945223
241	0xbe585bab	-0.21128719
242	0xbd8ed88b	-0.06974896
243	0x3cf68d17	0.030096574
244	0xbacc6ad6	-0.0015595804
245	0xbe002025	-0.12512262
246	0xbbafac4f	-0.005361117
247	0xbdbcdf9b	-0.09222337
248	0x3cec92a0	0.02887851
249	0xbdbc25d2	-0.09186901
250	0x3d497f29	0.049193535
251	0xbca22557	-0.019793196
252	0xbdb98261	-0.09058071
253	0xbcd44aec	-0.025914632
254	0xbdfe699a	-0.12422486
255	0x3dda3ee7	0.10656529

decoder.bias f4 [784]
0	0xbe006587	-0.1253873
1	0xbd8d33f7	-0.06894677
2	0x3d84de76	0.064877436
3	0xbd86ea3d	-0.06587646
4	0xbd220a0d	-0.039560366
5	0xbdf48557	-0.11939495
6	0xbe0ad629	-0.13558258
7	0xbda5febe	-0.08105229
8	0xbdd02c7d	-0.101647355
9	0xbcc491e3	-0.023995345
10	0xbc9cbd08	-0.019133106
11	0x3d7ef6f9	0.06224725
12	0xbd262602	-0.04056359
13	0xbcfd97dd	-0.030956203
14	0xbe14d517	-0.14534412
15	0xbdac17c8	-0.084029734
16	0x3d728511	0.059208933
17	0x3da71972	0.0815915
18	0x3d2e9330	0.042620838
19	0xbcd18dcf	-0.025580315
20	0xbc9fb403	-0.019495016
21	0x3da27908	0.07933241
22	0xbdf3f89d	-0.119126536
23	0x3afbf161	0.0019221717
24	0xbdc2327e	-0.09482287
25	0xbe06e99e	-0.13175055
26	0xbd90ede9	-0.07076628
27	0x3d6cef1c	0.05784522
28	0x3d11cfc0	0.035598516
29	0x3c515faa	0.012779156
30	0xbdc20efc	-0.09475514
31	0x3ce6db87	0.02818085
32	0x3c3fcdfe	0.011706827
33	0xbdd3a96c	-0.10335049
34	0xbdf8be46	-0.12145667
35	0xbdc60f83	-0.096709274
36	0x3d9d99ca	0.076953486
37	0x3c1020b0	0.008796856
38	0x3d5929ff	0.053018566
39	0xbc2c8845	-0.010530536
40	0xbda49d76	-0.08037846
41	0xbc9c248a	-0.019060392
42	0xbcb0c359	-0.021577524
43	0xbbff08d3	-0.0077830344
44	0xbe10b334	-0.1413086
45	0x3d8eb898	0.06968802
46	0xbd8c6ebc	-0.068570584
47	0xbdcb3eb3	-0.09924068
48	0xbd944993	-0.07240596
49	0xbbd48f53	-0.006486812
50	0xbdc60238	-0.09668392
51	0xbe0a60bc	-0.13513464
52	0xbca893da	-0.020578314
53	0x3caca456	0.021074455
54	0x3dae5760	0.08512759
55	0xbde0bc66	-0.10973434
56	0xbc81037d	-0.015748734
57	0xbd5526da	-0.052039005
58	0x3d84665d	0.06464837
59	0x3d7a40ab	0.06109683
60	0x3d53987e	0.0516591
61	0xbc23f0c3	-0.010006133
62	0x3d5b7146	0.053574823
63	0x3d932097	0.071839504
64	0xbab5f684	-0.0013882671
65	0xbcfbdb2b	-0.030744156
66	0xbd2c9d93	-0.042142462
67	0xbdbc31b8	-0.091891706
68	0xbde9b6d9	-0.114118285
69	0x3d42a8c5	0.047524232
70	0xbede3207	-0.43397543
71	0xbe816c20	-0.25277805
72	0xbe579bac	-0.21055478
73	0xbe0c7001	-0.13714601
74	0xbe53013d	-0.20605941
75	0x3c850327	0.016236855
76	0x3d91062e	0.07081257
77	0xbe14789d	-0.14499135
78	0x3cdfdae3	0.027326053
79	0x3ad6a909	0.0016377281
80	0xbe0c849e	-0.13722464
81	0xbd582553	-0.05276997
82	0xbd3b70e0	-0.045761943
83	0xbd62d82c	-0.05538194
84	0xbd2e4930	-0.042550266
85	0xbab3df3f	-0.0013723149
86	0xbd6b6eb9	-0.05747864
87	0xbdcb5447	-0.09928184
88	0xbdc49c47	-0.0960012
89	0xbcb804b9	-0.02246319
90	0xbd3da00b	-0.046295207
91	0xbceced00	-0.028921604
92	0xbe168906	-0.14700708
93	0xbdc14140	-0.094362736
94	0xbe05fb16	-0.13084063
95	0xbe5c20d3	-0.21496896
96	0xbe9f6fd6	-0.31140012
97	0xbe9f3956	-0.3109843
98	0xbeb16b20	-0.34652042
99	0xbe9f672d	-0.31133404
100	0xbecf3e25	-0.404771
101	0xbddc28c1	-0.10749961
102	0xbde50f59	-0.11184568
103	0xbe8263e2	-0.2546683
104	0xbcb25f49	-0.021773951
105	0x3cf72e22	0.030173365
106	0xbd4a524a	-0.049394883
107	0x3caf981e	0.02143484
108	0x3dc8f854	0.0981299
109	0xbca4cf2f	-0.020118324
110	0xbdca8642	-0.09888889
111	0x3c64aaac	0.013956707
112	0x3da8f249	0.08249337
113	0xbd6f83d6	-0.058475338
114	0xbd51d3cf	-0.051227387
115	0x3d93a2b4	0.072087675
116	0xbdb7a5e3	-0.08967187
117	0x3d829a4d	0.06377087
118	0x3d8ef5be	0.06980465
119	0xbe1ee55f	-0.15517186
120	0xbe7c7494	-0.24653846
121	0xbded8bf0	-0.115989566
122	0xbdd43e3c	-0.10363433
123	0xbee0f17f	-0.43934247
124	0xbed8ab3c	-0.4231814
125	0xbee10639	-0.4395006
126	0xbf01e502	-0.50740063
127	0xbf137146	-0.57594717
128	0xbeb3ff37	-0.3515565
129	0xbecce947	-0.40021726
130	0xbed6cfba	-0.41955358
131	0xbeace244	-0.33766377
132	0xbee1a1a2	-0.4406863
133	0xbe5ea015	-0.21740754
134	0xbdf7ca5e	-0.12099145
135	0xbddc0d4c	-0.10744724
136	0x3da1f25f	0.07907557
137	0x3d9603cc	0.07324943
138	0x3dc03592	0.09385218
139	0x3dbd5353	0.092444085
140	0xbe1e85a3	-0.15480666
141	0x3dbd1bc5	0.09233812
142	0xbdfe07cc	-0.12403831
143	0xbdbd2c82	-0.09237005
144	0xbe09a07b	-0.13440125
145	0x3d459c21	0.0482446
146	0xbda44735	-0.08021394
147	0xbe6bf308	-0.23041928
148	0xbe42afc8	-0.19012368
149	0xbe6172cf	-0.22016452
150	0xbe8bfbbc	-0.27340496
151	0xbeceb185	-0.40369812
152	0xbf17d78a	-0.5931326
153	0xbf0f434e	-0.55962074
154	0xbf1f2343	-0.6216318
155	0xbedcc59d	-0.43119517
156	0xbef5511b	-0.4791344
157	0xbeed7261	-0.46376327
158	0xbe75dea0	-0.24010706
159	0xbebec94d	-0.37262955
160	0xbedb7595	-0.42863145
161	0xbe5c3ab2	-0.21506765
162	0xbd9fa5c9	-0.07795293
163	0xbe64b0a5	-0.2233301
164	0x3c30af0d	0.010783923
165	0x3cc55eaf	0.024093
166	0xbdfd4504	-0.12366679
167	0x3c2c5b12	0.01051976
168	0x3d3eca6d	0.046579767
169	0xbe052a53	-0.13004427
170	0x3d4ad298	0.049517244
171	0x3dbca13c	0.092104405
172	0xbdb3a3b9	-0.08771462
173	0xbe2c81f9	-0.16846456
174	0xbdd6b6ab	-0.1048406
175	0xbe64a3a9	-0.22328056
176	0xbe25c322	-0.16187719
177	0xbe8ed1f3	-0.27894554
178	0xbe9d8fec	-0.30773866
179	0xbef1c558	-0.47220874
180	0xbec78b7c	-0.38973606
181	0xbf1975cc	-0.5994537
182	0xbeed8243	-0.46388444
183	0xbefa2560	-0.4885664
184	0xbf221bc7	-0.63323635
185	0xbeefa432	-0.4680496
186	0xbf27ee8f	-0.65598387
187	0xbeee8b95	-0.46590868
188	0xbeb6bde8	-0.35691762
189	0xbe746ef0	-0.23870444
190	0xbdd975ab	-0.106181465
191	0xbd859286	-0.06522088
192	0xbe1f8af8	-0.15580356
193	0x3c185b17	0.009299061
194	0xbdf5b94c	-0.11998233
195	0xbcf6069e	-0.030032452
196	0xbd8b3df3	-0.06798925
197	0x3d4fefde	0.050765865
198	0x3d7798df	0.060448524
199	0xb9f0029a	-0.00045778306
200	0xbe028a81	-0.12748148
201	0xbe457191	-0.19281603
202	0xbdd7afba	-0.10531564
203	0xbd4239cd	-0.047418404
204	0xbe850c0b	-0.2598575
205	0xbeb66c5d	-0.3562955
206	0xbf17ec5e	-0.5934504
207	0xbef1c45f	-0.47220132
208	0xbedc4822	-0.43023783
209	0xbf196d1e	-0.59932125
210	0xbf14ffbc	-0.5820272
211	0xbf386be8	-0.7203965
212	0xbf12ff4a	-0.5742079
213	0xbf48607b	-0.7827222
214	0xbf412037	-0.7543978
215	0xbf11b35d	-0.5691431
216	0xbf1ca956	-0.61195886
217	0xbec4bda4	-0.38425934
218	0xbea4e302	-0.32204443
219	0xbe466739	-0.19375314
220	0xbe6f6207	-0.23377238
221	0xbdf3983a	-0.11894269
222	0xbcb47530	-0.022028536
223	0xbd864ea7	-0.065579705
224	0xba82657d	-0.0009948459
225	0x3cd233e0	0.025659502
226	0x3d52ef04	0.051497474
227	0xbd5161aa	-0.05111853
228	0xbdd46af3	-0.103719614
229	0xbe0594a6	-0.13044986
230	0xbe58ffb7	-0.21191297
231	0xbdaf5df6	-0.085628435
232	0xbeedae96	-0.4642226
233	0xbf07c749	-0.5303846
234	0xbec271cb	-0.37977442
235	0xbee6142a	-0.4493726
236	0xbf016728	-0.5054803
237	0xbf1db36b	-0.61601895
238	0xbf4272e2	-0.7595655
239	0xbf3ee385	-0.7456592
240	0xbf49f6b0	-0.7889204
241	0xbf45a157	-0.7719931
242	0xbf154f38	-0.58324003
243	0xbf1cc6d3	-0.6124088
244	0xbefe3573	-0.49650154
245	0xbe820b14	-0.25399077
246	0xbedb2aa3	-0.42805967
247	0xbe69ad26	-0.22819957
248	0xbd8e69f7	-0.06953805
249	0xbe734408	-0.2375642
250	0xbd33a683	-0.04385997
251	0xbdbfdedd	-0.0936868
252	0x3da55c22	0.080742136
253	0xbe0ab3b1	-0.1354511
254	0x3d8414df	0.06449293
255	0xbde1d840	-0.110275745
